{"class_name": "Model", "keras_version": "2.2.2", "backend": "tensorflow", "config": {"output_layers": [["reshape_3", 0, 0]], "layers": [{"class_name": "InputLayer", "name": "input_1", "config": {"sparse": false, "batch_input_shape": [null, 720, 1280, 3], "name": "input_1", "dtype": "float32"}, "inbound_nodes": []}, {"class_name": "Lambda", "name": "lambda_1", "config": {"function": ["4wEAAAAAAAAAAQAAAAsAAAATAAAAc0kAAAB0AABqAQB8AABkAQBkAgCIAACIAABkAgBnBABkAwBk\nAgCIAQCIAQBkAgBnBABkBABkAgBkAgBkAgBkAgBnBABkBQBkBgCDAQRTKQdO2gZrc2l6ZXPpAQAA\nANoHc3RyaWRlc9oFcmF0ZXPaB3BhZGRpbmfaBVZBTElEKQLaAnRm2hVleHRyYWN0X2ltYWdlX3Bh\ndGNoZXMpAdoBeCkC2gZrZXJuZWzaBnN0cmlkZakA+iQvaG9tZS95b29uZ2kvV2Fsay1Bc3Npc3Rh\nbnQvbW9kZWwucHnaCDxsYW1iZGE+YgAAAHMCAAAABgE=\n", null, [80, 80]], "function_type": "lambda", "trainable": true, "output_shape_type": "raw", "output_shape": null, "name": "lambda_1", "arguments": {}}, "inbound_nodes": [[["input_1", 0, 0, {}]]]}, {"class_name": "Reshape", "name": "reshape_1", "config": {"target_shape": [9, 16, 80, 80, 3], "trainable": true, "name": "reshape_1"}, "inbound_nodes": [[["lambda_1", 0, 0, {}]]]}, {"class_name": "Reshape", "name": "reshape_2", "config": {"target_shape": [144, 80, 80, 3], "trainable": true, "name": "reshape_2"}, "inbound_nodes": [[["reshape_1", 0, 0, {}]]]}, {"class_name": "TimeDistributed", "name": "time_distributed_1", "config": {"trainable": true, "layer": {"class_name": "Conv2D", "config": {"dilation_rate": [1, 1], "bias_regularizer": null, "trainable": true, "kernel_regularizer": null, "data_format": "channels_last", "padding": "same", "filters": 32, "strides": [2, 2], "use_bias": true, "bias_initializer": {"class_name": "Zeros", "config": {}}, "activity_regularizer": null, "name": "conv2d_1", "kernel_initializer": {"class_name": "VarianceScaling", "config": {"distribution": "uniform", "seed": null, "scale": 1.0, "mode": "fan_avg"}}, "activation": "linear", "kernel_size": [3, 3], "kernel_constraint": null, "bias_constraint": null}}, "name": "time_distributed_1"}, "inbound_nodes": [[["reshape_2", 0, 0, {}]]]}, {"class_name": "TimeDistributed", "name": "time_distributed_2", "config": {"trainable": true, "layer": {"class_name": "BatchNormalization", "config": {"epsilon": 0.001, "moving_mean_initializer": {"class_name": "Zeros", "config": {}}, "beta_regularizer": null, "trainable": true, "center": true, "axis": -1, "moving_variance_initializer": {"class_name": "Ones", "config": {}}, "gamma_initializer": {"class_name": "Ones", "config": {}}, "gamma_regularizer": null, "name": "batch_normalization_1", "scale": true, "gamma_constraint": null, "beta_initializer": {"class_name": "Zeros", "config": {}}, "beta_constraint": null, "momentum": 0.99}}, "name": "time_distributed_2"}, "inbound_nodes": [[["time_distributed_1", 0, 0, {}]]]}, {"class_name": "TimeDistributed", "name": "time_distributed_3", "config": {"trainable": true, "layer": {"class_name": "Activation", "config": {"trainable": true, "activation": "relu6", "name": "activation_1"}}, "name": "time_distributed_3"}, "inbound_nodes": [[["time_distributed_2", 0, 0, {}]]]}, {"class_name": "TimeDistributed", "name": "time_distributed_4", "config": {"trainable": true, "layer": {"class_name": "Conv2D", "config": {"dilation_rate": [1, 1], "bias_regularizer": null, "trainable": true, "kernel_regularizer": null, "data_format": "channels_last", "padding": "same", "filters": 32, "strides": [1, 1], "use_bias": true, "bias_initializer": {"class_name": "Zeros", "config": {}}, "activity_regularizer": null, "name": "conv2d_2", "kernel_initializer": {"class_name": "VarianceScaling", "config": {"distribution": "uniform", "seed": null, "scale": 1.0, "mode": "fan_avg"}}, "activation": "linear", "kernel_size": [1, 1], "kernel_constraint": null, "bias_constraint": null}}, "name": "time_distributed_4"}, "inbound_nodes": [[["time_distributed_3", 0, 0, {}]]]}, {"class_name": "TimeDistributed", "name": "time_distributed_5", "config": {"trainable": true, "layer": {"class_name": "BatchNormalization", "config": {"epsilon": 0.001, "moving_mean_initializer": {"class_name": "Zeros", "config": {}}, "beta_regularizer": null, "trainable": true, "center": true, "axis": -1, "moving_variance_initializer": {"class_name": "Ones", "config": {}}, "gamma_initializer": {"class_name": "Ones", "config": {}}, "gamma_regularizer": null, "name": "batch_normalization_2", "scale": true, "gamma_constraint": null, "beta_initializer": {"class_name": "Zeros", "config": {}}, "beta_constraint": null, "momentum": 0.99}}, "name": "time_distributed_5"}, "inbound_nodes": [[["time_distributed_4", 0, 0, {}]]]}, {"class_name": "TimeDistributed", "name": "time_distributed_6", "config": {"trainable": true, "layer": {"class_name": "Activation", "config": {"trainable": true, "activation": "relu6", "name": "activation_2"}}, "name": "time_distributed_6"}, "inbound_nodes": [[["time_distributed_5", 0, 0, {}]]]}, {"class_name": "TimeDistributed", "name": "time_distributed_7", "config": {"trainable": true, "layer": {"class_name": "DepthwiseConv2D", "config": {"bias_regularizer": null, "depthwise_regularizer": null, "trainable": true, "bias_constraint": null, "dilation_rate": [1, 1], "padding": "same", "use_bias": true, "data_format": "channels_last", "strides": [1, 1], "depthwise_constraint": null, "name": "depthwise_conv2d_1", "bias_initializer": {"class_name": "Zeros", "config": {}}, "activity_regularizer": null, "depthwise_initializer": {"class_name": "VarianceScaling", "config": {"distribution": "uniform", "seed": null, "scale": 1.0, "mode": "fan_avg"}}, "depth_multiplier": 1, "activation": "linear", "kernel_size": [3, 3]}}, "name": "time_distributed_7"}, "inbound_nodes": [[["time_distributed_6", 0, 0, {}]]]}, {"class_name": "TimeDistributed", "name": "time_distributed_8", "config": {"trainable": true, "layer": {"class_name": "BatchNormalization", "config": {"epsilon": 0.001, "moving_mean_initializer": {"class_name": "Zeros", "config": {}}, "beta_regularizer": null, "trainable": true, "center": true, "axis": -1, "moving_variance_initializer": {"class_name": "Ones", "config": {}}, "gamma_initializer": {"class_name": "Ones", "config": {}}, "gamma_regularizer": null, "name": "batch_normalization_3", "scale": true, "gamma_constraint": null, "beta_initializer": {"class_name": "Zeros", "config": {}}, "beta_constraint": null, "momentum": 0.99}}, "name": "time_distributed_8"}, "inbound_nodes": [[["time_distributed_7", 0, 0, {}]]]}, {"class_name": "TimeDistributed", "name": "time_distributed_9", "config": {"trainable": true, "layer": {"class_name": "Activation", "config": {"trainable": true, "activation": "relu6", "name": "activation_3"}}, "name": "time_distributed_9"}, "inbound_nodes": [[["time_distributed_8", 0, 0, {}]]]}, {"class_name": "TimeDistributed", "name": "time_distributed_10", "config": {"trainable": true, "layer": {"class_name": "Conv2D", "config": {"dilation_rate": [1, 1], "bias_regularizer": null, "trainable": true, "kernel_regularizer": null, "data_format": "channels_last", "padding": "same", "filters": 16, "strides": [1, 1], "use_bias": true, "bias_initializer": {"class_name": "Zeros", "config": {}}, "activity_regularizer": null, "name": "conv2d_3", "kernel_initializer": {"class_name": "VarianceScaling", "config": {"distribution": "uniform", "seed": null, "scale": 1.0, "mode": "fan_avg"}}, "activation": "linear", "kernel_size": [1, 1], "kernel_constraint": null, "bias_constraint": null}}, "name": "time_distributed_10"}, "inbound_nodes": [[["time_distributed_9", 0, 0, {}]]]}, {"class_name": "TimeDistributed", "name": "time_distributed_11", "config": {"trainable": true, "layer": {"class_name": "BatchNormalization", "config": {"epsilon": 0.001, "moving_mean_initializer": {"class_name": "Zeros", "config": {}}, "beta_regularizer": null, "trainable": true, "center": true, "axis": -1, "moving_variance_initializer": {"class_name": "Ones", "config": {}}, "gamma_initializer": {"class_name": "Ones", "config": {}}, "gamma_regularizer": null, "name": "batch_normalization_4", "scale": true, "gamma_constraint": null, "beta_initializer": {"class_name": "Zeros", "config": {}}, "beta_constraint": null, "momentum": 0.99}}, "name": "time_distributed_11"}, "inbound_nodes": [[["time_distributed_10", 0, 0, {}]]]}, {"class_name": "TimeDistributed", "name": "time_distributed_12", "config": {"trainable": true, "layer": {"class_name": "Conv2D", "config": {"dilation_rate": [1, 1], "bias_regularizer": null, "trainable": true, "kernel_regularizer": null, "data_format": "channels_last", "padding": "same", "filters": 96, "strides": [1, 1], "use_bias": true, "bias_initializer": {"class_name": "Zeros", "config": {}}, "activity_regularizer": null, "name": "conv2d_4", "kernel_initializer": {"class_name": "VarianceScaling", "config": {"distribution": "uniform", "seed": null, "scale": 1.0, "mode": "fan_avg"}}, "activation": "linear", "kernel_size": [1, 1], "kernel_constraint": null, "bias_constraint": null}}, "name": "time_distributed_12"}, "inbound_nodes": [[["time_distributed_11", 0, 0, {}]]]}, {"class_name": "TimeDistributed", "name": "time_distributed_13", "config": {"trainable": true, "layer": {"class_name": "BatchNormalization", "config": {"epsilon": 0.001, "moving_mean_initializer": {"class_name": "Zeros", "config": {}}, "beta_regularizer": null, "trainable": true, "center": true, "axis": -1, "moving_variance_initializer": {"class_name": "Ones", "config": {}}, "gamma_initializer": {"class_name": "Ones", "config": {}}, "gamma_regularizer": null, "name": "batch_normalization_5", "scale": true, "gamma_constraint": null, "beta_initializer": {"class_name": "Zeros", "config": {}}, "beta_constraint": null, "momentum": 0.99}}, "name": "time_distributed_13"}, "inbound_nodes": [[["time_distributed_12", 0, 0, {}]]]}, {"class_name": "TimeDistributed", "name": "time_distributed_14", "config": {"trainable": true, "layer": {"class_name": "Activation", "config": {"trainable": true, "activation": "relu6", "name": "activation_4"}}, "name": "time_distributed_14"}, "inbound_nodes": [[["time_distributed_13", 0, 0, {}]]]}, {"class_name": "TimeDistributed", "name": "time_distributed_15", "config": {"trainable": true, "layer": {"class_name": "DepthwiseConv2D", "config": {"bias_regularizer": null, "depthwise_regularizer": null, "trainable": true, "bias_constraint": null, "dilation_rate": [1, 1], "padding": "same", "use_bias": true, "data_format": "channels_last", "strides": [2, 2], "depthwise_constraint": null, "name": "depthwise_conv2d_2", "bias_initializer": {"class_name": "Zeros", "config": {}}, "activity_regularizer": null, "depthwise_initializer": {"class_name": "VarianceScaling", "config": {"distribution": "uniform", "seed": null, "scale": 1.0, "mode": "fan_avg"}}, "depth_multiplier": 1, "activation": "linear", "kernel_size": [3, 3]}}, "name": "time_distributed_15"}, "inbound_nodes": [[["time_distributed_14", 0, 0, {}]]]}, {"class_name": "TimeDistributed", "name": "time_distributed_16", "config": {"trainable": true, "layer": {"class_name": "BatchNormalization", "config": {"epsilon": 0.001, "moving_mean_initializer": {"class_name": "Zeros", "config": {}}, "beta_regularizer": null, "trainable": true, "center": true, "axis": -1, "moving_variance_initializer": {"class_name": "Ones", "config": {}}, "gamma_initializer": {"class_name": "Ones", "config": {}}, "gamma_regularizer": null, "name": "batch_normalization_6", "scale": true, "gamma_constraint": null, "beta_initializer": {"class_name": "Zeros", "config": {}}, "beta_constraint": null, "momentum": 0.99}}, "name": "time_distributed_16"}, "inbound_nodes": [[["time_distributed_15", 0, 0, {}]]]}, {"class_name": "TimeDistributed", "name": "time_distributed_17", "config": {"trainable": true, "layer": {"class_name": "Activation", "config": {"trainable": true, "activation": "relu6", "name": "activation_5"}}, "name": "time_distributed_17"}, "inbound_nodes": [[["time_distributed_16", 0, 0, {}]]]}, {"class_name": "TimeDistributed", "name": "time_distributed_18", "config": {"trainable": true, "layer": {"class_name": "Conv2D", "config": {"dilation_rate": [1, 1], "bias_regularizer": null, "trainable": true, "kernel_regularizer": null, "data_format": "channels_last", "padding": "same", "filters": 24, "strides": [1, 1], "use_bias": true, "bias_initializer": {"class_name": "Zeros", "config": {}}, "activity_regularizer": null, "name": "conv2d_5", "kernel_initializer": {"class_name": "VarianceScaling", "config": {"distribution": "uniform", "seed": null, "scale": 1.0, "mode": "fan_avg"}}, "activation": "linear", "kernel_size": [1, 1], "kernel_constraint": null, "bias_constraint": null}}, "name": "time_distributed_18"}, "inbound_nodes": [[["time_distributed_17", 0, 0, {}]]]}, {"class_name": "TimeDistributed", "name": "time_distributed_19", "config": {"trainable": true, "layer": {"class_name": "BatchNormalization", "config": {"epsilon": 0.001, "moving_mean_initializer": {"class_name": "Zeros", "config": {}}, "beta_regularizer": null, "trainable": true, "center": true, "axis": -1, "moving_variance_initializer": {"class_name": "Ones", "config": {}}, "gamma_initializer": {"class_name": "Ones", "config": {}}, "gamma_regularizer": null, "name": "batch_normalization_7", "scale": true, "gamma_constraint": null, "beta_initializer": {"class_name": "Zeros", "config": {}}, "beta_constraint": null, "momentum": 0.99}}, "name": "time_distributed_19"}, "inbound_nodes": [[["time_distributed_18", 0, 0, {}]]]}, {"class_name": "TimeDistributed", "name": "time_distributed_20", "config": {"trainable": true, "layer": {"class_name": "Conv2D", "config": {"dilation_rate": [1, 1], "bias_regularizer": null, "trainable": true, "kernel_regularizer": null, "data_format": "channels_last", "padding": "same", "filters": 144, "strides": [1, 1], "use_bias": true, "bias_initializer": {"class_name": "Zeros", "config": {}}, "activity_regularizer": null, "name": "conv2d_6", "kernel_initializer": {"class_name": "VarianceScaling", "config": {"distribution": "uniform", "seed": null, "scale": 1.0, "mode": "fan_avg"}}, "activation": "linear", "kernel_size": [1, 1], "kernel_constraint": null, "bias_constraint": null}}, "name": "time_distributed_20"}, "inbound_nodes": [[["time_distributed_19", 0, 0, {}]]]}, {"class_name": "TimeDistributed", "name": "time_distributed_21", "config": {"trainable": true, "layer": {"class_name": "BatchNormalization", "config": {"epsilon": 0.001, "moving_mean_initializer": {"class_name": "Zeros", "config": {}}, "beta_regularizer": null, "trainable": true, "center": true, "axis": -1, "moving_variance_initializer": {"class_name": "Ones", "config": {}}, "gamma_initializer": {"class_name": "Ones", "config": {}}, "gamma_regularizer": null, "name": "batch_normalization_8", "scale": true, "gamma_constraint": null, "beta_initializer": {"class_name": "Zeros", "config": {}}, "beta_constraint": null, "momentum": 0.99}}, "name": "time_distributed_21"}, "inbound_nodes": [[["time_distributed_20", 0, 0, {}]]]}, {"class_name": "TimeDistributed", "name": "time_distributed_22", "config": {"trainable": true, "layer": {"class_name": "Activation", "config": {"trainable": true, "activation": "relu6", "name": "activation_6"}}, "name": "time_distributed_22"}, "inbound_nodes": [[["time_distributed_21", 0, 0, {}]]]}, {"class_name": "TimeDistributed", "name": "time_distributed_23", "config": {"trainable": true, "layer": {"class_name": "DepthwiseConv2D", "config": {"bias_regularizer": null, "depthwise_regularizer": null, "trainable": true, "bias_constraint": null, "dilation_rate": [1, 1], "padding": "same", "use_bias": true, "data_format": "channels_last", "strides": [1, 1], "depthwise_constraint": null, "name": "depthwise_conv2d_3", "bias_initializer": {"class_name": "Zeros", "config": {}}, "activity_regularizer": null, "depthwise_initializer": {"class_name": "VarianceScaling", "config": {"distribution": "uniform", "seed": null, "scale": 1.0, "mode": "fan_avg"}}, "depth_multiplier": 1, "activation": "linear", "kernel_size": [3, 3]}}, "name": "time_distributed_23"}, "inbound_nodes": [[["time_distributed_22", 0, 0, {}]]]}, {"class_name": "TimeDistributed", "name": "time_distributed_24", "config": {"trainable": true, "layer": {"class_name": "BatchNormalization", "config": {"epsilon": 0.001, "moving_mean_initializer": {"class_name": "Zeros", "config": {}}, "beta_regularizer": null, "trainable": true, "center": true, "axis": -1, "moving_variance_initializer": {"class_name": "Ones", "config": {}}, "gamma_initializer": {"class_name": "Ones", "config": {}}, "gamma_regularizer": null, "name": "batch_normalization_9", "scale": true, "gamma_constraint": null, "beta_initializer": {"class_name": "Zeros", "config": {}}, "beta_constraint": null, "momentum": 0.99}}, "name": "time_distributed_24"}, "inbound_nodes": [[["time_distributed_23", 0, 0, {}]]]}, {"class_name": "TimeDistributed", "name": "time_distributed_25", "config": {"trainable": true, "layer": {"class_name": "Activation", "config": {"trainable": true, "activation": "relu6", "name": "activation_7"}}, "name": "time_distributed_25"}, "inbound_nodes": [[["time_distributed_24", 0, 0, {}]]]}, {"class_name": "TimeDistributed", "name": "time_distributed_26", "config": {"trainable": true, "layer": {"class_name": "Conv2D", "config": {"dilation_rate": [1, 1], "bias_regularizer": null, "trainable": true, "kernel_regularizer": null, "data_format": "channels_last", "padding": "same", "filters": 24, "strides": [1, 1], "use_bias": true, "bias_initializer": {"class_name": "Zeros", "config": {}}, "activity_regularizer": null, "name": "conv2d_7", "kernel_initializer": {"class_name": "VarianceScaling", "config": {"distribution": "uniform", "seed": null, "scale": 1.0, "mode": "fan_avg"}}, "activation": "linear", "kernel_size": [1, 1], "kernel_constraint": null, "bias_constraint": null}}, "name": "time_distributed_26"}, "inbound_nodes": [[["time_distributed_25", 0, 0, {}]]]}, {"class_name": "TimeDistributed", "name": "time_distributed_27", "config": {"trainable": true, "layer": {"class_name": "BatchNormalization", "config": {"epsilon": 0.001, "moving_mean_initializer": {"class_name": "Zeros", "config": {}}, "beta_regularizer": null, "trainable": true, "center": true, "axis": -1, "moving_variance_initializer": {"class_name": "Ones", "config": {}}, "gamma_initializer": {"class_name": "Ones", "config": {}}, "gamma_regularizer": null, "name": "batch_normalization_10", "scale": true, "gamma_constraint": null, "beta_initializer": {"class_name": "Zeros", "config": {}}, "beta_constraint": null, "momentum": 0.99}}, "name": "time_distributed_27"}, "inbound_nodes": [[["time_distributed_26", 0, 0, {}]]]}, {"class_name": "Add", "name": "add_1", "config": {"trainable": true, "name": "add_1"}, "inbound_nodes": [[["time_distributed_27", 0, 0, {}], ["time_distributed_19", 0, 0, {}]]]}, {"class_name": "TimeDistributed", "name": "time_distributed_28", "config": {"trainable": true, "layer": {"class_name": "Conv2D", "config": {"dilation_rate": [1, 1], "bias_regularizer": null, "trainable": true, "kernel_regularizer": null, "data_format": "channels_last", "padding": "same", "filters": 144, "strides": [1, 1], "use_bias": true, "bias_initializer": {"class_name": "Zeros", "config": {}}, "activity_regularizer": null, "name": "conv2d_8", "kernel_initializer": {"class_name": "VarianceScaling", "config": {"distribution": "uniform", "seed": null, "scale": 1.0, "mode": "fan_avg"}}, "activation": "linear", "kernel_size": [1, 1], "kernel_constraint": null, "bias_constraint": null}}, "name": "time_distributed_28"}, "inbound_nodes": [[["add_1", 0, 0, {}]]]}, {"class_name": "TimeDistributed", "name": "time_distributed_29", "config": {"trainable": true, "layer": {"class_name": "BatchNormalization", "config": {"epsilon": 0.001, "moving_mean_initializer": {"class_name": "Zeros", "config": {}}, "beta_regularizer": null, "trainable": true, "center": true, "axis": -1, "moving_variance_initializer": {"class_name": "Ones", "config": {}}, "gamma_initializer": {"class_name": "Ones", "config": {}}, "gamma_regularizer": null, "name": "batch_normalization_11", "scale": true, "gamma_constraint": null, "beta_initializer": {"class_name": "Zeros", "config": {}}, "beta_constraint": null, "momentum": 0.99}}, "name": "time_distributed_29"}, "inbound_nodes": [[["time_distributed_28", 0, 0, {}]]]}, {"class_name": "TimeDistributed", "name": "time_distributed_30", "config": {"trainable": true, "layer": {"class_name": "Activation", "config": {"trainable": true, "activation": "relu6", "name": "activation_8"}}, "name": "time_distributed_30"}, "inbound_nodes": [[["time_distributed_29", 0, 0, {}]]]}, {"class_name": "TimeDistributed", "name": "time_distributed_31", "config": {"trainable": true, "layer": {"class_name": "DepthwiseConv2D", "config": {"bias_regularizer": null, "depthwise_regularizer": null, "trainable": true, "bias_constraint": null, "dilation_rate": [1, 1], "padding": "same", "use_bias": true, "data_format": "channels_last", "strides": [2, 2], "depthwise_constraint": null, "name": "depthwise_conv2d_4", "bias_initializer": {"class_name": "Zeros", "config": {}}, "activity_regularizer": null, "depthwise_initializer": {"class_name": "VarianceScaling", "config": {"distribution": "uniform", "seed": null, "scale": 1.0, "mode": "fan_avg"}}, "depth_multiplier": 1, "activation": "linear", "kernel_size": [3, 3]}}, "name": "time_distributed_31"}, "inbound_nodes": [[["time_distributed_30", 0, 0, {}]]]}, {"class_name": "TimeDistributed", "name": "time_distributed_32", "config": {"trainable": true, "layer": {"class_name": "BatchNormalization", "config": {"epsilon": 0.001, "moving_mean_initializer": {"class_name": "Zeros", "config": {}}, "beta_regularizer": null, "trainable": true, "center": true, "axis": -1, "moving_variance_initializer": {"class_name": "Ones", "config": {}}, "gamma_initializer": {"class_name": "Ones", "config": {}}, "gamma_regularizer": null, "name": "batch_normalization_12", "scale": true, "gamma_constraint": null, "beta_initializer": {"class_name": "Zeros", "config": {}}, "beta_constraint": null, "momentum": 0.99}}, "name": "time_distributed_32"}, "inbound_nodes": [[["time_distributed_31", 0, 0, {}]]]}, {"class_name": "TimeDistributed", "name": "time_distributed_33", "config": {"trainable": true, "layer": {"class_name": "Activation", "config": {"trainable": true, "activation": "relu6", "name": "activation_9"}}, "name": "time_distributed_33"}, "inbound_nodes": [[["time_distributed_32", 0, 0, {}]]]}, {"class_name": "TimeDistributed", "name": "time_distributed_34", "config": {"trainable": true, "layer": {"class_name": "Conv2D", "config": {"dilation_rate": [1, 1], "bias_regularizer": null, "trainable": true, "kernel_regularizer": null, "data_format": "channels_last", "padding": "same", "filters": 32, "strides": [1, 1], "use_bias": true, "bias_initializer": {"class_name": "Zeros", "config": {}}, "activity_regularizer": null, "name": "conv2d_9", "kernel_initializer": {"class_name": "VarianceScaling", "config": {"distribution": "uniform", "seed": null, "scale": 1.0, "mode": "fan_avg"}}, "activation": "linear", "kernel_size": [1, 1], "kernel_constraint": null, "bias_constraint": null}}, "name": "time_distributed_34"}, "inbound_nodes": [[["time_distributed_33", 0, 0, {}]]]}, {"class_name": "TimeDistributed", "name": "time_distributed_35", "config": {"trainable": true, "layer": {"class_name": "BatchNormalization", "config": {"epsilon": 0.001, "moving_mean_initializer": {"class_name": "Zeros", "config": {}}, "beta_regularizer": null, "trainable": true, "center": true, "axis": -1, "moving_variance_initializer": {"class_name": "Ones", "config": {}}, "gamma_initializer": {"class_name": "Ones", "config": {}}, "gamma_regularizer": null, "name": "batch_normalization_13", "scale": true, "gamma_constraint": null, "beta_initializer": {"class_name": "Zeros", "config": {}}, "beta_constraint": null, "momentum": 0.99}}, "name": "time_distributed_35"}, "inbound_nodes": [[["time_distributed_34", 0, 0, {}]]]}, {"class_name": "TimeDistributed", "name": "time_distributed_36", "config": {"trainable": true, "layer": {"class_name": "Conv2D", "config": {"dilation_rate": [1, 1], "bias_regularizer": null, "trainable": true, "kernel_regularizer": null, "data_format": "channels_last", "padding": "same", "filters": 192, "strides": [1, 1], "use_bias": true, "bias_initializer": {"class_name": "Zeros", "config": {}}, "activity_regularizer": null, "name": "conv2d_10", "kernel_initializer": {"class_name": "VarianceScaling", "config": {"distribution": "uniform", "seed": null, "scale": 1.0, "mode": "fan_avg"}}, "activation": "linear", "kernel_size": [1, 1], "kernel_constraint": null, "bias_constraint": null}}, "name": "time_distributed_36"}, "inbound_nodes": [[["time_distributed_35", 0, 0, {}]]]}, {"class_name": "TimeDistributed", "name": "time_distributed_37", "config": {"trainable": true, "layer": {"class_name": "BatchNormalization", "config": {"epsilon": 0.001, "moving_mean_initializer": {"class_name": "Zeros", "config": {}}, "beta_regularizer": null, "trainable": true, "center": true, "axis": -1, "moving_variance_initializer": {"class_name": "Ones", "config": {}}, "gamma_initializer": {"class_name": "Ones", "config": {}}, "gamma_regularizer": null, "name": "batch_normalization_14", "scale": true, "gamma_constraint": null, "beta_initializer": {"class_name": "Zeros", "config": {}}, "beta_constraint": null, "momentum": 0.99}}, "name": "time_distributed_37"}, "inbound_nodes": [[["time_distributed_36", 0, 0, {}]]]}, {"class_name": "TimeDistributed", "name": "time_distributed_38", "config": {"trainable": true, "layer": {"class_name": "Activation", "config": {"trainable": true, "activation": "relu6", "name": "activation_10"}}, "name": "time_distributed_38"}, "inbound_nodes": [[["time_distributed_37", 0, 0, {}]]]}, {"class_name": "TimeDistributed", "name": "time_distributed_39", "config": {"trainable": true, "layer": {"class_name": "DepthwiseConv2D", "config": {"bias_regularizer": null, "depthwise_regularizer": null, "trainable": true, "bias_constraint": null, "dilation_rate": [1, 1], "padding": "same", "use_bias": true, "data_format": "channels_last", "strides": [1, 1], "depthwise_constraint": null, "name": "depthwise_conv2d_5", "bias_initializer": {"class_name": "Zeros", "config": {}}, "activity_regularizer": null, "depthwise_initializer": {"class_name": "VarianceScaling", "config": {"distribution": "uniform", "seed": null, "scale": 1.0, "mode": "fan_avg"}}, "depth_multiplier": 1, "activation": "linear", "kernel_size": [3, 3]}}, "name": "time_distributed_39"}, "inbound_nodes": [[["time_distributed_38", 0, 0, {}]]]}, {"class_name": "TimeDistributed", "name": "time_distributed_40", "config": {"trainable": true, "layer": {"class_name": "BatchNormalization", "config": {"epsilon": 0.001, "moving_mean_initializer": {"class_name": "Zeros", "config": {}}, "beta_regularizer": null, "trainable": true, "center": true, "axis": -1, "moving_variance_initializer": {"class_name": "Ones", "config": {}}, "gamma_initializer": {"class_name": "Ones", "config": {}}, "gamma_regularizer": null, "name": "batch_normalization_15", "scale": true, "gamma_constraint": null, "beta_initializer": {"class_name": "Zeros", "config": {}}, "beta_constraint": null, "momentum": 0.99}}, "name": "time_distributed_40"}, "inbound_nodes": [[["time_distributed_39", 0, 0, {}]]]}, {"class_name": "TimeDistributed", "name": "time_distributed_41", "config": {"trainable": true, "layer": {"class_name": "Activation", "config": {"trainable": true, "activation": "relu6", "name": "activation_11"}}, "name": "time_distributed_41"}, "inbound_nodes": [[["time_distributed_40", 0, 0, {}]]]}, {"class_name": "TimeDistributed", "name": "time_distributed_42", "config": {"trainable": true, "layer": {"class_name": "Conv2D", "config": {"dilation_rate": [1, 1], "bias_regularizer": null, "trainable": true, "kernel_regularizer": null, "data_format": "channels_last", "padding": "same", "filters": 32, "strides": [1, 1], "use_bias": true, "bias_initializer": {"class_name": "Zeros", "config": {}}, "activity_regularizer": null, "name": "conv2d_11", "kernel_initializer": {"class_name": "VarianceScaling", "config": {"distribution": "uniform", "seed": null, "scale": 1.0, "mode": "fan_avg"}}, "activation": "linear", "kernel_size": [1, 1], "kernel_constraint": null, "bias_constraint": null}}, "name": "time_distributed_42"}, "inbound_nodes": [[["time_distributed_41", 0, 0, {}]]]}, {"class_name": "TimeDistributed", "name": "time_distributed_43", "config": {"trainable": true, "layer": {"class_name": "BatchNormalization", "config": {"epsilon": 0.001, "moving_mean_initializer": {"class_name": "Zeros", "config": {}}, "beta_regularizer": null, "trainable": true, "center": true, "axis": -1, "moving_variance_initializer": {"class_name": "Ones", "config": {}}, "gamma_initializer": {"class_name": "Ones", "config": {}}, "gamma_regularizer": null, "name": "batch_normalization_16", "scale": true, "gamma_constraint": null, "beta_initializer": {"class_name": "Zeros", "config": {}}, "beta_constraint": null, "momentum": 0.99}}, "name": "time_distributed_43"}, "inbound_nodes": [[["time_distributed_42", 0, 0, {}]]]}, {"class_name": "Add", "name": "add_2", "config": {"trainable": true, "name": "add_2"}, "inbound_nodes": [[["time_distributed_43", 0, 0, {}], ["time_distributed_35", 0, 0, {}]]]}, {"class_name": "TimeDistributed", "name": "time_distributed_44", "config": {"trainable": true, "layer": {"class_name": "Conv2D", "config": {"dilation_rate": [1, 1], "bias_regularizer": null, "trainable": true, "kernel_regularizer": null, "data_format": "channels_last", "padding": "same", "filters": 192, "strides": [1, 1], "use_bias": true, "bias_initializer": {"class_name": "Zeros", "config": {}}, "activity_regularizer": null, "name": "conv2d_12", "kernel_initializer": {"class_name": "VarianceScaling", "config": {"distribution": "uniform", "seed": null, "scale": 1.0, "mode": "fan_avg"}}, "activation": "linear", "kernel_size": [1, 1], "kernel_constraint": null, "bias_constraint": null}}, "name": "time_distributed_44"}, "inbound_nodes": [[["add_2", 0, 0, {}]]]}, {"class_name": "TimeDistributed", "name": "time_distributed_45", "config": {"trainable": true, "layer": {"class_name": "BatchNormalization", "config": {"epsilon": 0.001, "moving_mean_initializer": {"class_name": "Zeros", "config": {}}, "beta_regularizer": null, "trainable": true, "center": true, "axis": -1, "moving_variance_initializer": {"class_name": "Ones", "config": {}}, "gamma_initializer": {"class_name": "Ones", "config": {}}, "gamma_regularizer": null, "name": "batch_normalization_17", "scale": true, "gamma_constraint": null, "beta_initializer": {"class_name": "Zeros", "config": {}}, "beta_constraint": null, "momentum": 0.99}}, "name": "time_distributed_45"}, "inbound_nodes": [[["time_distributed_44", 0, 0, {}]]]}, {"class_name": "TimeDistributed", "name": "time_distributed_46", "config": {"trainable": true, "layer": {"class_name": "Activation", "config": {"trainable": true, "activation": "relu6", "name": "activation_12"}}, "name": "time_distributed_46"}, "inbound_nodes": [[["time_distributed_45", 0, 0, {}]]]}, {"class_name": "TimeDistributed", "name": "time_distributed_47", "config": {"trainable": true, "layer": {"class_name": "DepthwiseConv2D", "config": {"bias_regularizer": null, "depthwise_regularizer": null, "trainable": true, "bias_constraint": null, "dilation_rate": [1, 1], "padding": "same", "use_bias": true, "data_format": "channels_last", "strides": [1, 1], "depthwise_constraint": null, "name": "depthwise_conv2d_6", "bias_initializer": {"class_name": "Zeros", "config": {}}, "activity_regularizer": null, "depthwise_initializer": {"class_name": "VarianceScaling", "config": {"distribution": "uniform", "seed": null, "scale": 1.0, "mode": "fan_avg"}}, "depth_multiplier": 1, "activation": "linear", "kernel_size": [3, 3]}}, "name": "time_distributed_47"}, "inbound_nodes": [[["time_distributed_46", 0, 0, {}]]]}, {"class_name": "TimeDistributed", "name": "time_distributed_48", "config": {"trainable": true, "layer": {"class_name": "BatchNormalization", "config": {"epsilon": 0.001, "moving_mean_initializer": {"class_name": "Zeros", "config": {}}, "beta_regularizer": null, "trainable": true, "center": true, "axis": -1, "moving_variance_initializer": {"class_name": "Ones", "config": {}}, "gamma_initializer": {"class_name": "Ones", "config": {}}, "gamma_regularizer": null, "name": "batch_normalization_18", "scale": true, "gamma_constraint": null, "beta_initializer": {"class_name": "Zeros", "config": {}}, "beta_constraint": null, "momentum": 0.99}}, "name": "time_distributed_48"}, "inbound_nodes": [[["time_distributed_47", 0, 0, {}]]]}, {"class_name": "TimeDistributed", "name": "time_distributed_49", "config": {"trainable": true, "layer": {"class_name": "Activation", "config": {"trainable": true, "activation": "relu6", "name": "activation_13"}}, "name": "time_distributed_49"}, "inbound_nodes": [[["time_distributed_48", 0, 0, {}]]]}, {"class_name": "TimeDistributed", "name": "time_distributed_50", "config": {"trainable": true, "layer": {"class_name": "Conv2D", "config": {"dilation_rate": [1, 1], "bias_regularizer": null, "trainable": true, "kernel_regularizer": null, "data_format": "channels_last", "padding": "same", "filters": 32, "strides": [1, 1], "use_bias": true, "bias_initializer": {"class_name": "Zeros", "config": {}}, "activity_regularizer": null, "name": "conv2d_13", "kernel_initializer": {"class_name": "VarianceScaling", "config": {"distribution": "uniform", "seed": null, "scale": 1.0, "mode": "fan_avg"}}, "activation": "linear", "kernel_size": [1, 1], "kernel_constraint": null, "bias_constraint": null}}, "name": "time_distributed_50"}, "inbound_nodes": [[["time_distributed_49", 0, 0, {}]]]}, {"class_name": "TimeDistributed", "name": "time_distributed_51", "config": {"trainable": true, "layer": {"class_name": "BatchNormalization", "config": {"epsilon": 0.001, "moving_mean_initializer": {"class_name": "Zeros", "config": {}}, "beta_regularizer": null, "trainable": true, "center": true, "axis": -1, "moving_variance_initializer": {"class_name": "Ones", "config": {}}, "gamma_initializer": {"class_name": "Ones", "config": {}}, "gamma_regularizer": null, "name": "batch_normalization_19", "scale": true, "gamma_constraint": null, "beta_initializer": {"class_name": "Zeros", "config": {}}, "beta_constraint": null, "momentum": 0.99}}, "name": "time_distributed_51"}, "inbound_nodes": [[["time_distributed_50", 0, 0, {}]]]}, {"class_name": "Add", "name": "add_3", "config": {"trainable": true, "name": "add_3"}, "inbound_nodes": [[["time_distributed_51", 0, 0, {}], ["add_2", 0, 0, {}]]]}, {"class_name": "TimeDistributed", "name": "time_distributed_52", "config": {"trainable": true, "layer": {"class_name": "Conv2D", "config": {"dilation_rate": [1, 1], "bias_regularizer": null, "trainable": true, "kernel_regularizer": null, "data_format": "channels_last", "padding": "same", "filters": 192, "strides": [1, 1], "use_bias": true, "bias_initializer": {"class_name": "Zeros", "config": {}}, "activity_regularizer": null, "name": "conv2d_14", "kernel_initializer": {"class_name": "VarianceScaling", "config": {"distribution": "uniform", "seed": null, "scale": 1.0, "mode": "fan_avg"}}, "activation": "linear", "kernel_size": [1, 1], "kernel_constraint": null, "bias_constraint": null}}, "name": "time_distributed_52"}, "inbound_nodes": [[["add_3", 0, 0, {}]]]}, {"class_name": "TimeDistributed", "name": "time_distributed_53", "config": {"trainable": true, "layer": {"class_name": "BatchNormalization", "config": {"epsilon": 0.001, "moving_mean_initializer": {"class_name": "Zeros", "config": {}}, "beta_regularizer": null, "trainable": true, "center": true, "axis": -1, "moving_variance_initializer": {"class_name": "Ones", "config": {}}, "gamma_initializer": {"class_name": "Ones", "config": {}}, "gamma_regularizer": null, "name": "batch_normalization_20", "scale": true, "gamma_constraint": null, "beta_initializer": {"class_name": "Zeros", "config": {}}, "beta_constraint": null, "momentum": 0.99}}, "name": "time_distributed_53"}, "inbound_nodes": [[["time_distributed_52", 0, 0, {}]]]}, {"class_name": "TimeDistributed", "name": "time_distributed_54", "config": {"trainable": true, "layer": {"class_name": "Activation", "config": {"trainable": true, "activation": "relu6", "name": "activation_14"}}, "name": "time_distributed_54"}, "inbound_nodes": [[["time_distributed_53", 0, 0, {}]]]}, {"class_name": "TimeDistributed", "name": "time_distributed_55", "config": {"trainable": true, "layer": {"class_name": "DepthwiseConv2D", "config": {"bias_regularizer": null, "depthwise_regularizer": null, "trainable": true, "bias_constraint": null, "dilation_rate": [1, 1], "padding": "same", "use_bias": true, "data_format": "channels_last", "strides": [2, 2], "depthwise_constraint": null, "name": "depthwise_conv2d_7", "bias_initializer": {"class_name": "Zeros", "config": {}}, "activity_regularizer": null, "depthwise_initializer": {"class_name": "VarianceScaling", "config": {"distribution": "uniform", "seed": null, "scale": 1.0, "mode": "fan_avg"}}, "depth_multiplier": 1, "activation": "linear", "kernel_size": [3, 3]}}, "name": "time_distributed_55"}, "inbound_nodes": [[["time_distributed_54", 0, 0, {}]]]}, {"class_name": "TimeDistributed", "name": "time_distributed_56", "config": {"trainable": true, "layer": {"class_name": "BatchNormalization", "config": {"epsilon": 0.001, "moving_mean_initializer": {"class_name": "Zeros", "config": {}}, "beta_regularizer": null, "trainable": true, "center": true, "axis": -1, "moving_variance_initializer": {"class_name": "Ones", "config": {}}, "gamma_initializer": {"class_name": "Ones", "config": {}}, "gamma_regularizer": null, "name": "batch_normalization_21", "scale": true, "gamma_constraint": null, "beta_initializer": {"class_name": "Zeros", "config": {}}, "beta_constraint": null, "momentum": 0.99}}, "name": "time_distributed_56"}, "inbound_nodes": [[["time_distributed_55", 0, 0, {}]]]}, {"class_name": "TimeDistributed", "name": "time_distributed_57", "config": {"trainable": true, "layer": {"class_name": "Activation", "config": {"trainable": true, "activation": "relu6", "name": "activation_15"}}, "name": "time_distributed_57"}, "inbound_nodes": [[["time_distributed_56", 0, 0, {}]]]}, {"class_name": "TimeDistributed", "name": "time_distributed_58", "config": {"trainable": true, "layer": {"class_name": "Conv2D", "config": {"dilation_rate": [1, 1], "bias_regularizer": null, "trainable": true, "kernel_regularizer": null, "data_format": "channels_last", "padding": "same", "filters": 64, "strides": [1, 1], "use_bias": true, "bias_initializer": {"class_name": "Zeros", "config": {}}, "activity_regularizer": null, "name": "conv2d_15", "kernel_initializer": {"class_name": "VarianceScaling", "config": {"distribution": "uniform", "seed": null, "scale": 1.0, "mode": "fan_avg"}}, "activation": "linear", "kernel_size": [1, 1], "kernel_constraint": null, "bias_constraint": null}}, "name": "time_distributed_58"}, "inbound_nodes": [[["time_distributed_57", 0, 0, {}]]]}, {"class_name": "TimeDistributed", "name": "time_distributed_59", "config": {"trainable": true, "layer": {"class_name": "BatchNormalization", "config": {"epsilon": 0.001, "moving_mean_initializer": {"class_name": "Zeros", "config": {}}, "beta_regularizer": null, "trainable": true, "center": true, "axis": -1, "moving_variance_initializer": {"class_name": "Ones", "config": {}}, "gamma_initializer": {"class_name": "Ones", "config": {}}, "gamma_regularizer": null, "name": "batch_normalization_22", "scale": true, "gamma_constraint": null, "beta_initializer": {"class_name": "Zeros", "config": {}}, "beta_constraint": null, "momentum": 0.99}}, "name": "time_distributed_59"}, "inbound_nodes": [[["time_distributed_58", 0, 0, {}]]]}, {"class_name": "TimeDistributed", "name": "time_distributed_60", "config": {"trainable": true, "layer": {"class_name": "Conv2D", "config": {"dilation_rate": [1, 1], "bias_regularizer": null, "trainable": true, "kernel_regularizer": null, "data_format": "channels_last", "padding": "same", "filters": 384, "strides": [1, 1], "use_bias": true, "bias_initializer": {"class_name": "Zeros", "config": {}}, "activity_regularizer": null, "name": "conv2d_16", "kernel_initializer": {"class_name": "VarianceScaling", "config": {"distribution": "uniform", "seed": null, "scale": 1.0, "mode": "fan_avg"}}, "activation": "linear", "kernel_size": [1, 1], "kernel_constraint": null, "bias_constraint": null}}, "name": "time_distributed_60"}, "inbound_nodes": [[["time_distributed_59", 0, 0, {}]]]}, {"class_name": "TimeDistributed", "name": "time_distributed_61", "config": {"trainable": true, "layer": {"class_name": "BatchNormalization", "config": {"epsilon": 0.001, "moving_mean_initializer": {"class_name": "Zeros", "config": {}}, "beta_regularizer": null, "trainable": true, "center": true, "axis": -1, "moving_variance_initializer": {"class_name": "Ones", "config": {}}, "gamma_initializer": {"class_name": "Ones", "config": {}}, "gamma_regularizer": null, "name": "batch_normalization_23", "scale": true, "gamma_constraint": null, "beta_initializer": {"class_name": "Zeros", "config": {}}, "beta_constraint": null, "momentum": 0.99}}, "name": "time_distributed_61"}, "inbound_nodes": [[["time_distributed_60", 0, 0, {}]]]}, {"class_name": "TimeDistributed", "name": "time_distributed_62", "config": {"trainable": true, "layer": {"class_name": "Activation", "config": {"trainable": true, "activation": "relu6", "name": "activation_16"}}, "name": "time_distributed_62"}, "inbound_nodes": [[["time_distributed_61", 0, 0, {}]]]}, {"class_name": "TimeDistributed", "name": "time_distributed_63", "config": {"trainable": true, "layer": {"class_name": "DepthwiseConv2D", "config": {"bias_regularizer": null, "depthwise_regularizer": null, "trainable": true, "bias_constraint": null, "dilation_rate": [1, 1], "padding": "same", "use_bias": true, "data_format": "channels_last", "strides": [1, 1], "depthwise_constraint": null, "name": "depthwise_conv2d_8", "bias_initializer": {"class_name": "Zeros", "config": {}}, "activity_regularizer": null, "depthwise_initializer": {"class_name": "VarianceScaling", "config": {"distribution": "uniform", "seed": null, "scale": 1.0, "mode": "fan_avg"}}, "depth_multiplier": 1, "activation": "linear", "kernel_size": [3, 3]}}, "name": "time_distributed_63"}, "inbound_nodes": [[["time_distributed_62", 0, 0, {}]]]}, {"class_name": "TimeDistributed", "name": "time_distributed_64", "config": {"trainable": true, "layer": {"class_name": "BatchNormalization", "config": {"epsilon": 0.001, "moving_mean_initializer": {"class_name": "Zeros", "config": {}}, "beta_regularizer": null, "trainable": true, "center": true, "axis": -1, "moving_variance_initializer": {"class_name": "Ones", "config": {}}, "gamma_initializer": {"class_name": "Ones", "config": {}}, "gamma_regularizer": null, "name": "batch_normalization_24", "scale": true, "gamma_constraint": null, "beta_initializer": {"class_name": "Zeros", "config": {}}, "beta_constraint": null, "momentum": 0.99}}, "name": "time_distributed_64"}, "inbound_nodes": [[["time_distributed_63", 0, 0, {}]]]}, {"class_name": "TimeDistributed", "name": "time_distributed_65", "config": {"trainable": true, "layer": {"class_name": "Activation", "config": {"trainable": true, "activation": "relu6", "name": "activation_17"}}, "name": "time_distributed_65"}, "inbound_nodes": [[["time_distributed_64", 0, 0, {}]]]}, {"class_name": "TimeDistributed", "name": "time_distributed_66", "config": {"trainable": true, "layer": {"class_name": "Conv2D", "config": {"dilation_rate": [1, 1], "bias_regularizer": null, "trainable": true, "kernel_regularizer": null, "data_format": "channels_last", "padding": "same", "filters": 64, "strides": [1, 1], "use_bias": true, "bias_initializer": {"class_name": "Zeros", "config": {}}, "activity_regularizer": null, "name": "conv2d_17", "kernel_initializer": {"class_name": "VarianceScaling", "config": {"distribution": "uniform", "seed": null, "scale": 1.0, "mode": "fan_avg"}}, "activation": "linear", "kernel_size": [1, 1], "kernel_constraint": null, "bias_constraint": null}}, "name": "time_distributed_66"}, "inbound_nodes": [[["time_distributed_65", 0, 0, {}]]]}, {"class_name": "TimeDistributed", "name": "time_distributed_67", "config": {"trainable": true, "layer": {"class_name": "BatchNormalization", "config": {"epsilon": 0.001, "moving_mean_initializer": {"class_name": "Zeros", "config": {}}, "beta_regularizer": null, "trainable": true, "center": true, "axis": -1, "moving_variance_initializer": {"class_name": "Ones", "config": {}}, "gamma_initializer": {"class_name": "Ones", "config": {}}, "gamma_regularizer": null, "name": "batch_normalization_25", "scale": true, "gamma_constraint": null, "beta_initializer": {"class_name": "Zeros", "config": {}}, "beta_constraint": null, "momentum": 0.99}}, "name": "time_distributed_67"}, "inbound_nodes": [[["time_distributed_66", 0, 0, {}]]]}, {"class_name": "Add", "name": "add_4", "config": {"trainable": true, "name": "add_4"}, "inbound_nodes": [[["time_distributed_67", 0, 0, {}], ["time_distributed_59", 0, 0, {}]]]}, {"class_name": "TimeDistributed", "name": "time_distributed_68", "config": {"trainable": true, "layer": {"class_name": "Conv2D", "config": {"dilation_rate": [1, 1], "bias_regularizer": null, "trainable": true, "kernel_regularizer": null, "data_format": "channels_last", "padding": "same", "filters": 384, "strides": [1, 1], "use_bias": true, "bias_initializer": {"class_name": "Zeros", "config": {}}, "activity_regularizer": null, "name": "conv2d_18", "kernel_initializer": {"class_name": "VarianceScaling", "config": {"distribution": "uniform", "seed": null, "scale": 1.0, "mode": "fan_avg"}}, "activation": "linear", "kernel_size": [1, 1], "kernel_constraint": null, "bias_constraint": null}}, "name": "time_distributed_68"}, "inbound_nodes": [[["add_4", 0, 0, {}]]]}, {"class_name": "TimeDistributed", "name": "time_distributed_69", "config": {"trainable": true, "layer": {"class_name": "BatchNormalization", "config": {"epsilon": 0.001, "moving_mean_initializer": {"class_name": "Zeros", "config": {}}, "beta_regularizer": null, "trainable": true, "center": true, "axis": -1, "moving_variance_initializer": {"class_name": "Ones", "config": {}}, "gamma_initializer": {"class_name": "Ones", "config": {}}, "gamma_regularizer": null, "name": "batch_normalization_26", "scale": true, "gamma_constraint": null, "beta_initializer": {"class_name": "Zeros", "config": {}}, "beta_constraint": null, "momentum": 0.99}}, "name": "time_distributed_69"}, "inbound_nodes": [[["time_distributed_68", 0, 0, {}]]]}, {"class_name": "TimeDistributed", "name": "time_distributed_70", "config": {"trainable": true, "layer": {"class_name": "Activation", "config": {"trainable": true, "activation": "relu6", "name": "activation_18"}}, "name": "time_distributed_70"}, "inbound_nodes": [[["time_distributed_69", 0, 0, {}]]]}, {"class_name": "TimeDistributed", "name": "time_distributed_71", "config": {"trainable": true, "layer": {"class_name": "DepthwiseConv2D", "config": {"bias_regularizer": null, "depthwise_regularizer": null, "trainable": true, "bias_constraint": null, "dilation_rate": [1, 1], "padding": "same", "use_bias": true, "data_format": "channels_last", "strides": [1, 1], "depthwise_constraint": null, "name": "depthwise_conv2d_9", "bias_initializer": {"class_name": "Zeros", "config": {}}, "activity_regularizer": null, "depthwise_initializer": {"class_name": "VarianceScaling", "config": {"distribution": "uniform", "seed": null, "scale": 1.0, "mode": "fan_avg"}}, "depth_multiplier": 1, "activation": "linear", "kernel_size": [3, 3]}}, "name": "time_distributed_71"}, "inbound_nodes": [[["time_distributed_70", 0, 0, {}]]]}, {"class_name": "TimeDistributed", "name": "time_distributed_72", "config": {"trainable": true, "layer": {"class_name": "BatchNormalization", "config": {"epsilon": 0.001, "moving_mean_initializer": {"class_name": "Zeros", "config": {}}, "beta_regularizer": null, "trainable": true, "center": true, "axis": -1, "moving_variance_initializer": {"class_name": "Ones", "config": {}}, "gamma_initializer": {"class_name": "Ones", "config": {}}, "gamma_regularizer": null, "name": "batch_normalization_27", "scale": true, "gamma_constraint": null, "beta_initializer": {"class_name": "Zeros", "config": {}}, "beta_constraint": null, "momentum": 0.99}}, "name": "time_distributed_72"}, "inbound_nodes": [[["time_distributed_71", 0, 0, {}]]]}, {"class_name": "TimeDistributed", "name": "time_distributed_73", "config": {"trainable": true, "layer": {"class_name": "Activation", "config": {"trainable": true, "activation": "relu6", "name": "activation_19"}}, "name": "time_distributed_73"}, "inbound_nodes": [[["time_distributed_72", 0, 0, {}]]]}, {"class_name": "TimeDistributed", "name": "time_distributed_74", "config": {"trainable": true, "layer": {"class_name": "Conv2D", "config": {"dilation_rate": [1, 1], "bias_regularizer": null, "trainable": true, "kernel_regularizer": null, "data_format": "channels_last", "padding": "same", "filters": 64, "strides": [1, 1], "use_bias": true, "bias_initializer": {"class_name": "Zeros", "config": {}}, "activity_regularizer": null, "name": "conv2d_19", "kernel_initializer": {"class_name": "VarianceScaling", "config": {"distribution": "uniform", "seed": null, "scale": 1.0, "mode": "fan_avg"}}, "activation": "linear", "kernel_size": [1, 1], "kernel_constraint": null, "bias_constraint": null}}, "name": "time_distributed_74"}, "inbound_nodes": [[["time_distributed_73", 0, 0, {}]]]}, {"class_name": "TimeDistributed", "name": "time_distributed_75", "config": {"trainable": true, "layer": {"class_name": "BatchNormalization", "config": {"epsilon": 0.001, "moving_mean_initializer": {"class_name": "Zeros", "config": {}}, "beta_regularizer": null, "trainable": true, "center": true, "axis": -1, "moving_variance_initializer": {"class_name": "Ones", "config": {}}, "gamma_initializer": {"class_name": "Ones", "config": {}}, "gamma_regularizer": null, "name": "batch_normalization_28", "scale": true, "gamma_constraint": null, "beta_initializer": {"class_name": "Zeros", "config": {}}, "beta_constraint": null, "momentum": 0.99}}, "name": "time_distributed_75"}, "inbound_nodes": [[["time_distributed_74", 0, 0, {}]]]}, {"class_name": "Add", "name": "add_5", "config": {"trainable": true, "name": "add_5"}, "inbound_nodes": [[["time_distributed_75", 0, 0, {}], ["add_4", 0, 0, {}]]]}, {"class_name": "TimeDistributed", "name": "time_distributed_76", "config": {"trainable": true, "layer": {"class_name": "Conv2D", "config": {"dilation_rate": [1, 1], "bias_regularizer": null, "trainable": true, "kernel_regularizer": null, "data_format": "channels_last", "padding": "same", "filters": 384, "strides": [1, 1], "use_bias": true, "bias_initializer": {"class_name": "Zeros", "config": {}}, "activity_regularizer": null, "name": "conv2d_20", "kernel_initializer": {"class_name": "VarianceScaling", "config": {"distribution": "uniform", "seed": null, "scale": 1.0, "mode": "fan_avg"}}, "activation": "linear", "kernel_size": [1, 1], "kernel_constraint": null, "bias_constraint": null}}, "name": "time_distributed_76"}, "inbound_nodes": [[["add_5", 0, 0, {}]]]}, {"class_name": "TimeDistributed", "name": "time_distributed_77", "config": {"trainable": true, "layer": {"class_name": "BatchNormalization", "config": {"epsilon": 0.001, "moving_mean_initializer": {"class_name": "Zeros", "config": {}}, "beta_regularizer": null, "trainable": true, "center": true, "axis": -1, "moving_variance_initializer": {"class_name": "Ones", "config": {}}, "gamma_initializer": {"class_name": "Ones", "config": {}}, "gamma_regularizer": null, "name": "batch_normalization_29", "scale": true, "gamma_constraint": null, "beta_initializer": {"class_name": "Zeros", "config": {}}, "beta_constraint": null, "momentum": 0.99}}, "name": "time_distributed_77"}, "inbound_nodes": [[["time_distributed_76", 0, 0, {}]]]}, {"class_name": "TimeDistributed", "name": "time_distributed_78", "config": {"trainable": true, "layer": {"class_name": "Activation", "config": {"trainable": true, "activation": "relu6", "name": "activation_20"}}, "name": "time_distributed_78"}, "inbound_nodes": [[["time_distributed_77", 0, 0, {}]]]}, {"class_name": "TimeDistributed", "name": "time_distributed_79", "config": {"trainable": true, "layer": {"class_name": "DepthwiseConv2D", "config": {"bias_regularizer": null, "depthwise_regularizer": null, "trainable": true, "bias_constraint": null, "dilation_rate": [1, 1], "padding": "same", "use_bias": true, "data_format": "channels_last", "strides": [1, 1], "depthwise_constraint": null, "name": "depthwise_conv2d_10", "bias_initializer": {"class_name": "Zeros", "config": {}}, "activity_regularizer": null, "depthwise_initializer": {"class_name": "VarianceScaling", "config": {"distribution": "uniform", "seed": null, "scale": 1.0, "mode": "fan_avg"}}, "depth_multiplier": 1, "activation": "linear", "kernel_size": [3, 3]}}, "name": "time_distributed_79"}, "inbound_nodes": [[["time_distributed_78", 0, 0, {}]]]}, {"class_name": "TimeDistributed", "name": "time_distributed_80", "config": {"trainable": true, "layer": {"class_name": "BatchNormalization", "config": {"epsilon": 0.001, "moving_mean_initializer": {"class_name": "Zeros", "config": {}}, "beta_regularizer": null, "trainable": true, "center": true, "axis": -1, "moving_variance_initializer": {"class_name": "Ones", "config": {}}, "gamma_initializer": {"class_name": "Ones", "config": {}}, "gamma_regularizer": null, "name": "batch_normalization_30", "scale": true, "gamma_constraint": null, "beta_initializer": {"class_name": "Zeros", "config": {}}, "beta_constraint": null, "momentum": 0.99}}, "name": "time_distributed_80"}, "inbound_nodes": [[["time_distributed_79", 0, 0, {}]]]}, {"class_name": "TimeDistributed", "name": "time_distributed_81", "config": {"trainable": true, "layer": {"class_name": "Activation", "config": {"trainable": true, "activation": "relu6", "name": "activation_21"}}, "name": "time_distributed_81"}, "inbound_nodes": [[["time_distributed_80", 0, 0, {}]]]}, {"class_name": "TimeDistributed", "name": "time_distributed_82", "config": {"trainable": true, "layer": {"class_name": "Conv2D", "config": {"dilation_rate": [1, 1], "bias_regularizer": null, "trainable": true, "kernel_regularizer": null, "data_format": "channels_last", "padding": "same", "filters": 64, "strides": [1, 1], "use_bias": true, "bias_initializer": {"class_name": "Zeros", "config": {}}, "activity_regularizer": null, "name": "conv2d_21", "kernel_initializer": {"class_name": "VarianceScaling", "config": {"distribution": "uniform", "seed": null, "scale": 1.0, "mode": "fan_avg"}}, "activation": "linear", "kernel_size": [1, 1], "kernel_constraint": null, "bias_constraint": null}}, "name": "time_distributed_82"}, "inbound_nodes": [[["time_distributed_81", 0, 0, {}]]]}, {"class_name": "TimeDistributed", "name": "time_distributed_83", "config": {"trainable": true, "layer": {"class_name": "BatchNormalization", "config": {"epsilon": 0.001, "moving_mean_initializer": {"class_name": "Zeros", "config": {}}, "beta_regularizer": null, "trainable": true, "center": true, "axis": -1, "moving_variance_initializer": {"class_name": "Ones", "config": {}}, "gamma_initializer": {"class_name": "Ones", "config": {}}, "gamma_regularizer": null, "name": "batch_normalization_31", "scale": true, "gamma_constraint": null, "beta_initializer": {"class_name": "Zeros", "config": {}}, "beta_constraint": null, "momentum": 0.99}}, "name": "time_distributed_83"}, "inbound_nodes": [[["time_distributed_82", 0, 0, {}]]]}, {"class_name": "Add", "name": "add_6", "config": {"trainable": true, "name": "add_6"}, "inbound_nodes": [[["time_distributed_83", 0, 0, {}], ["add_5", 0, 0, {}]]]}, {"class_name": "TimeDistributed", "name": "time_distributed_84", "config": {"trainable": true, "layer": {"class_name": "Conv2D", "config": {"dilation_rate": [1, 1], "bias_regularizer": null, "trainable": true, "kernel_regularizer": null, "data_format": "channels_last", "padding": "same", "filters": 384, "strides": [1, 1], "use_bias": true, "bias_initializer": {"class_name": "Zeros", "config": {}}, "activity_regularizer": null, "name": "conv2d_22", "kernel_initializer": {"class_name": "VarianceScaling", "config": {"distribution": "uniform", "seed": null, "scale": 1.0, "mode": "fan_avg"}}, "activation": "linear", "kernel_size": [1, 1], "kernel_constraint": null, "bias_constraint": null}}, "name": "time_distributed_84"}, "inbound_nodes": [[["add_6", 0, 0, {}]]]}, {"class_name": "TimeDistributed", "name": "time_distributed_85", "config": {"trainable": true, "layer": {"class_name": "BatchNormalization", "config": {"epsilon": 0.001, "moving_mean_initializer": {"class_name": "Zeros", "config": {}}, "beta_regularizer": null, "trainable": true, "center": true, "axis": -1, "moving_variance_initializer": {"class_name": "Ones", "config": {}}, "gamma_initializer": {"class_name": "Ones", "config": {}}, "gamma_regularizer": null, "name": "batch_normalization_32", "scale": true, "gamma_constraint": null, "beta_initializer": {"class_name": "Zeros", "config": {}}, "beta_constraint": null, "momentum": 0.99}}, "name": "time_distributed_85"}, "inbound_nodes": [[["time_distributed_84", 0, 0, {}]]]}, {"class_name": "TimeDistributed", "name": "time_distributed_86", "config": {"trainable": true, "layer": {"class_name": "Activation", "config": {"trainable": true, "activation": "relu6", "name": "activation_22"}}, "name": "time_distributed_86"}, "inbound_nodes": [[["time_distributed_85", 0, 0, {}]]]}, {"class_name": "TimeDistributed", "name": "time_distributed_87", "config": {"trainable": true, "layer": {"class_name": "DepthwiseConv2D", "config": {"bias_regularizer": null, "depthwise_regularizer": null, "trainable": true, "bias_constraint": null, "dilation_rate": [1, 1], "padding": "same", "use_bias": true, "data_format": "channels_last", "strides": [1, 1], "depthwise_constraint": null, "name": "depthwise_conv2d_11", "bias_initializer": {"class_name": "Zeros", "config": {}}, "activity_regularizer": null, "depthwise_initializer": {"class_name": "VarianceScaling", "config": {"distribution": "uniform", "seed": null, "scale": 1.0, "mode": "fan_avg"}}, "depth_multiplier": 1, "activation": "linear", "kernel_size": [3, 3]}}, "name": "time_distributed_87"}, "inbound_nodes": [[["time_distributed_86", 0, 0, {}]]]}, {"class_name": "TimeDistributed", "name": "time_distributed_88", "config": {"trainable": true, "layer": {"class_name": "BatchNormalization", "config": {"epsilon": 0.001, "moving_mean_initializer": {"class_name": "Zeros", "config": {}}, "beta_regularizer": null, "trainable": true, "center": true, "axis": -1, "moving_variance_initializer": {"class_name": "Ones", "config": {}}, "gamma_initializer": {"class_name": "Ones", "config": {}}, "gamma_regularizer": null, "name": "batch_normalization_33", "scale": true, "gamma_constraint": null, "beta_initializer": {"class_name": "Zeros", "config": {}}, "beta_constraint": null, "momentum": 0.99}}, "name": "time_distributed_88"}, "inbound_nodes": [[["time_distributed_87", 0, 0, {}]]]}, {"class_name": "TimeDistributed", "name": "time_distributed_89", "config": {"trainable": true, "layer": {"class_name": "Activation", "config": {"trainable": true, "activation": "relu6", "name": "activation_23"}}, "name": "time_distributed_89"}, "inbound_nodes": [[["time_distributed_88", 0, 0, {}]]]}, {"class_name": "TimeDistributed", "name": "time_distributed_90", "config": {"trainable": true, "layer": {"class_name": "Conv2D", "config": {"dilation_rate": [1, 1], "bias_regularizer": null, "trainable": true, "kernel_regularizer": null, "data_format": "channels_last", "padding": "same", "filters": 96, "strides": [1, 1], "use_bias": true, "bias_initializer": {"class_name": "Zeros", "config": {}}, "activity_regularizer": null, "name": "conv2d_23", "kernel_initializer": {"class_name": "VarianceScaling", "config": {"distribution": "uniform", "seed": null, "scale": 1.0, "mode": "fan_avg"}}, "activation": "linear", "kernel_size": [1, 1], "kernel_constraint": null, "bias_constraint": null}}, "name": "time_distributed_90"}, "inbound_nodes": [[["time_distributed_89", 0, 0, {}]]]}, {"class_name": "TimeDistributed", "name": "time_distributed_91", "config": {"trainable": true, "layer": {"class_name": "BatchNormalization", "config": {"epsilon": 0.001, "moving_mean_initializer": {"class_name": "Zeros", "config": {}}, "beta_regularizer": null, "trainable": true, "center": true, "axis": -1, "moving_variance_initializer": {"class_name": "Ones", "config": {}}, "gamma_initializer": {"class_name": "Ones", "config": {}}, "gamma_regularizer": null, "name": "batch_normalization_34", "scale": true, "gamma_constraint": null, "beta_initializer": {"class_name": "Zeros", "config": {}}, "beta_constraint": null, "momentum": 0.99}}, "name": "time_distributed_91"}, "inbound_nodes": [[["time_distributed_90", 0, 0, {}]]]}, {"class_name": "TimeDistributed", "name": "time_distributed_92", "config": {"trainable": true, "layer": {"class_name": "Conv2D", "config": {"dilation_rate": [1, 1], "bias_regularizer": null, "trainable": true, "kernel_regularizer": null, "data_format": "channels_last", "padding": "same", "filters": 576, "strides": [1, 1], "use_bias": true, "bias_initializer": {"class_name": "Zeros", "config": {}}, "activity_regularizer": null, "name": "conv2d_24", "kernel_initializer": {"class_name": "VarianceScaling", "config": {"distribution": "uniform", "seed": null, "scale": 1.0, "mode": "fan_avg"}}, "activation": "linear", "kernel_size": [1, 1], "kernel_constraint": null, "bias_constraint": null}}, "name": "time_distributed_92"}, "inbound_nodes": [[["time_distributed_91", 0, 0, {}]]]}, {"class_name": "TimeDistributed", "name": "time_distributed_93", "config": {"trainable": true, "layer": {"class_name": "BatchNormalization", "config": {"epsilon": 0.001, "moving_mean_initializer": {"class_name": "Zeros", "config": {}}, "beta_regularizer": null, "trainable": true, "center": true, "axis": -1, "moving_variance_initializer": {"class_name": "Ones", "config": {}}, "gamma_initializer": {"class_name": "Ones", "config": {}}, "gamma_regularizer": null, "name": "batch_normalization_35", "scale": true, "gamma_constraint": null, "beta_initializer": {"class_name": "Zeros", "config": {}}, "beta_constraint": null, "momentum": 0.99}}, "name": "time_distributed_93"}, "inbound_nodes": [[["time_distributed_92", 0, 0, {}]]]}, {"class_name": "TimeDistributed", "name": "time_distributed_94", "config": {"trainable": true, "layer": {"class_name": "Activation", "config": {"trainable": true, "activation": "relu6", "name": "activation_24"}}, "name": "time_distributed_94"}, "inbound_nodes": [[["time_distributed_93", 0, 0, {}]]]}, {"class_name": "TimeDistributed", "name": "time_distributed_95", "config": {"trainable": true, "layer": {"class_name": "DepthwiseConv2D", "config": {"bias_regularizer": null, "depthwise_regularizer": null, "trainable": true, "bias_constraint": null, "dilation_rate": [1, 1], "padding": "same", "use_bias": true, "data_format": "channels_last", "strides": [1, 1], "depthwise_constraint": null, "name": "depthwise_conv2d_12", "bias_initializer": {"class_name": "Zeros", "config": {}}, "activity_regularizer": null, "depthwise_initializer": {"class_name": "VarianceScaling", "config": {"distribution": "uniform", "seed": null, "scale": 1.0, "mode": "fan_avg"}}, "depth_multiplier": 1, "activation": "linear", "kernel_size": [3, 3]}}, "name": "time_distributed_95"}, "inbound_nodes": [[["time_distributed_94", 0, 0, {}]]]}, {"class_name": "TimeDistributed", "name": "time_distributed_96", "config": {"trainable": true, "layer": {"class_name": "BatchNormalization", "config": {"epsilon": 0.001, "moving_mean_initializer": {"class_name": "Zeros", "config": {}}, "beta_regularizer": null, "trainable": true, "center": true, "axis": -1, "moving_variance_initializer": {"class_name": "Ones", "config": {}}, "gamma_initializer": {"class_name": "Ones", "config": {}}, "gamma_regularizer": null, "name": "batch_normalization_36", "scale": true, "gamma_constraint": null, "beta_initializer": {"class_name": "Zeros", "config": {}}, "beta_constraint": null, "momentum": 0.99}}, "name": "time_distributed_96"}, "inbound_nodes": [[["time_distributed_95", 0, 0, {}]]]}, {"class_name": "TimeDistributed", "name": "time_distributed_97", "config": {"trainable": true, "layer": {"class_name": "Activation", "config": {"trainable": true, "activation": "relu6", "name": "activation_25"}}, "name": "time_distributed_97"}, "inbound_nodes": [[["time_distributed_96", 0, 0, {}]]]}, {"class_name": "TimeDistributed", "name": "time_distributed_98", "config": {"trainable": true, "layer": {"class_name": "Conv2D", "config": {"dilation_rate": [1, 1], "bias_regularizer": null, "trainable": true, "kernel_regularizer": null, "data_format": "channels_last", "padding": "same", "filters": 96, "strides": [1, 1], "use_bias": true, "bias_initializer": {"class_name": "Zeros", "config": {}}, "activity_regularizer": null, "name": "conv2d_25", "kernel_initializer": {"class_name": "VarianceScaling", "config": {"distribution": "uniform", "seed": null, "scale": 1.0, "mode": "fan_avg"}}, "activation": "linear", "kernel_size": [1, 1], "kernel_constraint": null, "bias_constraint": null}}, "name": "time_distributed_98"}, "inbound_nodes": [[["time_distributed_97", 0, 0, {}]]]}, {"class_name": "TimeDistributed", "name": "time_distributed_99", "config": {"trainable": true, "layer": {"class_name": "BatchNormalization", "config": {"epsilon": 0.001, "moving_mean_initializer": {"class_name": "Zeros", "config": {}}, "beta_regularizer": null, "trainable": true, "center": true, "axis": -1, "moving_variance_initializer": {"class_name": "Ones", "config": {}}, "gamma_initializer": {"class_name": "Ones", "config": {}}, "gamma_regularizer": null, "name": "batch_normalization_37", "scale": true, "gamma_constraint": null, "beta_initializer": {"class_name": "Zeros", "config": {}}, "beta_constraint": null, "momentum": 0.99}}, "name": "time_distributed_99"}, "inbound_nodes": [[["time_distributed_98", 0, 0, {}]]]}, {"class_name": "Add", "name": "add_7", "config": {"trainable": true, "name": "add_7"}, "inbound_nodes": [[["time_distributed_99", 0, 0, {}], ["time_distributed_91", 0, 0, {}]]]}, {"class_name": "TimeDistributed", "name": "time_distributed_100", "config": {"trainable": true, "layer": {"class_name": "Conv2D", "config": {"dilation_rate": [1, 1], "bias_regularizer": null, "trainable": true, "kernel_regularizer": null, "data_format": "channels_last", "padding": "same", "filters": 576, "strides": [1, 1], "use_bias": true, "bias_initializer": {"class_name": "Zeros", "config": {}}, "activity_regularizer": null, "name": "conv2d_26", "kernel_initializer": {"class_name": "VarianceScaling", "config": {"distribution": "uniform", "seed": null, "scale": 1.0, "mode": "fan_avg"}}, "activation": "linear", "kernel_size": [1, 1], "kernel_constraint": null, "bias_constraint": null}}, "name": "time_distributed_100"}, "inbound_nodes": [[["add_7", 0, 0, {}]]]}, {"class_name": "TimeDistributed", "name": "time_distributed_101", "config": {"trainable": true, "layer": {"class_name": "BatchNormalization", "config": {"epsilon": 0.001, "moving_mean_initializer": {"class_name": "Zeros", "config": {}}, "beta_regularizer": null, "trainable": true, "center": true, "axis": -1, "moving_variance_initializer": {"class_name": "Ones", "config": {}}, "gamma_initializer": {"class_name": "Ones", "config": {}}, "gamma_regularizer": null, "name": "batch_normalization_38", "scale": true, "gamma_constraint": null, "beta_initializer": {"class_name": "Zeros", "config": {}}, "beta_constraint": null, "momentum": 0.99}}, "name": "time_distributed_101"}, "inbound_nodes": [[["time_distributed_100", 0, 0, {}]]]}, {"class_name": "TimeDistributed", "name": "time_distributed_102", "config": {"trainable": true, "layer": {"class_name": "Activation", "config": {"trainable": true, "activation": "relu6", "name": "activation_26"}}, "name": "time_distributed_102"}, "inbound_nodes": [[["time_distributed_101", 0, 0, {}]]]}, {"class_name": "TimeDistributed", "name": "time_distributed_103", "config": {"trainable": true, "layer": {"class_name": "DepthwiseConv2D", "config": {"bias_regularizer": null, "depthwise_regularizer": null, "trainable": true, "bias_constraint": null, "dilation_rate": [1, 1], "padding": "same", "use_bias": true, "data_format": "channels_last", "strides": [1, 1], "depthwise_constraint": null, "name": "depthwise_conv2d_13", "bias_initializer": {"class_name": "Zeros", "config": {}}, "activity_regularizer": null, "depthwise_initializer": {"class_name": "VarianceScaling", "config": {"distribution": "uniform", "seed": null, "scale": 1.0, "mode": "fan_avg"}}, "depth_multiplier": 1, "activation": "linear", "kernel_size": [3, 3]}}, "name": "time_distributed_103"}, "inbound_nodes": [[["time_distributed_102", 0, 0, {}]]]}, {"class_name": "TimeDistributed", "name": "time_distributed_104", "config": {"trainable": true, "layer": {"class_name": "BatchNormalization", "config": {"epsilon": 0.001, "moving_mean_initializer": {"class_name": "Zeros", "config": {}}, "beta_regularizer": null, "trainable": true, "center": true, "axis": -1, "moving_variance_initializer": {"class_name": "Ones", "config": {}}, "gamma_initializer": {"class_name": "Ones", "config": {}}, "gamma_regularizer": null, "name": "batch_normalization_39", "scale": true, "gamma_constraint": null, "beta_initializer": {"class_name": "Zeros", "config": {}}, "beta_constraint": null, "momentum": 0.99}}, "name": "time_distributed_104"}, "inbound_nodes": [[["time_distributed_103", 0, 0, {}]]]}, {"class_name": "TimeDistributed", "name": "time_distributed_105", "config": {"trainable": true, "layer": {"class_name": "Activation", "config": {"trainable": true, "activation": "relu6", "name": "activation_27"}}, "name": "time_distributed_105"}, "inbound_nodes": [[["time_distributed_104", 0, 0, {}]]]}, {"class_name": "TimeDistributed", "name": "time_distributed_106", "config": {"trainable": true, "layer": {"class_name": "Conv2D", "config": {"dilation_rate": [1, 1], "bias_regularizer": null, "trainable": true, "kernel_regularizer": null, "data_format": "channels_last", "padding": "same", "filters": 96, "strides": [1, 1], "use_bias": true, "bias_initializer": {"class_name": "Zeros", "config": {}}, "activity_regularizer": null, "name": "conv2d_27", "kernel_initializer": {"class_name": "VarianceScaling", "config": {"distribution": "uniform", "seed": null, "scale": 1.0, "mode": "fan_avg"}}, "activation": "linear", "kernel_size": [1, 1], "kernel_constraint": null, "bias_constraint": null}}, "name": "time_distributed_106"}, "inbound_nodes": [[["time_distributed_105", 0, 0, {}]]]}, {"class_name": "TimeDistributed", "name": "time_distributed_107", "config": {"trainable": true, "layer": {"class_name": "BatchNormalization", "config": {"epsilon": 0.001, "moving_mean_initializer": {"class_name": "Zeros", "config": {}}, "beta_regularizer": null, "trainable": true, "center": true, "axis": -1, "moving_variance_initializer": {"class_name": "Ones", "config": {}}, "gamma_initializer": {"class_name": "Ones", "config": {}}, "gamma_regularizer": null, "name": "batch_normalization_40", "scale": true, "gamma_constraint": null, "beta_initializer": {"class_name": "Zeros", "config": {}}, "beta_constraint": null, "momentum": 0.99}}, "name": "time_distributed_107"}, "inbound_nodes": [[["time_distributed_106", 0, 0, {}]]]}, {"class_name": "Add", "name": "add_8", "config": {"trainable": true, "name": "add_8"}, "inbound_nodes": [[["time_distributed_107", 0, 0, {}], ["add_7", 0, 0, {}]]]}, {"class_name": "TimeDistributed", "name": "time_distributed_108", "config": {"trainable": true, "layer": {"class_name": "Conv2D", "config": {"dilation_rate": [1, 1], "bias_regularizer": null, "trainable": true, "kernel_regularizer": null, "data_format": "channels_last", "padding": "same", "filters": 576, "strides": [1, 1], "use_bias": true, "bias_initializer": {"class_name": "Zeros", "config": {}}, "activity_regularizer": null, "name": "conv2d_28", "kernel_initializer": {"class_name": "VarianceScaling", "config": {"distribution": "uniform", "seed": null, "scale": 1.0, "mode": "fan_avg"}}, "activation": "linear", "kernel_size": [1, 1], "kernel_constraint": null, "bias_constraint": null}}, "name": "time_distributed_108"}, "inbound_nodes": [[["add_8", 0, 0, {}]]]}, {"class_name": "TimeDistributed", "name": "time_distributed_109", "config": {"trainable": true, "layer": {"class_name": "BatchNormalization", "config": {"epsilon": 0.001, "moving_mean_initializer": {"class_name": "Zeros", "config": {}}, "beta_regularizer": null, "trainable": true, "center": true, "axis": -1, "moving_variance_initializer": {"class_name": "Ones", "config": {}}, "gamma_initializer": {"class_name": "Ones", "config": {}}, "gamma_regularizer": null, "name": "batch_normalization_41", "scale": true, "gamma_constraint": null, "beta_initializer": {"class_name": "Zeros", "config": {}}, "beta_constraint": null, "momentum": 0.99}}, "name": "time_distributed_109"}, "inbound_nodes": [[["time_distributed_108", 0, 0, {}]]]}, {"class_name": "TimeDistributed", "name": "time_distributed_110", "config": {"trainable": true, "layer": {"class_name": "Activation", "config": {"trainable": true, "activation": "relu6", "name": "activation_28"}}, "name": "time_distributed_110"}, "inbound_nodes": [[["time_distributed_109", 0, 0, {}]]]}, {"class_name": "TimeDistributed", "name": "time_distributed_111", "config": {"trainable": true, "layer": {"class_name": "DepthwiseConv2D", "config": {"bias_regularizer": null, "depthwise_regularizer": null, "trainable": true, "bias_constraint": null, "dilation_rate": [1, 1], "padding": "same", "use_bias": true, "data_format": "channels_last", "strides": [2, 2], "depthwise_constraint": null, "name": "depthwise_conv2d_14", "bias_initializer": {"class_name": "Zeros", "config": {}}, "activity_regularizer": null, "depthwise_initializer": {"class_name": "VarianceScaling", "config": {"distribution": "uniform", "seed": null, "scale": 1.0, "mode": "fan_avg"}}, "depth_multiplier": 1, "activation": "linear", "kernel_size": [3, 3]}}, "name": "time_distributed_111"}, "inbound_nodes": [[["time_distributed_110", 0, 0, {}]]]}, {"class_name": "TimeDistributed", "name": "time_distributed_112", "config": {"trainable": true, "layer": {"class_name": "BatchNormalization", "config": {"epsilon": 0.001, "moving_mean_initializer": {"class_name": "Zeros", "config": {}}, "beta_regularizer": null, "trainable": true, "center": true, "axis": -1, "moving_variance_initializer": {"class_name": "Ones", "config": {}}, "gamma_initializer": {"class_name": "Ones", "config": {}}, "gamma_regularizer": null, "name": "batch_normalization_42", "scale": true, "gamma_constraint": null, "beta_initializer": {"class_name": "Zeros", "config": {}}, "beta_constraint": null, "momentum": 0.99}}, "name": "time_distributed_112"}, "inbound_nodes": [[["time_distributed_111", 0, 0, {}]]]}, {"class_name": "TimeDistributed", "name": "time_distributed_113", "config": {"trainable": true, "layer": {"class_name": "Activation", "config": {"trainable": true, "activation": "relu6", "name": "activation_29"}}, "name": "time_distributed_113"}, "inbound_nodes": [[["time_distributed_112", 0, 0, {}]]]}, {"class_name": "TimeDistributed", "name": "time_distributed_114", "config": {"trainable": true, "layer": {"class_name": "Conv2D", "config": {"dilation_rate": [1, 1], "bias_regularizer": null, "trainable": true, "kernel_regularizer": null, "data_format": "channels_last", "padding": "same", "filters": 160, "strides": [1, 1], "use_bias": true, "bias_initializer": {"class_name": "Zeros", "config": {}}, "activity_regularizer": null, "name": "conv2d_29", "kernel_initializer": {"class_name": "VarianceScaling", "config": {"distribution": "uniform", "seed": null, "scale": 1.0, "mode": "fan_avg"}}, "activation": "linear", "kernel_size": [1, 1], "kernel_constraint": null, "bias_constraint": null}}, "name": "time_distributed_114"}, "inbound_nodes": [[["time_distributed_113", 0, 0, {}]]]}, {"class_name": "TimeDistributed", "name": "time_distributed_115", "config": {"trainable": true, "layer": {"class_name": "BatchNormalization", "config": {"epsilon": 0.001, "moving_mean_initializer": {"class_name": "Zeros", "config": {}}, "beta_regularizer": null, "trainable": true, "center": true, "axis": -1, "moving_variance_initializer": {"class_name": "Ones", "config": {}}, "gamma_initializer": {"class_name": "Ones", "config": {}}, "gamma_regularizer": null, "name": "batch_normalization_43", "scale": true, "gamma_constraint": null, "beta_initializer": {"class_name": "Zeros", "config": {}}, "beta_constraint": null, "momentum": 0.99}}, "name": "time_distributed_115"}, "inbound_nodes": [[["time_distributed_114", 0, 0, {}]]]}, {"class_name": "TimeDistributed", "name": "time_distributed_116", "config": {"trainable": true, "layer": {"class_name": "Conv2D", "config": {"dilation_rate": [1, 1], "bias_regularizer": null, "trainable": true, "kernel_regularizer": null, "data_format": "channels_last", "padding": "same", "filters": 960, "strides": [1, 1], "use_bias": true, "bias_initializer": {"class_name": "Zeros", "config": {}}, "activity_regularizer": null, "name": "conv2d_30", "kernel_initializer": {"class_name": "VarianceScaling", "config": {"distribution": "uniform", "seed": null, "scale": 1.0, "mode": "fan_avg"}}, "activation": "linear", "kernel_size": [1, 1], "kernel_constraint": null, "bias_constraint": null}}, "name": "time_distributed_116"}, "inbound_nodes": [[["time_distributed_115", 0, 0, {}]]]}, {"class_name": "TimeDistributed", "name": "time_distributed_117", "config": {"trainable": true, "layer": {"class_name": "BatchNormalization", "config": {"epsilon": 0.001, "moving_mean_initializer": {"class_name": "Zeros", "config": {}}, "beta_regularizer": null, "trainable": true, "center": true, "axis": -1, "moving_variance_initializer": {"class_name": "Ones", "config": {}}, "gamma_initializer": {"class_name": "Ones", "config": {}}, "gamma_regularizer": null, "name": "batch_normalization_44", "scale": true, "gamma_constraint": null, "beta_initializer": {"class_name": "Zeros", "config": {}}, "beta_constraint": null, "momentum": 0.99}}, "name": "time_distributed_117"}, "inbound_nodes": [[["time_distributed_116", 0, 0, {}]]]}, {"class_name": "TimeDistributed", "name": "time_distributed_118", "config": {"trainable": true, "layer": {"class_name": "Activation", "config": {"trainable": true, "activation": "relu6", "name": "activation_30"}}, "name": "time_distributed_118"}, "inbound_nodes": [[["time_distributed_117", 0, 0, {}]]]}, {"class_name": "TimeDistributed", "name": "time_distributed_119", "config": {"trainable": true, "layer": {"class_name": "DepthwiseConv2D", "config": {"bias_regularizer": null, "depthwise_regularizer": null, "trainable": true, "bias_constraint": null, "dilation_rate": [1, 1], "padding": "same", "use_bias": true, "data_format": "channels_last", "strides": [1, 1], "depthwise_constraint": null, "name": "depthwise_conv2d_15", "bias_initializer": {"class_name": "Zeros", "config": {}}, "activity_regularizer": null, "depthwise_initializer": {"class_name": "VarianceScaling", "config": {"distribution": "uniform", "seed": null, "scale": 1.0, "mode": "fan_avg"}}, "depth_multiplier": 1, "activation": "linear", "kernel_size": [3, 3]}}, "name": "time_distributed_119"}, "inbound_nodes": [[["time_distributed_118", 0, 0, {}]]]}, {"class_name": "TimeDistributed", "name": "time_distributed_120", "config": {"trainable": true, "layer": {"class_name": "BatchNormalization", "config": {"epsilon": 0.001, "moving_mean_initializer": {"class_name": "Zeros", "config": {}}, "beta_regularizer": null, "trainable": true, "center": true, "axis": -1, "moving_variance_initializer": {"class_name": "Ones", "config": {}}, "gamma_initializer": {"class_name": "Ones", "config": {}}, "gamma_regularizer": null, "name": "batch_normalization_45", "scale": true, "gamma_constraint": null, "beta_initializer": {"class_name": "Zeros", "config": {}}, "beta_constraint": null, "momentum": 0.99}}, "name": "time_distributed_120"}, "inbound_nodes": [[["time_distributed_119", 0, 0, {}]]]}, {"class_name": "TimeDistributed", "name": "time_distributed_121", "config": {"trainable": true, "layer": {"class_name": "Activation", "config": {"trainable": true, "activation": "relu6", "name": "activation_31"}}, "name": "time_distributed_121"}, "inbound_nodes": [[["time_distributed_120", 0, 0, {}]]]}, {"class_name": "TimeDistributed", "name": "time_distributed_122", "config": {"trainable": true, "layer": {"class_name": "Conv2D", "config": {"dilation_rate": [1, 1], "bias_regularizer": null, "trainable": true, "kernel_regularizer": null, "data_format": "channels_last", "padding": "same", "filters": 160, "strides": [1, 1], "use_bias": true, "bias_initializer": {"class_name": "Zeros", "config": {}}, "activity_regularizer": null, "name": "conv2d_31", "kernel_initializer": {"class_name": "VarianceScaling", "config": {"distribution": "uniform", "seed": null, "scale": 1.0, "mode": "fan_avg"}}, "activation": "linear", "kernel_size": [1, 1], "kernel_constraint": null, "bias_constraint": null}}, "name": "time_distributed_122"}, "inbound_nodes": [[["time_distributed_121", 0, 0, {}]]]}, {"class_name": "TimeDistributed", "name": "time_distributed_123", "config": {"trainable": true, "layer": {"class_name": "BatchNormalization", "config": {"epsilon": 0.001, "moving_mean_initializer": {"class_name": "Zeros", "config": {}}, "beta_regularizer": null, "trainable": true, "center": true, "axis": -1, "moving_variance_initializer": {"class_name": "Ones", "config": {}}, "gamma_initializer": {"class_name": "Ones", "config": {}}, "gamma_regularizer": null, "name": "batch_normalization_46", "scale": true, "gamma_constraint": null, "beta_initializer": {"class_name": "Zeros", "config": {}}, "beta_constraint": null, "momentum": 0.99}}, "name": "time_distributed_123"}, "inbound_nodes": [[["time_distributed_122", 0, 0, {}]]]}, {"class_name": "Add", "name": "add_9", "config": {"trainable": true, "name": "add_9"}, "inbound_nodes": [[["time_distributed_123", 0, 0, {}], ["time_distributed_115", 0, 0, {}]]]}, {"class_name": "TimeDistributed", "name": "time_distributed_124", "config": {"trainable": true, "layer": {"class_name": "Conv2D", "config": {"dilation_rate": [1, 1], "bias_regularizer": null, "trainable": true, "kernel_regularizer": null, "data_format": "channels_last", "padding": "same", "filters": 960, "strides": [1, 1], "use_bias": true, "bias_initializer": {"class_name": "Zeros", "config": {}}, "activity_regularizer": null, "name": "conv2d_32", "kernel_initializer": {"class_name": "VarianceScaling", "config": {"distribution": "uniform", "seed": null, "scale": 1.0, "mode": "fan_avg"}}, "activation": "linear", "kernel_size": [1, 1], "kernel_constraint": null, "bias_constraint": null}}, "name": "time_distributed_124"}, "inbound_nodes": [[["add_9", 0, 0, {}]]]}, {"class_name": "TimeDistributed", "name": "time_distributed_125", "config": {"trainable": true, "layer": {"class_name": "BatchNormalization", "config": {"epsilon": 0.001, "moving_mean_initializer": {"class_name": "Zeros", "config": {}}, "beta_regularizer": null, "trainable": true, "center": true, "axis": -1, "moving_variance_initializer": {"class_name": "Ones", "config": {}}, "gamma_initializer": {"class_name": "Ones", "config": {}}, "gamma_regularizer": null, "name": "batch_normalization_47", "scale": true, "gamma_constraint": null, "beta_initializer": {"class_name": "Zeros", "config": {}}, "beta_constraint": null, "momentum": 0.99}}, "name": "time_distributed_125"}, "inbound_nodes": [[["time_distributed_124", 0, 0, {}]]]}, {"class_name": "TimeDistributed", "name": "time_distributed_126", "config": {"trainable": true, "layer": {"class_name": "Activation", "config": {"trainable": true, "activation": "relu6", "name": "activation_32"}}, "name": "time_distributed_126"}, "inbound_nodes": [[["time_distributed_125", 0, 0, {}]]]}, {"class_name": "TimeDistributed", "name": "time_distributed_127", "config": {"trainable": true, "layer": {"class_name": "DepthwiseConv2D", "config": {"bias_regularizer": null, "depthwise_regularizer": null, "trainable": true, "bias_constraint": null, "dilation_rate": [1, 1], "padding": "same", "use_bias": true, "data_format": "channels_last", "strides": [1, 1], "depthwise_constraint": null, "name": "depthwise_conv2d_16", "bias_initializer": {"class_name": "Zeros", "config": {}}, "activity_regularizer": null, "depthwise_initializer": {"class_name": "VarianceScaling", "config": {"distribution": "uniform", "seed": null, "scale": 1.0, "mode": "fan_avg"}}, "depth_multiplier": 1, "activation": "linear", "kernel_size": [3, 3]}}, "name": "time_distributed_127"}, "inbound_nodes": [[["time_distributed_126", 0, 0, {}]]]}, {"class_name": "TimeDistributed", "name": "time_distributed_128", "config": {"trainable": true, "layer": {"class_name": "BatchNormalization", "config": {"epsilon": 0.001, "moving_mean_initializer": {"class_name": "Zeros", "config": {}}, "beta_regularizer": null, "trainable": true, "center": true, "axis": -1, "moving_variance_initializer": {"class_name": "Ones", "config": {}}, "gamma_initializer": {"class_name": "Ones", "config": {}}, "gamma_regularizer": null, "name": "batch_normalization_48", "scale": true, "gamma_constraint": null, "beta_initializer": {"class_name": "Zeros", "config": {}}, "beta_constraint": null, "momentum": 0.99}}, "name": "time_distributed_128"}, "inbound_nodes": [[["time_distributed_127", 0, 0, {}]]]}, {"class_name": "TimeDistributed", "name": "time_distributed_129", "config": {"trainable": true, "layer": {"class_name": "Activation", "config": {"trainable": true, "activation": "relu6", "name": "activation_33"}}, "name": "time_distributed_129"}, "inbound_nodes": [[["time_distributed_128", 0, 0, {}]]]}, {"class_name": "TimeDistributed", "name": "time_distributed_130", "config": {"trainable": true, "layer": {"class_name": "Conv2D", "config": {"dilation_rate": [1, 1], "bias_regularizer": null, "trainable": true, "kernel_regularizer": null, "data_format": "channels_last", "padding": "same", "filters": 160, "strides": [1, 1], "use_bias": true, "bias_initializer": {"class_name": "Zeros", "config": {}}, "activity_regularizer": null, "name": "conv2d_33", "kernel_initializer": {"class_name": "VarianceScaling", "config": {"distribution": "uniform", "seed": null, "scale": 1.0, "mode": "fan_avg"}}, "activation": "linear", "kernel_size": [1, 1], "kernel_constraint": null, "bias_constraint": null}}, "name": "time_distributed_130"}, "inbound_nodes": [[["time_distributed_129", 0, 0, {}]]]}, {"class_name": "TimeDistributed", "name": "time_distributed_131", "config": {"trainable": true, "layer": {"class_name": "BatchNormalization", "config": {"epsilon": 0.001, "moving_mean_initializer": {"class_name": "Zeros", "config": {}}, "beta_regularizer": null, "trainable": true, "center": true, "axis": -1, "moving_variance_initializer": {"class_name": "Ones", "config": {}}, "gamma_initializer": {"class_name": "Ones", "config": {}}, "gamma_regularizer": null, "name": "batch_normalization_49", "scale": true, "gamma_constraint": null, "beta_initializer": {"class_name": "Zeros", "config": {}}, "beta_constraint": null, "momentum": 0.99}}, "name": "time_distributed_131"}, "inbound_nodes": [[["time_distributed_130", 0, 0, {}]]]}, {"class_name": "Add", "name": "add_10", "config": {"trainable": true, "name": "add_10"}, "inbound_nodes": [[["time_distributed_131", 0, 0, {}], ["add_9", 0, 0, {}]]]}, {"class_name": "TimeDistributed", "name": "time_distributed_132", "config": {"trainable": true, "layer": {"class_name": "Conv2D", "config": {"dilation_rate": [1, 1], "bias_regularizer": null, "trainable": true, "kernel_regularizer": null, "data_format": "channels_last", "padding": "same", "filters": 960, "strides": [1, 1], "use_bias": true, "bias_initializer": {"class_name": "Zeros", "config": {}}, "activity_regularizer": null, "name": "conv2d_34", "kernel_initializer": {"class_name": "VarianceScaling", "config": {"distribution": "uniform", "seed": null, "scale": 1.0, "mode": "fan_avg"}}, "activation": "linear", "kernel_size": [1, 1], "kernel_constraint": null, "bias_constraint": null}}, "name": "time_distributed_132"}, "inbound_nodes": [[["add_10", 0, 0, {}]]]}, {"class_name": "TimeDistributed", "name": "time_distributed_133", "config": {"trainable": true, "layer": {"class_name": "BatchNormalization", "config": {"epsilon": 0.001, "moving_mean_initializer": {"class_name": "Zeros", "config": {}}, "beta_regularizer": null, "trainable": true, "center": true, "axis": -1, "moving_variance_initializer": {"class_name": "Ones", "config": {}}, "gamma_initializer": {"class_name": "Ones", "config": {}}, "gamma_regularizer": null, "name": "batch_normalization_50", "scale": true, "gamma_constraint": null, "beta_initializer": {"class_name": "Zeros", "config": {}}, "beta_constraint": null, "momentum": 0.99}}, "name": "time_distributed_133"}, "inbound_nodes": [[["time_distributed_132", 0, 0, {}]]]}, {"class_name": "TimeDistributed", "name": "time_distributed_134", "config": {"trainable": true, "layer": {"class_name": "Activation", "config": {"trainable": true, "activation": "relu6", "name": "activation_34"}}, "name": "time_distributed_134"}, "inbound_nodes": [[["time_distributed_133", 0, 0, {}]]]}, {"class_name": "TimeDistributed", "name": "time_distributed_135", "config": {"trainable": true, "layer": {"class_name": "DepthwiseConv2D", "config": {"bias_regularizer": null, "depthwise_regularizer": null, "trainable": true, "bias_constraint": null, "dilation_rate": [1, 1], "padding": "same", "use_bias": true, "data_format": "channels_last", "strides": [1, 1], "depthwise_constraint": null, "name": "depthwise_conv2d_17", "bias_initializer": {"class_name": "Zeros", "config": {}}, "activity_regularizer": null, "depthwise_initializer": {"class_name": "VarianceScaling", "config": {"distribution": "uniform", "seed": null, "scale": 1.0, "mode": "fan_avg"}}, "depth_multiplier": 1, "activation": "linear", "kernel_size": [3, 3]}}, "name": "time_distributed_135"}, "inbound_nodes": [[["time_distributed_134", 0, 0, {}]]]}, {"class_name": "TimeDistributed", "name": "time_distributed_136", "config": {"trainable": true, "layer": {"class_name": "BatchNormalization", "config": {"epsilon": 0.001, "moving_mean_initializer": {"class_name": "Zeros", "config": {}}, "beta_regularizer": null, "trainable": true, "center": true, "axis": -1, "moving_variance_initializer": {"class_name": "Ones", "config": {}}, "gamma_initializer": {"class_name": "Ones", "config": {}}, "gamma_regularizer": null, "name": "batch_normalization_51", "scale": true, "gamma_constraint": null, "beta_initializer": {"class_name": "Zeros", "config": {}}, "beta_constraint": null, "momentum": 0.99}}, "name": "time_distributed_136"}, "inbound_nodes": [[["time_distributed_135", 0, 0, {}]]]}, {"class_name": "TimeDistributed", "name": "time_distributed_137", "config": {"trainable": true, "layer": {"class_name": "Activation", "config": {"trainable": true, "activation": "relu6", "name": "activation_35"}}, "name": "time_distributed_137"}, "inbound_nodes": [[["time_distributed_136", 0, 0, {}]]]}, {"class_name": "TimeDistributed", "name": "time_distributed_138", "config": {"trainable": true, "layer": {"class_name": "Conv2D", "config": {"dilation_rate": [1, 1], "bias_regularizer": null, "trainable": true, "kernel_regularizer": null, "data_format": "channels_last", "padding": "same", "filters": 320, "strides": [1, 1], "use_bias": true, "bias_initializer": {"class_name": "Zeros", "config": {}}, "activity_regularizer": null, "name": "conv2d_35", "kernel_initializer": {"class_name": "VarianceScaling", "config": {"distribution": "uniform", "seed": null, "scale": 1.0, "mode": "fan_avg"}}, "activation": "linear", "kernel_size": [1, 1], "kernel_constraint": null, "bias_constraint": null}}, "name": "time_distributed_138"}, "inbound_nodes": [[["time_distributed_137", 0, 0, {}]]]}, {"class_name": "TimeDistributed", "name": "time_distributed_139", "config": {"trainable": true, "layer": {"class_name": "BatchNormalization", "config": {"epsilon": 0.001, "moving_mean_initializer": {"class_name": "Zeros", "config": {}}, "beta_regularizer": null, "trainable": true, "center": true, "axis": -1, "moving_variance_initializer": {"class_name": "Ones", "config": {}}, "gamma_initializer": {"class_name": "Ones", "config": {}}, "gamma_regularizer": null, "name": "batch_normalization_52", "scale": true, "gamma_constraint": null, "beta_initializer": {"class_name": "Zeros", "config": {}}, "beta_constraint": null, "momentum": 0.99}}, "name": "time_distributed_139"}, "inbound_nodes": [[["time_distributed_138", 0, 0, {}]]]}, {"class_name": "TimeDistributed", "name": "time_distributed_140", "config": {"trainable": true, "layer": {"class_name": "Conv2D", "config": {"dilation_rate": [1, 1], "bias_regularizer": null, "trainable": true, "kernel_regularizer": null, "data_format": "channels_last", "padding": "same", "filters": 1280, "strides": [1, 1], "use_bias": true, "bias_initializer": {"class_name": "Zeros", "config": {}}, "activity_regularizer": null, "name": "conv2d_36", "kernel_initializer": {"class_name": "VarianceScaling", "config": {"distribution": "uniform", "seed": null, "scale": 1.0, "mode": "fan_avg"}}, "activation": "linear", "kernel_size": [1, 1], "kernel_constraint": null, "bias_constraint": null}}, "name": "time_distributed_140"}, "inbound_nodes": [[["time_distributed_139", 0, 0, {}]]]}, {"class_name": "TimeDistributed", "name": "time_distributed_141", "config": {"trainable": true, "layer": {"class_name": "BatchNormalization", "config": {"epsilon": 0.001, "moving_mean_initializer": {"class_name": "Zeros", "config": {}}, "beta_regularizer": null, "trainable": true, "center": true, "axis": -1, "moving_variance_initializer": {"class_name": "Ones", "config": {}}, "gamma_initializer": {"class_name": "Ones", "config": {}}, "gamma_regularizer": null, "name": "batch_normalization_53", "scale": true, "gamma_constraint": null, "beta_initializer": {"class_name": "Zeros", "config": {}}, "beta_constraint": null, "momentum": 0.99}}, "name": "time_distributed_141"}, "inbound_nodes": [[["time_distributed_140", 0, 0, {}]]]}, {"class_name": "TimeDistributed", "name": "time_distributed_142", "config": {"trainable": true, "layer": {"class_name": "Activation", "config": {"trainable": true, "activation": "relu6", "name": "activation_36"}}, "name": "time_distributed_142"}, "inbound_nodes": [[["time_distributed_141", 0, 0, {}]]]}, {"class_name": "TimeDistributed", "name": "time_distributed_143", "config": {"trainable": true, "layer": {"class_name": "GlobalAveragePooling2D", "config": {"trainable": true, "name": "global_average_pooling2d_1", "data_format": "channels_last"}}, "name": "time_distributed_143"}, "inbound_nodes": [[["time_distributed_142", 0, 0, {}]]]}, {"class_name": "TimeDistributed", "name": "time_distributed_144", "config": {"trainable": true, "layer": {"class_name": "Dense", "config": {"bias_regularizer": null, "trainable": true, "kernel_regularizer": null, "bias_initializer": {"class_name": "Zeros", "config": {}}, "units": 2, "name": "dense_1", "activity_regularizer": null, "use_bias": true, "kernel_initializer": {"class_name": "VarianceScaling", "config": {"distribution": "uniform", "seed": null, "scale": 1.0, "mode": "fan_avg"}}, "activation": "softmax", "kernel_constraint": null, "bias_constraint": null}}, "name": "time_distributed_144"}, "inbound_nodes": [[["time_distributed_143", 0, 0, {}]]]}, {"class_name": "Reshape", "name": "reshape_3", "config": {"target_shape": [9, 16, 2], "trainable": true, "name": "reshape_3"}, "inbound_nodes": [[["time_distributed_144", 0, 0, {}]]]}], "name": "model_1", "input_layers": [["input_1", 0, 0]]}}