{"backend": "tensorflow", "keras_version": "2.2.2", "config": {"output_layers": [["reshape_3", 0, 0]], "layers": [{"inbound_nodes": [], "name": "input_1", "config": {"dtype": "float32", "name": "input_1", "sparse": false, "batch_input_shape": [null, 720, 1280, 3]}, "class_name": "InputLayer"}, {"inbound_nodes": [[["input_1", 0, 0, {}]]], "name": "lambda_1", "config": {"function_type": "lambda", "function": ["4wEAAAAAAAAAAQAAAAsAAAATAAAAc0kAAAB0AABqAQB8AABkAQBkAgCIAACIAABkAgBnBABkAwBk\nAgCIAQCIAQBkAgBnBABkBABkAgBkAgBkAgBkAgBnBABkBQBkBgCDAQRTKQdO2gZrc2l6ZXPpAQAA\nANoHc3RyaWRlc9oFcmF0ZXPaB3BhZGRpbmfaBVZBTElEKQLaAnRm2hVleHRyYWN0X2ltYWdlX3Bh\ndGNoZXMpAdoBeCkC2gZrZXJuZWzaBnN0cmlkZakA+iQvaG9tZS95b29uZ2kvV2Fsay1Bc3Npc3Rh\nbnQvbW9kZWwucHnaCDxsYW1iZGE+YwAAAHMCAAAABgE=\n", null, [80, 80]], "output_shape": null, "name": "lambda_1", "trainable": true, "output_shape_type": "raw", "arguments": {}}, "class_name": "Lambda"}, {"inbound_nodes": [[["lambda_1", 0, 0, {}]]], "name": "reshape_1", "config": {"trainable": true, "target_shape": [9, 16, 80, 80, 3], "name": "reshape_1"}, "class_name": "Reshape"}, {"inbound_nodes": [[["reshape_1", 0, 0, {}]]], "name": "reshape_2", "config": {"trainable": true, "target_shape": [144, 80, 80, 3], "name": "reshape_2"}, "class_name": "Reshape"}, {"inbound_nodes": [[["reshape_2", 0, 0, {}]]], "name": "time_distributed_1", "config": {"name": "time_distributed_1", "layer": {"config": {"kernel_size": [3, 3], "bias_initializer": {"config": {}, "class_name": "Zeros"}, "kernel_initializer": {"config": {"distribution": "uniform", "mode": "fan_avg", "seed": null, "scale": 1.0}, "class_name": "VarianceScaling"}, "activity_regularizer": null, "strides": [2, 2], "kernel_constraint": null, "data_format": "channels_last", "bias_constraint": null, "filters": 32, "use_bias": true, "activation": "linear", "bias_regularizer": null, "name": "conv2d_1", "dilation_rate": [1, 1], "trainable": true, "padding": "same", "kernel_regularizer": null}, "class_name": "Conv2D"}, "trainable": true}, "class_name": "TimeDistributed"}, {"inbound_nodes": [[["time_distributed_1", 0, 0, {}]]], "name": "time_distributed_2", "config": {"name": "time_distributed_2", "layer": {"config": {"moving_mean_initializer": {"config": {}, "class_name": "Zeros"}, "beta_regularizer": null, "axis": -1, "trainable": true, "scale": true, "name": "batch_normalization_1", "momentum": 0.99, "gamma_regularizer": null, "moving_variance_initializer": {"config": {}, "class_name": "Ones"}, "beta_constraint": null, "epsilon": 0.001, "gamma_constraint": null, "beta_initializer": {"config": {}, "class_name": "Zeros"}, "gamma_initializer": {"config": {}, "class_name": "Ones"}, "center": true}, "class_name": "BatchNormalization"}, "trainable": true}, "class_name": "TimeDistributed"}, {"inbound_nodes": [[["time_distributed_2", 0, 0, {}]]], "name": "time_distributed_3", "config": {"name": "time_distributed_3", "layer": {"config": {"activation": "relu6", "name": "activation_1", "trainable": true}, "class_name": "Activation"}, "trainable": true}, "class_name": "TimeDistributed"}, {"inbound_nodes": [[["time_distributed_3", 0, 0, {}]]], "name": "time_distributed_4", "config": {"name": "time_distributed_4", "layer": {"config": {"kernel_size": [1, 1], "bias_initializer": {"config": {}, "class_name": "Zeros"}, "kernel_initializer": {"config": {"distribution": "uniform", "mode": "fan_avg", "seed": null, "scale": 1.0}, "class_name": "VarianceScaling"}, "activity_regularizer": null, "strides": [1, 1], "kernel_constraint": null, "data_format": "channels_last", "bias_constraint": null, "filters": 32, "use_bias": true, "activation": "linear", "bias_regularizer": null, "name": "conv2d_2", "dilation_rate": [1, 1], "trainable": true, "padding": "same", "kernel_regularizer": null}, "class_name": "Conv2D"}, "trainable": true}, "class_name": "TimeDistributed"}, {"inbound_nodes": [[["time_distributed_4", 0, 0, {}]]], "name": "time_distributed_5", "config": {"name": "time_distributed_5", "layer": {"config": {"moving_mean_initializer": {"config": {}, "class_name": "Zeros"}, "beta_regularizer": null, "axis": -1, "trainable": true, "scale": true, "name": "batch_normalization_2", "momentum": 0.99, "gamma_regularizer": null, "moving_variance_initializer": {"config": {}, "class_name": "Ones"}, "beta_constraint": null, "epsilon": 0.001, "gamma_constraint": null, "beta_initializer": {"config": {}, "class_name": "Zeros"}, "gamma_initializer": {"config": {}, "class_name": "Ones"}, "center": true}, "class_name": "BatchNormalization"}, "trainable": true}, "class_name": "TimeDistributed"}, {"inbound_nodes": [[["time_distributed_5", 0, 0, {}]]], "name": "time_distributed_6", "config": {"name": "time_distributed_6", "layer": {"config": {"activation": "relu6", "name": "activation_2", "trainable": true}, "class_name": "Activation"}, "trainable": true}, "class_name": "TimeDistributed"}, {"inbound_nodes": [[["time_distributed_6", 0, 0, {}]]], "name": "time_distributed_7", "config": {"name": "time_distributed_7", "layer": {"config": {"kernel_size": [3, 3], "bias_initializer": {"config": {}, "class_name": "Zeros"}, "activity_regularizer": null, "strides": [1, 1], "depthwise_constraint": null, "bias_constraint": null, "use_bias": true, "activation": "linear", "data_format": "channels_last", "bias_regularizer": null, "name": "depthwise_conv2d_1", "dilation_rate": [1, 1], "trainable": true, "padding": "same", "depthwise_initializer": {"config": {"distribution": "uniform", "mode": "fan_avg", "seed": null, "scale": 1.0}, "class_name": "VarianceScaling"}, "depthwise_regularizer": null, "depth_multiplier": 1}, "class_name": "DepthwiseConv2D"}, "trainable": true}, "class_name": "TimeDistributed"}, {"inbound_nodes": [[["time_distributed_7", 0, 0, {}]]], "name": "time_distributed_8", "config": {"name": "time_distributed_8", "layer": {"config": {"moving_mean_initializer": {"config": {}, "class_name": "Zeros"}, "beta_regularizer": null, "axis": -1, "trainable": true, "scale": true, "name": "batch_normalization_3", "momentum": 0.99, "gamma_regularizer": null, "moving_variance_initializer": {"config": {}, "class_name": "Ones"}, "beta_constraint": null, "epsilon": 0.001, "gamma_constraint": null, "beta_initializer": {"config": {}, "class_name": "Zeros"}, "gamma_initializer": {"config": {}, "class_name": "Ones"}, "center": true}, "class_name": "BatchNormalization"}, "trainable": true}, "class_name": "TimeDistributed"}, {"inbound_nodes": [[["time_distributed_8", 0, 0, {}]]], "name": "time_distributed_9", "config": {"name": "time_distributed_9", "layer": {"config": {"activation": "relu6", "name": "activation_3", "trainable": true}, "class_name": "Activation"}, "trainable": true}, "class_name": "TimeDistributed"}, {"inbound_nodes": [[["time_distributed_9", 0, 0, {}]]], "name": "time_distributed_10", "config": {"name": "time_distributed_10", "layer": {"config": {"kernel_size": [1, 1], "bias_initializer": {"config": {}, "class_name": "Zeros"}, "kernel_initializer": {"config": {"distribution": "uniform", "mode": "fan_avg", "seed": null, "scale": 1.0}, "class_name": "VarianceScaling"}, "activity_regularizer": null, "strides": [1, 1], "kernel_constraint": null, "data_format": "channels_last", "bias_constraint": null, "filters": 16, "use_bias": true, "activation": "linear", "bias_regularizer": null, "name": "conv2d_3", "dilation_rate": [1, 1], "trainable": true, "padding": "same", "kernel_regularizer": null}, "class_name": "Conv2D"}, "trainable": true}, "class_name": "TimeDistributed"}, {"inbound_nodes": [[["time_distributed_10", 0, 0, {}]]], "name": "time_distributed_11", "config": {"name": "time_distributed_11", "layer": {"config": {"moving_mean_initializer": {"config": {}, "class_name": "Zeros"}, "beta_regularizer": null, "axis": -1, "trainable": true, "scale": true, "name": "batch_normalization_4", "momentum": 0.99, "gamma_regularizer": null, "moving_variance_initializer": {"config": {}, "class_name": "Ones"}, "beta_constraint": null, "epsilon": 0.001, "gamma_constraint": null, "beta_initializer": {"config": {}, "class_name": "Zeros"}, "gamma_initializer": {"config": {}, "class_name": "Ones"}, "center": true}, "class_name": "BatchNormalization"}, "trainable": true}, "class_name": "TimeDistributed"}, {"inbound_nodes": [[["time_distributed_11", 0, 0, {}]]], "name": "time_distributed_12", "config": {"name": "time_distributed_12", "layer": {"config": {"kernel_size": [1, 1], "bias_initializer": {"config": {}, "class_name": "Zeros"}, "kernel_initializer": {"config": {"distribution": "uniform", "mode": "fan_avg", "seed": null, "scale": 1.0}, "class_name": "VarianceScaling"}, "activity_regularizer": null, "strides": [1, 1], "kernel_constraint": null, "data_format": "channels_last", "bias_constraint": null, "filters": 96, "use_bias": true, "activation": "linear", "bias_regularizer": null, "name": "conv2d_4", "dilation_rate": [1, 1], "trainable": true, "padding": "same", "kernel_regularizer": null}, "class_name": "Conv2D"}, "trainable": true}, "class_name": "TimeDistributed"}, {"inbound_nodes": [[["time_distributed_12", 0, 0, {}]]], "name": "time_distributed_13", "config": {"name": "time_distributed_13", "layer": {"config": {"moving_mean_initializer": {"config": {}, "class_name": "Zeros"}, "beta_regularizer": null, "axis": -1, "trainable": true, "scale": true, "name": "batch_normalization_5", "momentum": 0.99, "gamma_regularizer": null, "moving_variance_initializer": {"config": {}, "class_name": "Ones"}, "beta_constraint": null, "epsilon": 0.001, "gamma_constraint": null, "beta_initializer": {"config": {}, "class_name": "Zeros"}, "gamma_initializer": {"config": {}, "class_name": "Ones"}, "center": true}, "class_name": "BatchNormalization"}, "trainable": true}, "class_name": "TimeDistributed"}, {"inbound_nodes": [[["time_distributed_13", 0, 0, {}]]], "name": "time_distributed_14", "config": {"name": "time_distributed_14", "layer": {"config": {"activation": "relu6", "name": "activation_4", "trainable": true}, "class_name": "Activation"}, "trainable": true}, "class_name": "TimeDistributed"}, {"inbound_nodes": [[["time_distributed_14", 0, 0, {}]]], "name": "time_distributed_15", "config": {"name": "time_distributed_15", "layer": {"config": {"kernel_size": [3, 3], "bias_initializer": {"config": {}, "class_name": "Zeros"}, "activity_regularizer": null, "strides": [2, 2], "depthwise_constraint": null, "bias_constraint": null, "use_bias": true, "activation": "linear", "data_format": "channels_last", "bias_regularizer": null, "name": "depthwise_conv2d_2", "dilation_rate": [1, 1], "trainable": true, "padding": "same", "depthwise_initializer": {"config": {"distribution": "uniform", "mode": "fan_avg", "seed": null, "scale": 1.0}, "class_name": "VarianceScaling"}, "depthwise_regularizer": null, "depth_multiplier": 1}, "class_name": "DepthwiseConv2D"}, "trainable": true}, "class_name": "TimeDistributed"}, {"inbound_nodes": [[["time_distributed_15", 0, 0, {}]]], "name": "time_distributed_16", "config": {"name": "time_distributed_16", "layer": {"config": {"moving_mean_initializer": {"config": {}, "class_name": "Zeros"}, "beta_regularizer": null, "axis": -1, "trainable": true, "scale": true, "name": "batch_normalization_6", "momentum": 0.99, "gamma_regularizer": null, "moving_variance_initializer": {"config": {}, "class_name": "Ones"}, "beta_constraint": null, "epsilon": 0.001, "gamma_constraint": null, "beta_initializer": {"config": {}, "class_name": "Zeros"}, "gamma_initializer": {"config": {}, "class_name": "Ones"}, "center": true}, "class_name": "BatchNormalization"}, "trainable": true}, "class_name": "TimeDistributed"}, {"inbound_nodes": [[["time_distributed_16", 0, 0, {}]]], "name": "time_distributed_17", "config": {"name": "time_distributed_17", "layer": {"config": {"activation": "relu6", "name": "activation_5", "trainable": true}, "class_name": "Activation"}, "trainable": true}, "class_name": "TimeDistributed"}, {"inbound_nodes": [[["time_distributed_17", 0, 0, {}]]], "name": "time_distributed_18", "config": {"name": "time_distributed_18", "layer": {"config": {"kernel_size": [1, 1], "bias_initializer": {"config": {}, "class_name": "Zeros"}, "kernel_initializer": {"config": {"distribution": "uniform", "mode": "fan_avg", "seed": null, "scale": 1.0}, "class_name": "VarianceScaling"}, "activity_regularizer": null, "strides": [1, 1], "kernel_constraint": null, "data_format": "channels_last", "bias_constraint": null, "filters": 24, "use_bias": true, "activation": "linear", "bias_regularizer": null, "name": "conv2d_5", "dilation_rate": [1, 1], "trainable": true, "padding": "same", "kernel_regularizer": null}, "class_name": "Conv2D"}, "trainable": true}, "class_name": "TimeDistributed"}, {"inbound_nodes": [[["time_distributed_18", 0, 0, {}]]], "name": "time_distributed_19", "config": {"name": "time_distributed_19", "layer": {"config": {"moving_mean_initializer": {"config": {}, "class_name": "Zeros"}, "beta_regularizer": null, "axis": -1, "trainable": true, "scale": true, "name": "batch_normalization_7", "momentum": 0.99, "gamma_regularizer": null, "moving_variance_initializer": {"config": {}, "class_name": "Ones"}, "beta_constraint": null, "epsilon": 0.001, "gamma_constraint": null, "beta_initializer": {"config": {}, "class_name": "Zeros"}, "gamma_initializer": {"config": {}, "class_name": "Ones"}, "center": true}, "class_name": "BatchNormalization"}, "trainable": true}, "class_name": "TimeDistributed"}, {"inbound_nodes": [[["time_distributed_19", 0, 0, {}]]], "name": "time_distributed_20", "config": {"name": "time_distributed_20", "layer": {"config": {"kernel_size": [1, 1], "bias_initializer": {"config": {}, "class_name": "Zeros"}, "kernel_initializer": {"config": {"distribution": "uniform", "mode": "fan_avg", "seed": null, "scale": 1.0}, "class_name": "VarianceScaling"}, "activity_regularizer": null, "strides": [1, 1], "kernel_constraint": null, "data_format": "channels_last", "bias_constraint": null, "filters": 144, "use_bias": true, "activation": "linear", "bias_regularizer": null, "name": "conv2d_6", "dilation_rate": [1, 1], "trainable": true, "padding": "same", "kernel_regularizer": null}, "class_name": "Conv2D"}, "trainable": true}, "class_name": "TimeDistributed"}, {"inbound_nodes": [[["time_distributed_20", 0, 0, {}]]], "name": "time_distributed_21", "config": {"name": "time_distributed_21", "layer": {"config": {"moving_mean_initializer": {"config": {}, "class_name": "Zeros"}, "beta_regularizer": null, "axis": -1, "trainable": true, "scale": true, "name": "batch_normalization_8", "momentum": 0.99, "gamma_regularizer": null, "moving_variance_initializer": {"config": {}, "class_name": "Ones"}, "beta_constraint": null, "epsilon": 0.001, "gamma_constraint": null, "beta_initializer": {"config": {}, "class_name": "Zeros"}, "gamma_initializer": {"config": {}, "class_name": "Ones"}, "center": true}, "class_name": "BatchNormalization"}, "trainable": true}, "class_name": "TimeDistributed"}, {"inbound_nodes": [[["time_distributed_21", 0, 0, {}]]], "name": "time_distributed_22", "config": {"name": "time_distributed_22", "layer": {"config": {"activation": "relu6", "name": "activation_6", "trainable": true}, "class_name": "Activation"}, "trainable": true}, "class_name": "TimeDistributed"}, {"inbound_nodes": [[["time_distributed_22", 0, 0, {}]]], "name": "time_distributed_23", "config": {"name": "time_distributed_23", "layer": {"config": {"kernel_size": [3, 3], "bias_initializer": {"config": {}, "class_name": "Zeros"}, "activity_regularizer": null, "strides": [1, 1], "depthwise_constraint": null, "bias_constraint": null, "use_bias": true, "activation": "linear", "data_format": "channels_last", "bias_regularizer": null, "name": "depthwise_conv2d_3", "dilation_rate": [1, 1], "trainable": true, "padding": "same", "depthwise_initializer": {"config": {"distribution": "uniform", "mode": "fan_avg", "seed": null, "scale": 1.0}, "class_name": "VarianceScaling"}, "depthwise_regularizer": null, "depth_multiplier": 1}, "class_name": "DepthwiseConv2D"}, "trainable": true}, "class_name": "TimeDistributed"}, {"inbound_nodes": [[["time_distributed_23", 0, 0, {}]]], "name": "time_distributed_24", "config": {"name": "time_distributed_24", "layer": {"config": {"moving_mean_initializer": {"config": {}, "class_name": "Zeros"}, "beta_regularizer": null, "axis": -1, "trainable": true, "scale": true, "name": "batch_normalization_9", "momentum": 0.99, "gamma_regularizer": null, "moving_variance_initializer": {"config": {}, "class_name": "Ones"}, "beta_constraint": null, "epsilon": 0.001, "gamma_constraint": null, "beta_initializer": {"config": {}, "class_name": "Zeros"}, "gamma_initializer": {"config": {}, "class_name": "Ones"}, "center": true}, "class_name": "BatchNormalization"}, "trainable": true}, "class_name": "TimeDistributed"}, {"inbound_nodes": [[["time_distributed_24", 0, 0, {}]]], "name": "time_distributed_25", "config": {"name": "time_distributed_25", "layer": {"config": {"activation": "relu6", "name": "activation_7", "trainable": true}, "class_name": "Activation"}, "trainable": true}, "class_name": "TimeDistributed"}, {"inbound_nodes": [[["time_distributed_25", 0, 0, {}]]], "name": "time_distributed_26", "config": {"name": "time_distributed_26", "layer": {"config": {"kernel_size": [1, 1], "bias_initializer": {"config": {}, "class_name": "Zeros"}, "kernel_initializer": {"config": {"distribution": "uniform", "mode": "fan_avg", "seed": null, "scale": 1.0}, "class_name": "VarianceScaling"}, "activity_regularizer": null, "strides": [1, 1], "kernel_constraint": null, "data_format": "channels_last", "bias_constraint": null, "filters": 24, "use_bias": true, "activation": "linear", "bias_regularizer": null, "name": "conv2d_7", "dilation_rate": [1, 1], "trainable": true, "padding": "same", "kernel_regularizer": null}, "class_name": "Conv2D"}, "trainable": true}, "class_name": "TimeDistributed"}, {"inbound_nodes": [[["time_distributed_26", 0, 0, {}]]], "name": "time_distributed_27", "config": {"name": "time_distributed_27", "layer": {"config": {"moving_mean_initializer": {"config": {}, "class_name": "Zeros"}, "beta_regularizer": null, "axis": -1, "trainable": true, "scale": true, "name": "batch_normalization_10", "momentum": 0.99, "gamma_regularizer": null, "moving_variance_initializer": {"config": {}, "class_name": "Ones"}, "beta_constraint": null, "epsilon": 0.001, "gamma_constraint": null, "beta_initializer": {"config": {}, "class_name": "Zeros"}, "gamma_initializer": {"config": {}, "class_name": "Ones"}, "center": true}, "class_name": "BatchNormalization"}, "trainable": true}, "class_name": "TimeDistributed"}, {"inbound_nodes": [[["time_distributed_27", 0, 0, {}], ["time_distributed_19", 0, 0, {}]]], "name": "add_1", "config": {"name": "add_1", "trainable": true}, "class_name": "Add"}, {"inbound_nodes": [[["add_1", 0, 0, {}]]], "name": "time_distributed_28", "config": {"name": "time_distributed_28", "layer": {"config": {"kernel_size": [1, 1], "bias_initializer": {"config": {}, "class_name": "Zeros"}, "kernel_initializer": {"config": {"distribution": "uniform", "mode": "fan_avg", "seed": null, "scale": 1.0}, "class_name": "VarianceScaling"}, "activity_regularizer": null, "strides": [1, 1], "kernel_constraint": null, "data_format": "channels_last", "bias_constraint": null, "filters": 144, "use_bias": true, "activation": "linear", "bias_regularizer": null, "name": "conv2d_8", "dilation_rate": [1, 1], "trainable": true, "padding": "same", "kernel_regularizer": null}, "class_name": "Conv2D"}, "trainable": true}, "class_name": "TimeDistributed"}, {"inbound_nodes": [[["time_distributed_28", 0, 0, {}]]], "name": "time_distributed_29", "config": {"name": "time_distributed_29", "layer": {"config": {"moving_mean_initializer": {"config": {}, "class_name": "Zeros"}, "beta_regularizer": null, "axis": -1, "trainable": true, "scale": true, "name": "batch_normalization_11", "momentum": 0.99, "gamma_regularizer": null, "moving_variance_initializer": {"config": {}, "class_name": "Ones"}, "beta_constraint": null, "epsilon": 0.001, "gamma_constraint": null, "beta_initializer": {"config": {}, "class_name": "Zeros"}, "gamma_initializer": {"config": {}, "class_name": "Ones"}, "center": true}, "class_name": "BatchNormalization"}, "trainable": true}, "class_name": "TimeDistributed"}, {"inbound_nodes": [[["time_distributed_29", 0, 0, {}]]], "name": "time_distributed_30", "config": {"name": "time_distributed_30", "layer": {"config": {"activation": "relu6", "name": "activation_8", "trainable": true}, "class_name": "Activation"}, "trainable": true}, "class_name": "TimeDistributed"}, {"inbound_nodes": [[["time_distributed_30", 0, 0, {}]]], "name": "time_distributed_31", "config": {"name": "time_distributed_31", "layer": {"config": {"kernel_size": [3, 3], "bias_initializer": {"config": {}, "class_name": "Zeros"}, "activity_regularizer": null, "strides": [2, 2], "depthwise_constraint": null, "bias_constraint": null, "use_bias": true, "activation": "linear", "data_format": "channels_last", "bias_regularizer": null, "name": "depthwise_conv2d_4", "dilation_rate": [1, 1], "trainable": true, "padding": "same", "depthwise_initializer": {"config": {"distribution": "uniform", "mode": "fan_avg", "seed": null, "scale": 1.0}, "class_name": "VarianceScaling"}, "depthwise_regularizer": null, "depth_multiplier": 1}, "class_name": "DepthwiseConv2D"}, "trainable": true}, "class_name": "TimeDistributed"}, {"inbound_nodes": [[["time_distributed_31", 0, 0, {}]]], "name": "time_distributed_32", "config": {"name": "time_distributed_32", "layer": {"config": {"moving_mean_initializer": {"config": {}, "class_name": "Zeros"}, "beta_regularizer": null, "axis": -1, "trainable": true, "scale": true, "name": "batch_normalization_12", "momentum": 0.99, "gamma_regularizer": null, "moving_variance_initializer": {"config": {}, "class_name": "Ones"}, "beta_constraint": null, "epsilon": 0.001, "gamma_constraint": null, "beta_initializer": {"config": {}, "class_name": "Zeros"}, "gamma_initializer": {"config": {}, "class_name": "Ones"}, "center": true}, "class_name": "BatchNormalization"}, "trainable": true}, "class_name": "TimeDistributed"}, {"inbound_nodes": [[["time_distributed_32", 0, 0, {}]]], "name": "time_distributed_33", "config": {"name": "time_distributed_33", "layer": {"config": {"activation": "relu6", "name": "activation_9", "trainable": true}, "class_name": "Activation"}, "trainable": true}, "class_name": "TimeDistributed"}, {"inbound_nodes": [[["time_distributed_33", 0, 0, {}]]], "name": "time_distributed_34", "config": {"name": "time_distributed_34", "layer": {"config": {"kernel_size": [1, 1], "bias_initializer": {"config": {}, "class_name": "Zeros"}, "kernel_initializer": {"config": {"distribution": "uniform", "mode": "fan_avg", "seed": null, "scale": 1.0}, "class_name": "VarianceScaling"}, "activity_regularizer": null, "strides": [1, 1], "kernel_constraint": null, "data_format": "channels_last", "bias_constraint": null, "filters": 32, "use_bias": true, "activation": "linear", "bias_regularizer": null, "name": "conv2d_9", "dilation_rate": [1, 1], "trainable": true, "padding": "same", "kernel_regularizer": null}, "class_name": "Conv2D"}, "trainable": true}, "class_name": "TimeDistributed"}, {"inbound_nodes": [[["time_distributed_34", 0, 0, {}]]], "name": "time_distributed_35", "config": {"name": "time_distributed_35", "layer": {"config": {"moving_mean_initializer": {"config": {}, "class_name": "Zeros"}, "beta_regularizer": null, "axis": -1, "trainable": true, "scale": true, "name": "batch_normalization_13", "momentum": 0.99, "gamma_regularizer": null, "moving_variance_initializer": {"config": {}, "class_name": "Ones"}, "beta_constraint": null, "epsilon": 0.001, "gamma_constraint": null, "beta_initializer": {"config": {}, "class_name": "Zeros"}, "gamma_initializer": {"config": {}, "class_name": "Ones"}, "center": true}, "class_name": "BatchNormalization"}, "trainable": true}, "class_name": "TimeDistributed"}, {"inbound_nodes": [[["time_distributed_35", 0, 0, {}]]], "name": "time_distributed_36", "config": {"name": "time_distributed_36", "layer": {"config": {"kernel_size": [1, 1], "bias_initializer": {"config": {}, "class_name": "Zeros"}, "kernel_initializer": {"config": {"distribution": "uniform", "mode": "fan_avg", "seed": null, "scale": 1.0}, "class_name": "VarianceScaling"}, "activity_regularizer": null, "strides": [1, 1], "kernel_constraint": null, "data_format": "channels_last", "bias_constraint": null, "filters": 192, "use_bias": true, "activation": "linear", "bias_regularizer": null, "name": "conv2d_10", "dilation_rate": [1, 1], "trainable": true, "padding": "same", "kernel_regularizer": null}, "class_name": "Conv2D"}, "trainable": true}, "class_name": "TimeDistributed"}, {"inbound_nodes": [[["time_distributed_36", 0, 0, {}]]], "name": "time_distributed_37", "config": {"name": "time_distributed_37", "layer": {"config": {"moving_mean_initializer": {"config": {}, "class_name": "Zeros"}, "beta_regularizer": null, "axis": -1, "trainable": true, "scale": true, "name": "batch_normalization_14", "momentum": 0.99, "gamma_regularizer": null, "moving_variance_initializer": {"config": {}, "class_name": "Ones"}, "beta_constraint": null, "epsilon": 0.001, "gamma_constraint": null, "beta_initializer": {"config": {}, "class_name": "Zeros"}, "gamma_initializer": {"config": {}, "class_name": "Ones"}, "center": true}, "class_name": "BatchNormalization"}, "trainable": true}, "class_name": "TimeDistributed"}, {"inbound_nodes": [[["time_distributed_37", 0, 0, {}]]], "name": "time_distributed_38", "config": {"name": "time_distributed_38", "layer": {"config": {"activation": "relu6", "name": "activation_10", "trainable": true}, "class_name": "Activation"}, "trainable": true}, "class_name": "TimeDistributed"}, {"inbound_nodes": [[["time_distributed_38", 0, 0, {}]]], "name": "time_distributed_39", "config": {"name": "time_distributed_39", "layer": {"config": {"kernel_size": [3, 3], "bias_initializer": {"config": {}, "class_name": "Zeros"}, "activity_regularizer": null, "strides": [1, 1], "depthwise_constraint": null, "bias_constraint": null, "use_bias": true, "activation": "linear", "data_format": "channels_last", "bias_regularizer": null, "name": "depthwise_conv2d_5", "dilation_rate": [1, 1], "trainable": true, "padding": "same", "depthwise_initializer": {"config": {"distribution": "uniform", "mode": "fan_avg", "seed": null, "scale": 1.0}, "class_name": "VarianceScaling"}, "depthwise_regularizer": null, "depth_multiplier": 1}, "class_name": "DepthwiseConv2D"}, "trainable": true}, "class_name": "TimeDistributed"}, {"inbound_nodes": [[["time_distributed_39", 0, 0, {}]]], "name": "time_distributed_40", "config": {"name": "time_distributed_40", "layer": {"config": {"moving_mean_initializer": {"config": {}, "class_name": "Zeros"}, "beta_regularizer": null, "axis": -1, "trainable": true, "scale": true, "name": "batch_normalization_15", "momentum": 0.99, "gamma_regularizer": null, "moving_variance_initializer": {"config": {}, "class_name": "Ones"}, "beta_constraint": null, "epsilon": 0.001, "gamma_constraint": null, "beta_initializer": {"config": {}, "class_name": "Zeros"}, "gamma_initializer": {"config": {}, "class_name": "Ones"}, "center": true}, "class_name": "BatchNormalization"}, "trainable": true}, "class_name": "TimeDistributed"}, {"inbound_nodes": [[["time_distributed_40", 0, 0, {}]]], "name": "time_distributed_41", "config": {"name": "time_distributed_41", "layer": {"config": {"activation": "relu6", "name": "activation_11", "trainable": true}, "class_name": "Activation"}, "trainable": true}, "class_name": "TimeDistributed"}, {"inbound_nodes": [[["time_distributed_41", 0, 0, {}]]], "name": "time_distributed_42", "config": {"name": "time_distributed_42", "layer": {"config": {"kernel_size": [1, 1], "bias_initializer": {"config": {}, "class_name": "Zeros"}, "kernel_initializer": {"config": {"distribution": "uniform", "mode": "fan_avg", "seed": null, "scale": 1.0}, "class_name": "VarianceScaling"}, "activity_regularizer": null, "strides": [1, 1], "kernel_constraint": null, "data_format": "channels_last", "bias_constraint": null, "filters": 32, "use_bias": true, "activation": "linear", "bias_regularizer": null, "name": "conv2d_11", "dilation_rate": [1, 1], "trainable": true, "padding": "same", "kernel_regularizer": null}, "class_name": "Conv2D"}, "trainable": true}, "class_name": "TimeDistributed"}, {"inbound_nodes": [[["time_distributed_42", 0, 0, {}]]], "name": "time_distributed_43", "config": {"name": "time_distributed_43", "layer": {"config": {"moving_mean_initializer": {"config": {}, "class_name": "Zeros"}, "beta_regularizer": null, "axis": -1, "trainable": true, "scale": true, "name": "batch_normalization_16", "momentum": 0.99, "gamma_regularizer": null, "moving_variance_initializer": {"config": {}, "class_name": "Ones"}, "beta_constraint": null, "epsilon": 0.001, "gamma_constraint": null, "beta_initializer": {"config": {}, "class_name": "Zeros"}, "gamma_initializer": {"config": {}, "class_name": "Ones"}, "center": true}, "class_name": "BatchNormalization"}, "trainable": true}, "class_name": "TimeDistributed"}, {"inbound_nodes": [[["time_distributed_43", 0, 0, {}], ["time_distributed_35", 0, 0, {}]]], "name": "add_2", "config": {"name": "add_2", "trainable": true}, "class_name": "Add"}, {"inbound_nodes": [[["add_2", 0, 0, {}]]], "name": "time_distributed_44", "config": {"name": "time_distributed_44", "layer": {"config": {"kernel_size": [1, 1], "bias_initializer": {"config": {}, "class_name": "Zeros"}, "kernel_initializer": {"config": {"distribution": "uniform", "mode": "fan_avg", "seed": null, "scale": 1.0}, "class_name": "VarianceScaling"}, "activity_regularizer": null, "strides": [1, 1], "kernel_constraint": null, "data_format": "channels_last", "bias_constraint": null, "filters": 192, "use_bias": true, "activation": "linear", "bias_regularizer": null, "name": "conv2d_12", "dilation_rate": [1, 1], "trainable": true, "padding": "same", "kernel_regularizer": null}, "class_name": "Conv2D"}, "trainable": true}, "class_name": "TimeDistributed"}, {"inbound_nodes": [[["time_distributed_44", 0, 0, {}]]], "name": "time_distributed_45", "config": {"name": "time_distributed_45", "layer": {"config": {"moving_mean_initializer": {"config": {}, "class_name": "Zeros"}, "beta_regularizer": null, "axis": -1, "trainable": true, "scale": true, "name": "batch_normalization_17", "momentum": 0.99, "gamma_regularizer": null, "moving_variance_initializer": {"config": {}, "class_name": "Ones"}, "beta_constraint": null, "epsilon": 0.001, "gamma_constraint": null, "beta_initializer": {"config": {}, "class_name": "Zeros"}, "gamma_initializer": {"config": {}, "class_name": "Ones"}, "center": true}, "class_name": "BatchNormalization"}, "trainable": true}, "class_name": "TimeDistributed"}, {"inbound_nodes": [[["time_distributed_45", 0, 0, {}]]], "name": "time_distributed_46", "config": {"name": "time_distributed_46", "layer": {"config": {"activation": "relu6", "name": "activation_12", "trainable": true}, "class_name": "Activation"}, "trainable": true}, "class_name": "TimeDistributed"}, {"inbound_nodes": [[["time_distributed_46", 0, 0, {}]]], "name": "time_distributed_47", "config": {"name": "time_distributed_47", "layer": {"config": {"kernel_size": [3, 3], "bias_initializer": {"config": {}, "class_name": "Zeros"}, "activity_regularizer": null, "strides": [1, 1], "depthwise_constraint": null, "bias_constraint": null, "use_bias": true, "activation": "linear", "data_format": "channels_last", "bias_regularizer": null, "name": "depthwise_conv2d_6", "dilation_rate": [1, 1], "trainable": true, "padding": "same", "depthwise_initializer": {"config": {"distribution": "uniform", "mode": "fan_avg", "seed": null, "scale": 1.0}, "class_name": "VarianceScaling"}, "depthwise_regularizer": null, "depth_multiplier": 1}, "class_name": "DepthwiseConv2D"}, "trainable": true}, "class_name": "TimeDistributed"}, {"inbound_nodes": [[["time_distributed_47", 0, 0, {}]]], "name": "time_distributed_48", "config": {"name": "time_distributed_48", "layer": {"config": {"moving_mean_initializer": {"config": {}, "class_name": "Zeros"}, "beta_regularizer": null, "axis": -1, "trainable": true, "scale": true, "name": "batch_normalization_18", "momentum": 0.99, "gamma_regularizer": null, "moving_variance_initializer": {"config": {}, "class_name": "Ones"}, "beta_constraint": null, "epsilon": 0.001, "gamma_constraint": null, "beta_initializer": {"config": {}, "class_name": "Zeros"}, "gamma_initializer": {"config": {}, "class_name": "Ones"}, "center": true}, "class_name": "BatchNormalization"}, "trainable": true}, "class_name": "TimeDistributed"}, {"inbound_nodes": [[["time_distributed_48", 0, 0, {}]]], "name": "time_distributed_49", "config": {"name": "time_distributed_49", "layer": {"config": {"activation": "relu6", "name": "activation_13", "trainable": true}, "class_name": "Activation"}, "trainable": true}, "class_name": "TimeDistributed"}, {"inbound_nodes": [[["time_distributed_49", 0, 0, {}]]], "name": "time_distributed_50", "config": {"name": "time_distributed_50", "layer": {"config": {"kernel_size": [1, 1], "bias_initializer": {"config": {}, "class_name": "Zeros"}, "kernel_initializer": {"config": {"distribution": "uniform", "mode": "fan_avg", "seed": null, "scale": 1.0}, "class_name": "VarianceScaling"}, "activity_regularizer": null, "strides": [1, 1], "kernel_constraint": null, "data_format": "channels_last", "bias_constraint": null, "filters": 32, "use_bias": true, "activation": "linear", "bias_regularizer": null, "name": "conv2d_13", "dilation_rate": [1, 1], "trainable": true, "padding": "same", "kernel_regularizer": null}, "class_name": "Conv2D"}, "trainable": true}, "class_name": "TimeDistributed"}, {"inbound_nodes": [[["time_distributed_50", 0, 0, {}]]], "name": "time_distributed_51", "config": {"name": "time_distributed_51", "layer": {"config": {"moving_mean_initializer": {"config": {}, "class_name": "Zeros"}, "beta_regularizer": null, "axis": -1, "trainable": true, "scale": true, "name": "batch_normalization_19", "momentum": 0.99, "gamma_regularizer": null, "moving_variance_initializer": {"config": {}, "class_name": "Ones"}, "beta_constraint": null, "epsilon": 0.001, "gamma_constraint": null, "beta_initializer": {"config": {}, "class_name": "Zeros"}, "gamma_initializer": {"config": {}, "class_name": "Ones"}, "center": true}, "class_name": "BatchNormalization"}, "trainable": true}, "class_name": "TimeDistributed"}, {"inbound_nodes": [[["time_distributed_51", 0, 0, {}], ["add_2", 0, 0, {}]]], "name": "add_3", "config": {"name": "add_3", "trainable": true}, "class_name": "Add"}, {"inbound_nodes": [[["add_3", 0, 0, {}]]], "name": "time_distributed_52", "config": {"name": "time_distributed_52", "layer": {"config": {"kernel_size": [1, 1], "bias_initializer": {"config": {}, "class_name": "Zeros"}, "kernel_initializer": {"config": {"distribution": "uniform", "mode": "fan_avg", "seed": null, "scale": 1.0}, "class_name": "VarianceScaling"}, "activity_regularizer": null, "strides": [1, 1], "kernel_constraint": null, "data_format": "channels_last", "bias_constraint": null, "filters": 192, "use_bias": true, "activation": "linear", "bias_regularizer": null, "name": "conv2d_14", "dilation_rate": [1, 1], "trainable": true, "padding": "same", "kernel_regularizer": null}, "class_name": "Conv2D"}, "trainable": true}, "class_name": "TimeDistributed"}, {"inbound_nodes": [[["time_distributed_52", 0, 0, {}]]], "name": "time_distributed_53", "config": {"name": "time_distributed_53", "layer": {"config": {"moving_mean_initializer": {"config": {}, "class_name": "Zeros"}, "beta_regularizer": null, "axis": -1, "trainable": true, "scale": true, "name": "batch_normalization_20", "momentum": 0.99, "gamma_regularizer": null, "moving_variance_initializer": {"config": {}, "class_name": "Ones"}, "beta_constraint": null, "epsilon": 0.001, "gamma_constraint": null, "beta_initializer": {"config": {}, "class_name": "Zeros"}, "gamma_initializer": {"config": {}, "class_name": "Ones"}, "center": true}, "class_name": "BatchNormalization"}, "trainable": true}, "class_name": "TimeDistributed"}, {"inbound_nodes": [[["time_distributed_53", 0, 0, {}]]], "name": "time_distributed_54", "config": {"name": "time_distributed_54", "layer": {"config": {"activation": "relu6", "name": "activation_14", "trainable": true}, "class_name": "Activation"}, "trainable": true}, "class_name": "TimeDistributed"}, {"inbound_nodes": [[["time_distributed_54", 0, 0, {}]]], "name": "time_distributed_55", "config": {"name": "time_distributed_55", "layer": {"config": {"kernel_size": [3, 3], "bias_initializer": {"config": {}, "class_name": "Zeros"}, "activity_regularizer": null, "strides": [2, 2], "depthwise_constraint": null, "bias_constraint": null, "use_bias": true, "activation": "linear", "data_format": "channels_last", "bias_regularizer": null, "name": "depthwise_conv2d_7", "dilation_rate": [1, 1], "trainable": true, "padding": "same", "depthwise_initializer": {"config": {"distribution": "uniform", "mode": "fan_avg", "seed": null, "scale": 1.0}, "class_name": "VarianceScaling"}, "depthwise_regularizer": null, "depth_multiplier": 1}, "class_name": "DepthwiseConv2D"}, "trainable": true}, "class_name": "TimeDistributed"}, {"inbound_nodes": [[["time_distributed_55", 0, 0, {}]]], "name": "time_distributed_56", "config": {"name": "time_distributed_56", "layer": {"config": {"moving_mean_initializer": {"config": {}, "class_name": "Zeros"}, "beta_regularizer": null, "axis": -1, "trainable": true, "scale": true, "name": "batch_normalization_21", "momentum": 0.99, "gamma_regularizer": null, "moving_variance_initializer": {"config": {}, "class_name": "Ones"}, "beta_constraint": null, "epsilon": 0.001, "gamma_constraint": null, "beta_initializer": {"config": {}, "class_name": "Zeros"}, "gamma_initializer": {"config": {}, "class_name": "Ones"}, "center": true}, "class_name": "BatchNormalization"}, "trainable": true}, "class_name": "TimeDistributed"}, {"inbound_nodes": [[["time_distributed_56", 0, 0, {}]]], "name": "time_distributed_57", "config": {"name": "time_distributed_57", "layer": {"config": {"activation": "relu6", "name": "activation_15", "trainable": true}, "class_name": "Activation"}, "trainable": true}, "class_name": "TimeDistributed"}, {"inbound_nodes": [[["time_distributed_57", 0, 0, {}]]], "name": "time_distributed_58", "config": {"name": "time_distributed_58", "layer": {"config": {"kernel_size": [1, 1], "bias_initializer": {"config": {}, "class_name": "Zeros"}, "kernel_initializer": {"config": {"distribution": "uniform", "mode": "fan_avg", "seed": null, "scale": 1.0}, "class_name": "VarianceScaling"}, "activity_regularizer": null, "strides": [1, 1], "kernel_constraint": null, "data_format": "channels_last", "bias_constraint": null, "filters": 64, "use_bias": true, "activation": "linear", "bias_regularizer": null, "name": "conv2d_15", "dilation_rate": [1, 1], "trainable": true, "padding": "same", "kernel_regularizer": null}, "class_name": "Conv2D"}, "trainable": true}, "class_name": "TimeDistributed"}, {"inbound_nodes": [[["time_distributed_58", 0, 0, {}]]], "name": "time_distributed_59", "config": {"name": "time_distributed_59", "layer": {"config": {"moving_mean_initializer": {"config": {}, "class_name": "Zeros"}, "beta_regularizer": null, "axis": -1, "trainable": true, "scale": true, "name": "batch_normalization_22", "momentum": 0.99, "gamma_regularizer": null, "moving_variance_initializer": {"config": {}, "class_name": "Ones"}, "beta_constraint": null, "epsilon": 0.001, "gamma_constraint": null, "beta_initializer": {"config": {}, "class_name": "Zeros"}, "gamma_initializer": {"config": {}, "class_name": "Ones"}, "center": true}, "class_name": "BatchNormalization"}, "trainable": true}, "class_name": "TimeDistributed"}, {"inbound_nodes": [[["time_distributed_59", 0, 0, {}]]], "name": "time_distributed_60", "config": {"name": "time_distributed_60", "layer": {"config": {"kernel_size": [1, 1], "bias_initializer": {"config": {}, "class_name": "Zeros"}, "kernel_initializer": {"config": {"distribution": "uniform", "mode": "fan_avg", "seed": null, "scale": 1.0}, "class_name": "VarianceScaling"}, "activity_regularizer": null, "strides": [1, 1], "kernel_constraint": null, "data_format": "channels_last", "bias_constraint": null, "filters": 384, "use_bias": true, "activation": "linear", "bias_regularizer": null, "name": "conv2d_16", "dilation_rate": [1, 1], "trainable": true, "padding": "same", "kernel_regularizer": null}, "class_name": "Conv2D"}, "trainable": true}, "class_name": "TimeDistributed"}, {"inbound_nodes": [[["time_distributed_60", 0, 0, {}]]], "name": "time_distributed_61", "config": {"name": "time_distributed_61", "layer": {"config": {"moving_mean_initializer": {"config": {}, "class_name": "Zeros"}, "beta_regularizer": null, "axis": -1, "trainable": true, "scale": true, "name": "batch_normalization_23", "momentum": 0.99, "gamma_regularizer": null, "moving_variance_initializer": {"config": {}, "class_name": "Ones"}, "beta_constraint": null, "epsilon": 0.001, "gamma_constraint": null, "beta_initializer": {"config": {}, "class_name": "Zeros"}, "gamma_initializer": {"config": {}, "class_name": "Ones"}, "center": true}, "class_name": "BatchNormalization"}, "trainable": true}, "class_name": "TimeDistributed"}, {"inbound_nodes": [[["time_distributed_61", 0, 0, {}]]], "name": "time_distributed_62", "config": {"name": "time_distributed_62", "layer": {"config": {"activation": "relu6", "name": "activation_16", "trainable": true}, "class_name": "Activation"}, "trainable": true}, "class_name": "TimeDistributed"}, {"inbound_nodes": [[["time_distributed_62", 0, 0, {}]]], "name": "time_distributed_63", "config": {"name": "time_distributed_63", "layer": {"config": {"kernel_size": [3, 3], "bias_initializer": {"config": {}, "class_name": "Zeros"}, "activity_regularizer": null, "strides": [1, 1], "depthwise_constraint": null, "bias_constraint": null, "use_bias": true, "activation": "linear", "data_format": "channels_last", "bias_regularizer": null, "name": "depthwise_conv2d_8", "dilation_rate": [1, 1], "trainable": true, "padding": "same", "depthwise_initializer": {"config": {"distribution": "uniform", "mode": "fan_avg", "seed": null, "scale": 1.0}, "class_name": "VarianceScaling"}, "depthwise_regularizer": null, "depth_multiplier": 1}, "class_name": "DepthwiseConv2D"}, "trainable": true}, "class_name": "TimeDistributed"}, {"inbound_nodes": [[["time_distributed_63", 0, 0, {}]]], "name": "time_distributed_64", "config": {"name": "time_distributed_64", "layer": {"config": {"moving_mean_initializer": {"config": {}, "class_name": "Zeros"}, "beta_regularizer": null, "axis": -1, "trainable": true, "scale": true, "name": "batch_normalization_24", "momentum": 0.99, "gamma_regularizer": null, "moving_variance_initializer": {"config": {}, "class_name": "Ones"}, "beta_constraint": null, "epsilon": 0.001, "gamma_constraint": null, "beta_initializer": {"config": {}, "class_name": "Zeros"}, "gamma_initializer": {"config": {}, "class_name": "Ones"}, "center": true}, "class_name": "BatchNormalization"}, "trainable": true}, "class_name": "TimeDistributed"}, {"inbound_nodes": [[["time_distributed_64", 0, 0, {}]]], "name": "time_distributed_65", "config": {"name": "time_distributed_65", "layer": {"config": {"activation": "relu6", "name": "activation_17", "trainable": true}, "class_name": "Activation"}, "trainable": true}, "class_name": "TimeDistributed"}, {"inbound_nodes": [[["time_distributed_65", 0, 0, {}]]], "name": "time_distributed_66", "config": {"name": "time_distributed_66", "layer": {"config": {"kernel_size": [1, 1], "bias_initializer": {"config": {}, "class_name": "Zeros"}, "kernel_initializer": {"config": {"distribution": "uniform", "mode": "fan_avg", "seed": null, "scale": 1.0}, "class_name": "VarianceScaling"}, "activity_regularizer": null, "strides": [1, 1], "kernel_constraint": null, "data_format": "channels_last", "bias_constraint": null, "filters": 64, "use_bias": true, "activation": "linear", "bias_regularizer": null, "name": "conv2d_17", "dilation_rate": [1, 1], "trainable": true, "padding": "same", "kernel_regularizer": null}, "class_name": "Conv2D"}, "trainable": true}, "class_name": "TimeDistributed"}, {"inbound_nodes": [[["time_distributed_66", 0, 0, {}]]], "name": "time_distributed_67", "config": {"name": "time_distributed_67", "layer": {"config": {"moving_mean_initializer": {"config": {}, "class_name": "Zeros"}, "beta_regularizer": null, "axis": -1, "trainable": true, "scale": true, "name": "batch_normalization_25", "momentum": 0.99, "gamma_regularizer": null, "moving_variance_initializer": {"config": {}, "class_name": "Ones"}, "beta_constraint": null, "epsilon": 0.001, "gamma_constraint": null, "beta_initializer": {"config": {}, "class_name": "Zeros"}, "gamma_initializer": {"config": {}, "class_name": "Ones"}, "center": true}, "class_name": "BatchNormalization"}, "trainable": true}, "class_name": "TimeDistributed"}, {"inbound_nodes": [[["time_distributed_67", 0, 0, {}], ["time_distributed_59", 0, 0, {}]]], "name": "add_4", "config": {"name": "add_4", "trainable": true}, "class_name": "Add"}, {"inbound_nodes": [[["add_4", 0, 0, {}]]], "name": "time_distributed_68", "config": {"name": "time_distributed_68", "layer": {"config": {"kernel_size": [1, 1], "bias_initializer": {"config": {}, "class_name": "Zeros"}, "kernel_initializer": {"config": {"distribution": "uniform", "mode": "fan_avg", "seed": null, "scale": 1.0}, "class_name": "VarianceScaling"}, "activity_regularizer": null, "strides": [1, 1], "kernel_constraint": null, "data_format": "channels_last", "bias_constraint": null, "filters": 384, "use_bias": true, "activation": "linear", "bias_regularizer": null, "name": "conv2d_18", "dilation_rate": [1, 1], "trainable": true, "padding": "same", "kernel_regularizer": null}, "class_name": "Conv2D"}, "trainable": true}, "class_name": "TimeDistributed"}, {"inbound_nodes": [[["time_distributed_68", 0, 0, {}]]], "name": "time_distributed_69", "config": {"name": "time_distributed_69", "layer": {"config": {"moving_mean_initializer": {"config": {}, "class_name": "Zeros"}, "beta_regularizer": null, "axis": -1, "trainable": true, "scale": true, "name": "batch_normalization_26", "momentum": 0.99, "gamma_regularizer": null, "moving_variance_initializer": {"config": {}, "class_name": "Ones"}, "beta_constraint": null, "epsilon": 0.001, "gamma_constraint": null, "beta_initializer": {"config": {}, "class_name": "Zeros"}, "gamma_initializer": {"config": {}, "class_name": "Ones"}, "center": true}, "class_name": "BatchNormalization"}, "trainable": true}, "class_name": "TimeDistributed"}, {"inbound_nodes": [[["time_distributed_69", 0, 0, {}]]], "name": "time_distributed_70", "config": {"name": "time_distributed_70", "layer": {"config": {"activation": "relu6", "name": "activation_18", "trainable": true}, "class_name": "Activation"}, "trainable": true}, "class_name": "TimeDistributed"}, {"inbound_nodes": [[["time_distributed_70", 0, 0, {}]]], "name": "time_distributed_71", "config": {"name": "time_distributed_71", "layer": {"config": {"kernel_size": [3, 3], "bias_initializer": {"config": {}, "class_name": "Zeros"}, "activity_regularizer": null, "strides": [1, 1], "depthwise_constraint": null, "bias_constraint": null, "use_bias": true, "activation": "linear", "data_format": "channels_last", "bias_regularizer": null, "name": "depthwise_conv2d_9", "dilation_rate": [1, 1], "trainable": true, "padding": "same", "depthwise_initializer": {"config": {"distribution": "uniform", "mode": "fan_avg", "seed": null, "scale": 1.0}, "class_name": "VarianceScaling"}, "depthwise_regularizer": null, "depth_multiplier": 1}, "class_name": "DepthwiseConv2D"}, "trainable": true}, "class_name": "TimeDistributed"}, {"inbound_nodes": [[["time_distributed_71", 0, 0, {}]]], "name": "time_distributed_72", "config": {"name": "time_distributed_72", "layer": {"config": {"moving_mean_initializer": {"config": {}, "class_name": "Zeros"}, "beta_regularizer": null, "axis": -1, "trainable": true, "scale": true, "name": "batch_normalization_27", "momentum": 0.99, "gamma_regularizer": null, "moving_variance_initializer": {"config": {}, "class_name": "Ones"}, "beta_constraint": null, "epsilon": 0.001, "gamma_constraint": null, "beta_initializer": {"config": {}, "class_name": "Zeros"}, "gamma_initializer": {"config": {}, "class_name": "Ones"}, "center": true}, "class_name": "BatchNormalization"}, "trainable": true}, "class_name": "TimeDistributed"}, {"inbound_nodes": [[["time_distributed_72", 0, 0, {}]]], "name": "time_distributed_73", "config": {"name": "time_distributed_73", "layer": {"config": {"activation": "relu6", "name": "activation_19", "trainable": true}, "class_name": "Activation"}, "trainable": true}, "class_name": "TimeDistributed"}, {"inbound_nodes": [[["time_distributed_73", 0, 0, {}]]], "name": "time_distributed_74", "config": {"name": "time_distributed_74", "layer": {"config": {"kernel_size": [1, 1], "bias_initializer": {"config": {}, "class_name": "Zeros"}, "kernel_initializer": {"config": {"distribution": "uniform", "mode": "fan_avg", "seed": null, "scale": 1.0}, "class_name": "VarianceScaling"}, "activity_regularizer": null, "strides": [1, 1], "kernel_constraint": null, "data_format": "channels_last", "bias_constraint": null, "filters": 64, "use_bias": true, "activation": "linear", "bias_regularizer": null, "name": "conv2d_19", "dilation_rate": [1, 1], "trainable": true, "padding": "same", "kernel_regularizer": null}, "class_name": "Conv2D"}, "trainable": true}, "class_name": "TimeDistributed"}, {"inbound_nodes": [[["time_distributed_74", 0, 0, {}]]], "name": "time_distributed_75", "config": {"name": "time_distributed_75", "layer": {"config": {"moving_mean_initializer": {"config": {}, "class_name": "Zeros"}, "beta_regularizer": null, "axis": -1, "trainable": true, "scale": true, "name": "batch_normalization_28", "momentum": 0.99, "gamma_regularizer": null, "moving_variance_initializer": {"config": {}, "class_name": "Ones"}, "beta_constraint": null, "epsilon": 0.001, "gamma_constraint": null, "beta_initializer": {"config": {}, "class_name": "Zeros"}, "gamma_initializer": {"config": {}, "class_name": "Ones"}, "center": true}, "class_name": "BatchNormalization"}, "trainable": true}, "class_name": "TimeDistributed"}, {"inbound_nodes": [[["time_distributed_75", 0, 0, {}], ["add_4", 0, 0, {}]]], "name": "add_5", "config": {"name": "add_5", "trainable": true}, "class_name": "Add"}, {"inbound_nodes": [[["add_5", 0, 0, {}]]], "name": "time_distributed_76", "config": {"name": "time_distributed_76", "layer": {"config": {"kernel_size": [1, 1], "bias_initializer": {"config": {}, "class_name": "Zeros"}, "kernel_initializer": {"config": {"distribution": "uniform", "mode": "fan_avg", "seed": null, "scale": 1.0}, "class_name": "VarianceScaling"}, "activity_regularizer": null, "strides": [1, 1], "kernel_constraint": null, "data_format": "channels_last", "bias_constraint": null, "filters": 384, "use_bias": true, "activation": "linear", "bias_regularizer": null, "name": "conv2d_20", "dilation_rate": [1, 1], "trainable": true, "padding": "same", "kernel_regularizer": null}, "class_name": "Conv2D"}, "trainable": true}, "class_name": "TimeDistributed"}, {"inbound_nodes": [[["time_distributed_76", 0, 0, {}]]], "name": "time_distributed_77", "config": {"name": "time_distributed_77", "layer": {"config": {"moving_mean_initializer": {"config": {}, "class_name": "Zeros"}, "beta_regularizer": null, "axis": -1, "trainable": true, "scale": true, "name": "batch_normalization_29", "momentum": 0.99, "gamma_regularizer": null, "moving_variance_initializer": {"config": {}, "class_name": "Ones"}, "beta_constraint": null, "epsilon": 0.001, "gamma_constraint": null, "beta_initializer": {"config": {}, "class_name": "Zeros"}, "gamma_initializer": {"config": {}, "class_name": "Ones"}, "center": true}, "class_name": "BatchNormalization"}, "trainable": true}, "class_name": "TimeDistributed"}, {"inbound_nodes": [[["time_distributed_77", 0, 0, {}]]], "name": "time_distributed_78", "config": {"name": "time_distributed_78", "layer": {"config": {"activation": "relu6", "name": "activation_20", "trainable": true}, "class_name": "Activation"}, "trainable": true}, "class_name": "TimeDistributed"}, {"inbound_nodes": [[["time_distributed_78", 0, 0, {}]]], "name": "time_distributed_79", "config": {"name": "time_distributed_79", "layer": {"config": {"kernel_size": [3, 3], "bias_initializer": {"config": {}, "class_name": "Zeros"}, "activity_regularizer": null, "strides": [1, 1], "depthwise_constraint": null, "bias_constraint": null, "use_bias": true, "activation": "linear", "data_format": "channels_last", "bias_regularizer": null, "name": "depthwise_conv2d_10", "dilation_rate": [1, 1], "trainable": true, "padding": "same", "depthwise_initializer": {"config": {"distribution": "uniform", "mode": "fan_avg", "seed": null, "scale": 1.0}, "class_name": "VarianceScaling"}, "depthwise_regularizer": null, "depth_multiplier": 1}, "class_name": "DepthwiseConv2D"}, "trainable": true}, "class_name": "TimeDistributed"}, {"inbound_nodes": [[["time_distributed_79", 0, 0, {}]]], "name": "time_distributed_80", "config": {"name": "time_distributed_80", "layer": {"config": {"moving_mean_initializer": {"config": {}, "class_name": "Zeros"}, "beta_regularizer": null, "axis": -1, "trainable": true, "scale": true, "name": "batch_normalization_30", "momentum": 0.99, "gamma_regularizer": null, "moving_variance_initializer": {"config": {}, "class_name": "Ones"}, "beta_constraint": null, "epsilon": 0.001, "gamma_constraint": null, "beta_initializer": {"config": {}, "class_name": "Zeros"}, "gamma_initializer": {"config": {}, "class_name": "Ones"}, "center": true}, "class_name": "BatchNormalization"}, "trainable": true}, "class_name": "TimeDistributed"}, {"inbound_nodes": [[["time_distributed_80", 0, 0, {}]]], "name": "time_distributed_81", "config": {"name": "time_distributed_81", "layer": {"config": {"activation": "relu6", "name": "activation_21", "trainable": true}, "class_name": "Activation"}, "trainable": true}, "class_name": "TimeDistributed"}, {"inbound_nodes": [[["time_distributed_81", 0, 0, {}]]], "name": "time_distributed_82", "config": {"name": "time_distributed_82", "layer": {"config": {"kernel_size": [1, 1], "bias_initializer": {"config": {}, "class_name": "Zeros"}, "kernel_initializer": {"config": {"distribution": "uniform", "mode": "fan_avg", "seed": null, "scale": 1.0}, "class_name": "VarianceScaling"}, "activity_regularizer": null, "strides": [1, 1], "kernel_constraint": null, "data_format": "channels_last", "bias_constraint": null, "filters": 64, "use_bias": true, "activation": "linear", "bias_regularizer": null, "name": "conv2d_21", "dilation_rate": [1, 1], "trainable": true, "padding": "same", "kernel_regularizer": null}, "class_name": "Conv2D"}, "trainable": true}, "class_name": "TimeDistributed"}, {"inbound_nodes": [[["time_distributed_82", 0, 0, {}]]], "name": "time_distributed_83", "config": {"name": "time_distributed_83", "layer": {"config": {"moving_mean_initializer": {"config": {}, "class_name": "Zeros"}, "beta_regularizer": null, "axis": -1, "trainable": true, "scale": true, "name": "batch_normalization_31", "momentum": 0.99, "gamma_regularizer": null, "moving_variance_initializer": {"config": {}, "class_name": "Ones"}, "beta_constraint": null, "epsilon": 0.001, "gamma_constraint": null, "beta_initializer": {"config": {}, "class_name": "Zeros"}, "gamma_initializer": {"config": {}, "class_name": "Ones"}, "center": true}, "class_name": "BatchNormalization"}, "trainable": true}, "class_name": "TimeDistributed"}, {"inbound_nodes": [[["time_distributed_83", 0, 0, {}], ["add_5", 0, 0, {}]]], "name": "add_6", "config": {"name": "add_6", "trainable": true}, "class_name": "Add"}, {"inbound_nodes": [[["add_6", 0, 0, {}]]], "name": "time_distributed_84", "config": {"name": "time_distributed_84", "layer": {"config": {"kernel_size": [1, 1], "bias_initializer": {"config": {}, "class_name": "Zeros"}, "kernel_initializer": {"config": {"distribution": "uniform", "mode": "fan_avg", "seed": null, "scale": 1.0}, "class_name": "VarianceScaling"}, "activity_regularizer": null, "strides": [1, 1], "kernel_constraint": null, "data_format": "channels_last", "bias_constraint": null, "filters": 384, "use_bias": true, "activation": "linear", "bias_regularizer": null, "name": "conv2d_22", "dilation_rate": [1, 1], "trainable": true, "padding": "same", "kernel_regularizer": null}, "class_name": "Conv2D"}, "trainable": true}, "class_name": "TimeDistributed"}, {"inbound_nodes": [[["time_distributed_84", 0, 0, {}]]], "name": "time_distributed_85", "config": {"name": "time_distributed_85", "layer": {"config": {"moving_mean_initializer": {"config": {}, "class_name": "Zeros"}, "beta_regularizer": null, "axis": -1, "trainable": true, "scale": true, "name": "batch_normalization_32", "momentum": 0.99, "gamma_regularizer": null, "moving_variance_initializer": {"config": {}, "class_name": "Ones"}, "beta_constraint": null, "epsilon": 0.001, "gamma_constraint": null, "beta_initializer": {"config": {}, "class_name": "Zeros"}, "gamma_initializer": {"config": {}, "class_name": "Ones"}, "center": true}, "class_name": "BatchNormalization"}, "trainable": true}, "class_name": "TimeDistributed"}, {"inbound_nodes": [[["time_distributed_85", 0, 0, {}]]], "name": "time_distributed_86", "config": {"name": "time_distributed_86", "layer": {"config": {"activation": "relu6", "name": "activation_22", "trainable": true}, "class_name": "Activation"}, "trainable": true}, "class_name": "TimeDistributed"}, {"inbound_nodes": [[["time_distributed_86", 0, 0, {}]]], "name": "time_distributed_87", "config": {"name": "time_distributed_87", "layer": {"config": {"kernel_size": [3, 3], "bias_initializer": {"config": {}, "class_name": "Zeros"}, "activity_regularizer": null, "strides": [1, 1], "depthwise_constraint": null, "bias_constraint": null, "use_bias": true, "activation": "linear", "data_format": "channels_last", "bias_regularizer": null, "name": "depthwise_conv2d_11", "dilation_rate": [1, 1], "trainable": true, "padding": "same", "depthwise_initializer": {"config": {"distribution": "uniform", "mode": "fan_avg", "seed": null, "scale": 1.0}, "class_name": "VarianceScaling"}, "depthwise_regularizer": null, "depth_multiplier": 1}, "class_name": "DepthwiseConv2D"}, "trainable": true}, "class_name": "TimeDistributed"}, {"inbound_nodes": [[["time_distributed_87", 0, 0, {}]]], "name": "time_distributed_88", "config": {"name": "time_distributed_88", "layer": {"config": {"moving_mean_initializer": {"config": {}, "class_name": "Zeros"}, "beta_regularizer": null, "axis": -1, "trainable": true, "scale": true, "name": "batch_normalization_33", "momentum": 0.99, "gamma_regularizer": null, "moving_variance_initializer": {"config": {}, "class_name": "Ones"}, "beta_constraint": null, "epsilon": 0.001, "gamma_constraint": null, "beta_initializer": {"config": {}, "class_name": "Zeros"}, "gamma_initializer": {"config": {}, "class_name": "Ones"}, "center": true}, "class_name": "BatchNormalization"}, "trainable": true}, "class_name": "TimeDistributed"}, {"inbound_nodes": [[["time_distributed_88", 0, 0, {}]]], "name": "time_distributed_89", "config": {"name": "time_distributed_89", "layer": {"config": {"activation": "relu6", "name": "activation_23", "trainable": true}, "class_name": "Activation"}, "trainable": true}, "class_name": "TimeDistributed"}, {"inbound_nodes": [[["time_distributed_89", 0, 0, {}]]], "name": "time_distributed_90", "config": {"name": "time_distributed_90", "layer": {"config": {"kernel_size": [1, 1], "bias_initializer": {"config": {}, "class_name": "Zeros"}, "kernel_initializer": {"config": {"distribution": "uniform", "mode": "fan_avg", "seed": null, "scale": 1.0}, "class_name": "VarianceScaling"}, "activity_regularizer": null, "strides": [1, 1], "kernel_constraint": null, "data_format": "channels_last", "bias_constraint": null, "filters": 96, "use_bias": true, "activation": "linear", "bias_regularizer": null, "name": "conv2d_23", "dilation_rate": [1, 1], "trainable": true, "padding": "same", "kernel_regularizer": null}, "class_name": "Conv2D"}, "trainable": true}, "class_name": "TimeDistributed"}, {"inbound_nodes": [[["time_distributed_90", 0, 0, {}]]], "name": "time_distributed_91", "config": {"name": "time_distributed_91", "layer": {"config": {"moving_mean_initializer": {"config": {}, "class_name": "Zeros"}, "beta_regularizer": null, "axis": -1, "trainable": true, "scale": true, "name": "batch_normalization_34", "momentum": 0.99, "gamma_regularizer": null, "moving_variance_initializer": {"config": {}, "class_name": "Ones"}, "beta_constraint": null, "epsilon": 0.001, "gamma_constraint": null, "beta_initializer": {"config": {}, "class_name": "Zeros"}, "gamma_initializer": {"config": {}, "class_name": "Ones"}, "center": true}, "class_name": "BatchNormalization"}, "trainable": true}, "class_name": "TimeDistributed"}, {"inbound_nodes": [[["time_distributed_91", 0, 0, {}]]], "name": "time_distributed_92", "config": {"name": "time_distributed_92", "layer": {"config": {"kernel_size": [1, 1], "bias_initializer": {"config": {}, "class_name": "Zeros"}, "kernel_initializer": {"config": {"distribution": "uniform", "mode": "fan_avg", "seed": null, "scale": 1.0}, "class_name": "VarianceScaling"}, "activity_regularizer": null, "strides": [1, 1], "kernel_constraint": null, "data_format": "channels_last", "bias_constraint": null, "filters": 576, "use_bias": true, "activation": "linear", "bias_regularizer": null, "name": "conv2d_24", "dilation_rate": [1, 1], "trainable": true, "padding": "same", "kernel_regularizer": null}, "class_name": "Conv2D"}, "trainable": true}, "class_name": "TimeDistributed"}, {"inbound_nodes": [[["time_distributed_92", 0, 0, {}]]], "name": "time_distributed_93", "config": {"name": "time_distributed_93", "layer": {"config": {"moving_mean_initializer": {"config": {}, "class_name": "Zeros"}, "beta_regularizer": null, "axis": -1, "trainable": true, "scale": true, "name": "batch_normalization_35", "momentum": 0.99, "gamma_regularizer": null, "moving_variance_initializer": {"config": {}, "class_name": "Ones"}, "beta_constraint": null, "epsilon": 0.001, "gamma_constraint": null, "beta_initializer": {"config": {}, "class_name": "Zeros"}, "gamma_initializer": {"config": {}, "class_name": "Ones"}, "center": true}, "class_name": "BatchNormalization"}, "trainable": true}, "class_name": "TimeDistributed"}, {"inbound_nodes": [[["time_distributed_93", 0, 0, {}]]], "name": "time_distributed_94", "config": {"name": "time_distributed_94", "layer": {"config": {"activation": "relu6", "name": "activation_24", "trainable": true}, "class_name": "Activation"}, "trainable": true}, "class_name": "TimeDistributed"}, {"inbound_nodes": [[["time_distributed_94", 0, 0, {}]]], "name": "time_distributed_95", "config": {"name": "time_distributed_95", "layer": {"config": {"kernel_size": [3, 3], "bias_initializer": {"config": {}, "class_name": "Zeros"}, "activity_regularizer": null, "strides": [1, 1], "depthwise_constraint": null, "bias_constraint": null, "use_bias": true, "activation": "linear", "data_format": "channels_last", "bias_regularizer": null, "name": "depthwise_conv2d_12", "dilation_rate": [1, 1], "trainable": true, "padding": "same", "depthwise_initializer": {"config": {"distribution": "uniform", "mode": "fan_avg", "seed": null, "scale": 1.0}, "class_name": "VarianceScaling"}, "depthwise_regularizer": null, "depth_multiplier": 1}, "class_name": "DepthwiseConv2D"}, "trainable": true}, "class_name": "TimeDistributed"}, {"inbound_nodes": [[["time_distributed_95", 0, 0, {}]]], "name": "time_distributed_96", "config": {"name": "time_distributed_96", "layer": {"config": {"moving_mean_initializer": {"config": {}, "class_name": "Zeros"}, "beta_regularizer": null, "axis": -1, "trainable": true, "scale": true, "name": "batch_normalization_36", "momentum": 0.99, "gamma_regularizer": null, "moving_variance_initializer": {"config": {}, "class_name": "Ones"}, "beta_constraint": null, "epsilon": 0.001, "gamma_constraint": null, "beta_initializer": {"config": {}, "class_name": "Zeros"}, "gamma_initializer": {"config": {}, "class_name": "Ones"}, "center": true}, "class_name": "BatchNormalization"}, "trainable": true}, "class_name": "TimeDistributed"}, {"inbound_nodes": [[["time_distributed_96", 0, 0, {}]]], "name": "time_distributed_97", "config": {"name": "time_distributed_97", "layer": {"config": {"activation": "relu6", "name": "activation_25", "trainable": true}, "class_name": "Activation"}, "trainable": true}, "class_name": "TimeDistributed"}, {"inbound_nodes": [[["time_distributed_97", 0, 0, {}]]], "name": "time_distributed_98", "config": {"name": "time_distributed_98", "layer": {"config": {"kernel_size": [1, 1], "bias_initializer": {"config": {}, "class_name": "Zeros"}, "kernel_initializer": {"config": {"distribution": "uniform", "mode": "fan_avg", "seed": null, "scale": 1.0}, "class_name": "VarianceScaling"}, "activity_regularizer": null, "strides": [1, 1], "kernel_constraint": null, "data_format": "channels_last", "bias_constraint": null, "filters": 96, "use_bias": true, "activation": "linear", "bias_regularizer": null, "name": "conv2d_25", "dilation_rate": [1, 1], "trainable": true, "padding": "same", "kernel_regularizer": null}, "class_name": "Conv2D"}, "trainable": true}, "class_name": "TimeDistributed"}, {"inbound_nodes": [[["time_distributed_98", 0, 0, {}]]], "name": "time_distributed_99", "config": {"name": "time_distributed_99", "layer": {"config": {"moving_mean_initializer": {"config": {}, "class_name": "Zeros"}, "beta_regularizer": null, "axis": -1, "trainable": true, "scale": true, "name": "batch_normalization_37", "momentum": 0.99, "gamma_regularizer": null, "moving_variance_initializer": {"config": {}, "class_name": "Ones"}, "beta_constraint": null, "epsilon": 0.001, "gamma_constraint": null, "beta_initializer": {"config": {}, "class_name": "Zeros"}, "gamma_initializer": {"config": {}, "class_name": "Ones"}, "center": true}, "class_name": "BatchNormalization"}, "trainable": true}, "class_name": "TimeDistributed"}, {"inbound_nodes": [[["time_distributed_99", 0, 0, {}], ["time_distributed_91", 0, 0, {}]]], "name": "add_7", "config": {"name": "add_7", "trainable": true}, "class_name": "Add"}, {"inbound_nodes": [[["add_7", 0, 0, {}]]], "name": "time_distributed_100", "config": {"name": "time_distributed_100", "layer": {"config": {"kernel_size": [1, 1], "bias_initializer": {"config": {}, "class_name": "Zeros"}, "kernel_initializer": {"config": {"distribution": "uniform", "mode": "fan_avg", "seed": null, "scale": 1.0}, "class_name": "VarianceScaling"}, "activity_regularizer": null, "strides": [1, 1], "kernel_constraint": null, "data_format": "channels_last", "bias_constraint": null, "filters": 576, "use_bias": true, "activation": "linear", "bias_regularizer": null, "name": "conv2d_26", "dilation_rate": [1, 1], "trainable": true, "padding": "same", "kernel_regularizer": null}, "class_name": "Conv2D"}, "trainable": true}, "class_name": "TimeDistributed"}, {"inbound_nodes": [[["time_distributed_100", 0, 0, {}]]], "name": "time_distributed_101", "config": {"name": "time_distributed_101", "layer": {"config": {"moving_mean_initializer": {"config": {}, "class_name": "Zeros"}, "beta_regularizer": null, "axis": -1, "trainable": true, "scale": true, "name": "batch_normalization_38", "momentum": 0.99, "gamma_regularizer": null, "moving_variance_initializer": {"config": {}, "class_name": "Ones"}, "beta_constraint": null, "epsilon": 0.001, "gamma_constraint": null, "beta_initializer": {"config": {}, "class_name": "Zeros"}, "gamma_initializer": {"config": {}, "class_name": "Ones"}, "center": true}, "class_name": "BatchNormalization"}, "trainable": true}, "class_name": "TimeDistributed"}, {"inbound_nodes": [[["time_distributed_101", 0, 0, {}]]], "name": "time_distributed_102", "config": {"name": "time_distributed_102", "layer": {"config": {"activation": "relu6", "name": "activation_26", "trainable": true}, "class_name": "Activation"}, "trainable": true}, "class_name": "TimeDistributed"}, {"inbound_nodes": [[["time_distributed_102", 0, 0, {}]]], "name": "time_distributed_103", "config": {"name": "time_distributed_103", "layer": {"config": {"kernel_size": [3, 3], "bias_initializer": {"config": {}, "class_name": "Zeros"}, "activity_regularizer": null, "strides": [1, 1], "depthwise_constraint": null, "bias_constraint": null, "use_bias": true, "activation": "linear", "data_format": "channels_last", "bias_regularizer": null, "name": "depthwise_conv2d_13", "dilation_rate": [1, 1], "trainable": true, "padding": "same", "depthwise_initializer": {"config": {"distribution": "uniform", "mode": "fan_avg", "seed": null, "scale": 1.0}, "class_name": "VarianceScaling"}, "depthwise_regularizer": null, "depth_multiplier": 1}, "class_name": "DepthwiseConv2D"}, "trainable": true}, "class_name": "TimeDistributed"}, {"inbound_nodes": [[["time_distributed_103", 0, 0, {}]]], "name": "time_distributed_104", "config": {"name": "time_distributed_104", "layer": {"config": {"moving_mean_initializer": {"config": {}, "class_name": "Zeros"}, "beta_regularizer": null, "axis": -1, "trainable": true, "scale": true, "name": "batch_normalization_39", "momentum": 0.99, "gamma_regularizer": null, "moving_variance_initializer": {"config": {}, "class_name": "Ones"}, "beta_constraint": null, "epsilon": 0.001, "gamma_constraint": null, "beta_initializer": {"config": {}, "class_name": "Zeros"}, "gamma_initializer": {"config": {}, "class_name": "Ones"}, "center": true}, "class_name": "BatchNormalization"}, "trainable": true}, "class_name": "TimeDistributed"}, {"inbound_nodes": [[["time_distributed_104", 0, 0, {}]]], "name": "time_distributed_105", "config": {"name": "time_distributed_105", "layer": {"config": {"activation": "relu6", "name": "activation_27", "trainable": true}, "class_name": "Activation"}, "trainable": true}, "class_name": "TimeDistributed"}, {"inbound_nodes": [[["time_distributed_105", 0, 0, {}]]], "name": "time_distributed_106", "config": {"name": "time_distributed_106", "layer": {"config": {"kernel_size": [1, 1], "bias_initializer": {"config": {}, "class_name": "Zeros"}, "kernel_initializer": {"config": {"distribution": "uniform", "mode": "fan_avg", "seed": null, "scale": 1.0}, "class_name": "VarianceScaling"}, "activity_regularizer": null, "strides": [1, 1], "kernel_constraint": null, "data_format": "channels_last", "bias_constraint": null, "filters": 96, "use_bias": true, "activation": "linear", "bias_regularizer": null, "name": "conv2d_27", "dilation_rate": [1, 1], "trainable": true, "padding": "same", "kernel_regularizer": null}, "class_name": "Conv2D"}, "trainable": true}, "class_name": "TimeDistributed"}, {"inbound_nodes": [[["time_distributed_106", 0, 0, {}]]], "name": "time_distributed_107", "config": {"name": "time_distributed_107", "layer": {"config": {"moving_mean_initializer": {"config": {}, "class_name": "Zeros"}, "beta_regularizer": null, "axis": -1, "trainable": true, "scale": true, "name": "batch_normalization_40", "momentum": 0.99, "gamma_regularizer": null, "moving_variance_initializer": {"config": {}, "class_name": "Ones"}, "beta_constraint": null, "epsilon": 0.001, "gamma_constraint": null, "beta_initializer": {"config": {}, "class_name": "Zeros"}, "gamma_initializer": {"config": {}, "class_name": "Ones"}, "center": true}, "class_name": "BatchNormalization"}, "trainable": true}, "class_name": "TimeDistributed"}, {"inbound_nodes": [[["time_distributed_107", 0, 0, {}], ["add_7", 0, 0, {}]]], "name": "add_8", "config": {"name": "add_8", "trainable": true}, "class_name": "Add"}, {"inbound_nodes": [[["add_8", 0, 0, {}]]], "name": "time_distributed_108", "config": {"name": "time_distributed_108", "layer": {"config": {"kernel_size": [1, 1], "bias_initializer": {"config": {}, "class_name": "Zeros"}, "kernel_initializer": {"config": {"distribution": "uniform", "mode": "fan_avg", "seed": null, "scale": 1.0}, "class_name": "VarianceScaling"}, "activity_regularizer": null, "strides": [1, 1], "kernel_constraint": null, "data_format": "channels_last", "bias_constraint": null, "filters": 576, "use_bias": true, "activation": "linear", "bias_regularizer": null, "name": "conv2d_28", "dilation_rate": [1, 1], "trainable": true, "padding": "same", "kernel_regularizer": null}, "class_name": "Conv2D"}, "trainable": true}, "class_name": "TimeDistributed"}, {"inbound_nodes": [[["time_distributed_108", 0, 0, {}]]], "name": "time_distributed_109", "config": {"name": "time_distributed_109", "layer": {"config": {"moving_mean_initializer": {"config": {}, "class_name": "Zeros"}, "beta_regularizer": null, "axis": -1, "trainable": true, "scale": true, "name": "batch_normalization_41", "momentum": 0.99, "gamma_regularizer": null, "moving_variance_initializer": {"config": {}, "class_name": "Ones"}, "beta_constraint": null, "epsilon": 0.001, "gamma_constraint": null, "beta_initializer": {"config": {}, "class_name": "Zeros"}, "gamma_initializer": {"config": {}, "class_name": "Ones"}, "center": true}, "class_name": "BatchNormalization"}, "trainable": true}, "class_name": "TimeDistributed"}, {"inbound_nodes": [[["time_distributed_109", 0, 0, {}]]], "name": "time_distributed_110", "config": {"name": "time_distributed_110", "layer": {"config": {"activation": "relu6", "name": "activation_28", "trainable": true}, "class_name": "Activation"}, "trainable": true}, "class_name": "TimeDistributed"}, {"inbound_nodes": [[["time_distributed_110", 0, 0, {}]]], "name": "time_distributed_111", "config": {"name": "time_distributed_111", "layer": {"config": {"kernel_size": [3, 3], "bias_initializer": {"config": {}, "class_name": "Zeros"}, "activity_regularizer": null, "strides": [2, 2], "depthwise_constraint": null, "bias_constraint": null, "use_bias": true, "activation": "linear", "data_format": "channels_last", "bias_regularizer": null, "name": "depthwise_conv2d_14", "dilation_rate": [1, 1], "trainable": true, "padding": "same", "depthwise_initializer": {"config": {"distribution": "uniform", "mode": "fan_avg", "seed": null, "scale": 1.0}, "class_name": "VarianceScaling"}, "depthwise_regularizer": null, "depth_multiplier": 1}, "class_name": "DepthwiseConv2D"}, "trainable": true}, "class_name": "TimeDistributed"}, {"inbound_nodes": [[["time_distributed_111", 0, 0, {}]]], "name": "time_distributed_112", "config": {"name": "time_distributed_112", "layer": {"config": {"moving_mean_initializer": {"config": {}, "class_name": "Zeros"}, "beta_regularizer": null, "axis": -1, "trainable": true, "scale": true, "name": "batch_normalization_42", "momentum": 0.99, "gamma_regularizer": null, "moving_variance_initializer": {"config": {}, "class_name": "Ones"}, "beta_constraint": null, "epsilon": 0.001, "gamma_constraint": null, "beta_initializer": {"config": {}, "class_name": "Zeros"}, "gamma_initializer": {"config": {}, "class_name": "Ones"}, "center": true}, "class_name": "BatchNormalization"}, "trainable": true}, "class_name": "TimeDistributed"}, {"inbound_nodes": [[["time_distributed_112", 0, 0, {}]]], "name": "time_distributed_113", "config": {"name": "time_distributed_113", "layer": {"config": {"activation": "relu6", "name": "activation_29", "trainable": true}, "class_name": "Activation"}, "trainable": true}, "class_name": "TimeDistributed"}, {"inbound_nodes": [[["time_distributed_113", 0, 0, {}]]], "name": "time_distributed_114", "config": {"name": "time_distributed_114", "layer": {"config": {"kernel_size": [1, 1], "bias_initializer": {"config": {}, "class_name": "Zeros"}, "kernel_initializer": {"config": {"distribution": "uniform", "mode": "fan_avg", "seed": null, "scale": 1.0}, "class_name": "VarianceScaling"}, "activity_regularizer": null, "strides": [1, 1], "kernel_constraint": null, "data_format": "channels_last", "bias_constraint": null, "filters": 160, "use_bias": true, "activation": "linear", "bias_regularizer": null, "name": "conv2d_29", "dilation_rate": [1, 1], "trainable": true, "padding": "same", "kernel_regularizer": null}, "class_name": "Conv2D"}, "trainable": true}, "class_name": "TimeDistributed"}, {"inbound_nodes": [[["time_distributed_114", 0, 0, {}]]], "name": "time_distributed_115", "config": {"name": "time_distributed_115", "layer": {"config": {"moving_mean_initializer": {"config": {}, "class_name": "Zeros"}, "beta_regularizer": null, "axis": -1, "trainable": true, "scale": true, "name": "batch_normalization_43", "momentum": 0.99, "gamma_regularizer": null, "moving_variance_initializer": {"config": {}, "class_name": "Ones"}, "beta_constraint": null, "epsilon": 0.001, "gamma_constraint": null, "beta_initializer": {"config": {}, "class_name": "Zeros"}, "gamma_initializer": {"config": {}, "class_name": "Ones"}, "center": true}, "class_name": "BatchNormalization"}, "trainable": true}, "class_name": "TimeDistributed"}, {"inbound_nodes": [[["time_distributed_115", 0, 0, {}]]], "name": "time_distributed_116", "config": {"name": "time_distributed_116", "layer": {"config": {"kernel_size": [1, 1], "bias_initializer": {"config": {}, "class_name": "Zeros"}, "kernel_initializer": {"config": {"distribution": "uniform", "mode": "fan_avg", "seed": null, "scale": 1.0}, "class_name": "VarianceScaling"}, "activity_regularizer": null, "strides": [1, 1], "kernel_constraint": null, "data_format": "channels_last", "bias_constraint": null, "filters": 960, "use_bias": true, "activation": "linear", "bias_regularizer": null, "name": "conv2d_30", "dilation_rate": [1, 1], "trainable": true, "padding": "same", "kernel_regularizer": null}, "class_name": "Conv2D"}, "trainable": true}, "class_name": "TimeDistributed"}, {"inbound_nodes": [[["time_distributed_116", 0, 0, {}]]], "name": "time_distributed_117", "config": {"name": "time_distributed_117", "layer": {"config": {"moving_mean_initializer": {"config": {}, "class_name": "Zeros"}, "beta_regularizer": null, "axis": -1, "trainable": true, "scale": true, "name": "batch_normalization_44", "momentum": 0.99, "gamma_regularizer": null, "moving_variance_initializer": {"config": {}, "class_name": "Ones"}, "beta_constraint": null, "epsilon": 0.001, "gamma_constraint": null, "beta_initializer": {"config": {}, "class_name": "Zeros"}, "gamma_initializer": {"config": {}, "class_name": "Ones"}, "center": true}, "class_name": "BatchNormalization"}, "trainable": true}, "class_name": "TimeDistributed"}, {"inbound_nodes": [[["time_distributed_117", 0, 0, {}]]], "name": "time_distributed_118", "config": {"name": "time_distributed_118", "layer": {"config": {"activation": "relu6", "name": "activation_30", "trainable": true}, "class_name": "Activation"}, "trainable": true}, "class_name": "TimeDistributed"}, {"inbound_nodes": [[["time_distributed_118", 0, 0, {}]]], "name": "time_distributed_119", "config": {"name": "time_distributed_119", "layer": {"config": {"kernel_size": [3, 3], "bias_initializer": {"config": {}, "class_name": "Zeros"}, "activity_regularizer": null, "strides": [1, 1], "depthwise_constraint": null, "bias_constraint": null, "use_bias": true, "activation": "linear", "data_format": "channels_last", "bias_regularizer": null, "name": "depthwise_conv2d_15", "dilation_rate": [1, 1], "trainable": true, "padding": "same", "depthwise_initializer": {"config": {"distribution": "uniform", "mode": "fan_avg", "seed": null, "scale": 1.0}, "class_name": "VarianceScaling"}, "depthwise_regularizer": null, "depth_multiplier": 1}, "class_name": "DepthwiseConv2D"}, "trainable": true}, "class_name": "TimeDistributed"}, {"inbound_nodes": [[["time_distributed_119", 0, 0, {}]]], "name": "time_distributed_120", "config": {"name": "time_distributed_120", "layer": {"config": {"moving_mean_initializer": {"config": {}, "class_name": "Zeros"}, "beta_regularizer": null, "axis": -1, "trainable": true, "scale": true, "name": "batch_normalization_45", "momentum": 0.99, "gamma_regularizer": null, "moving_variance_initializer": {"config": {}, "class_name": "Ones"}, "beta_constraint": null, "epsilon": 0.001, "gamma_constraint": null, "beta_initializer": {"config": {}, "class_name": "Zeros"}, "gamma_initializer": {"config": {}, "class_name": "Ones"}, "center": true}, "class_name": "BatchNormalization"}, "trainable": true}, "class_name": "TimeDistributed"}, {"inbound_nodes": [[["time_distributed_120", 0, 0, {}]]], "name": "time_distributed_121", "config": {"name": "time_distributed_121", "layer": {"config": {"activation": "relu6", "name": "activation_31", "trainable": true}, "class_name": "Activation"}, "trainable": true}, "class_name": "TimeDistributed"}, {"inbound_nodes": [[["time_distributed_121", 0, 0, {}]]], "name": "time_distributed_122", "config": {"name": "time_distributed_122", "layer": {"config": {"kernel_size": [1, 1], "bias_initializer": {"config": {}, "class_name": "Zeros"}, "kernel_initializer": {"config": {"distribution": "uniform", "mode": "fan_avg", "seed": null, "scale": 1.0}, "class_name": "VarianceScaling"}, "activity_regularizer": null, "strides": [1, 1], "kernel_constraint": null, "data_format": "channels_last", "bias_constraint": null, "filters": 160, "use_bias": true, "activation": "linear", "bias_regularizer": null, "name": "conv2d_31", "dilation_rate": [1, 1], "trainable": true, "padding": "same", "kernel_regularizer": null}, "class_name": "Conv2D"}, "trainable": true}, "class_name": "TimeDistributed"}, {"inbound_nodes": [[["time_distributed_122", 0, 0, {}]]], "name": "time_distributed_123", "config": {"name": "time_distributed_123", "layer": {"config": {"moving_mean_initializer": {"config": {}, "class_name": "Zeros"}, "beta_regularizer": null, "axis": -1, "trainable": true, "scale": true, "name": "batch_normalization_46", "momentum": 0.99, "gamma_regularizer": null, "moving_variance_initializer": {"config": {}, "class_name": "Ones"}, "beta_constraint": null, "epsilon": 0.001, "gamma_constraint": null, "beta_initializer": {"config": {}, "class_name": "Zeros"}, "gamma_initializer": {"config": {}, "class_name": "Ones"}, "center": true}, "class_name": "BatchNormalization"}, "trainable": true}, "class_name": "TimeDistributed"}, {"inbound_nodes": [[["time_distributed_123", 0, 0, {}], ["time_distributed_115", 0, 0, {}]]], "name": "add_9", "config": {"name": "add_9", "trainable": true}, "class_name": "Add"}, {"inbound_nodes": [[["add_9", 0, 0, {}]]], "name": "time_distributed_124", "config": {"name": "time_distributed_124", "layer": {"config": {"kernel_size": [1, 1], "bias_initializer": {"config": {}, "class_name": "Zeros"}, "kernel_initializer": {"config": {"distribution": "uniform", "mode": "fan_avg", "seed": null, "scale": 1.0}, "class_name": "VarianceScaling"}, "activity_regularizer": null, "strides": [1, 1], "kernel_constraint": null, "data_format": "channels_last", "bias_constraint": null, "filters": 960, "use_bias": true, "activation": "linear", "bias_regularizer": null, "name": "conv2d_32", "dilation_rate": [1, 1], "trainable": true, "padding": "same", "kernel_regularizer": null}, "class_name": "Conv2D"}, "trainable": true}, "class_name": "TimeDistributed"}, {"inbound_nodes": [[["time_distributed_124", 0, 0, {}]]], "name": "time_distributed_125", "config": {"name": "time_distributed_125", "layer": {"config": {"moving_mean_initializer": {"config": {}, "class_name": "Zeros"}, "beta_regularizer": null, "axis": -1, "trainable": true, "scale": true, "name": "batch_normalization_47", "momentum": 0.99, "gamma_regularizer": null, "moving_variance_initializer": {"config": {}, "class_name": "Ones"}, "beta_constraint": null, "epsilon": 0.001, "gamma_constraint": null, "beta_initializer": {"config": {}, "class_name": "Zeros"}, "gamma_initializer": {"config": {}, "class_name": "Ones"}, "center": true}, "class_name": "BatchNormalization"}, "trainable": true}, "class_name": "TimeDistributed"}, {"inbound_nodes": [[["time_distributed_125", 0, 0, {}]]], "name": "time_distributed_126", "config": {"name": "time_distributed_126", "layer": {"config": {"activation": "relu6", "name": "activation_32", "trainable": true}, "class_name": "Activation"}, "trainable": true}, "class_name": "TimeDistributed"}, {"inbound_nodes": [[["time_distributed_126", 0, 0, {}]]], "name": "time_distributed_127", "config": {"name": "time_distributed_127", "layer": {"config": {"kernel_size": [3, 3], "bias_initializer": {"config": {}, "class_name": "Zeros"}, "activity_regularizer": null, "strides": [1, 1], "depthwise_constraint": null, "bias_constraint": null, "use_bias": true, "activation": "linear", "data_format": "channels_last", "bias_regularizer": null, "name": "depthwise_conv2d_16", "dilation_rate": [1, 1], "trainable": true, "padding": "same", "depthwise_initializer": {"config": {"distribution": "uniform", "mode": "fan_avg", "seed": null, "scale": 1.0}, "class_name": "VarianceScaling"}, "depthwise_regularizer": null, "depth_multiplier": 1}, "class_name": "DepthwiseConv2D"}, "trainable": true}, "class_name": "TimeDistributed"}, {"inbound_nodes": [[["time_distributed_127", 0, 0, {}]]], "name": "time_distributed_128", "config": {"name": "time_distributed_128", "layer": {"config": {"moving_mean_initializer": {"config": {}, "class_name": "Zeros"}, "beta_regularizer": null, "axis": -1, "trainable": true, "scale": true, "name": "batch_normalization_48", "momentum": 0.99, "gamma_regularizer": null, "moving_variance_initializer": {"config": {}, "class_name": "Ones"}, "beta_constraint": null, "epsilon": 0.001, "gamma_constraint": null, "beta_initializer": {"config": {}, "class_name": "Zeros"}, "gamma_initializer": {"config": {}, "class_name": "Ones"}, "center": true}, "class_name": "BatchNormalization"}, "trainable": true}, "class_name": "TimeDistributed"}, {"inbound_nodes": [[["time_distributed_128", 0, 0, {}]]], "name": "time_distributed_129", "config": {"name": "time_distributed_129", "layer": {"config": {"activation": "relu6", "name": "activation_33", "trainable": true}, "class_name": "Activation"}, "trainable": true}, "class_name": "TimeDistributed"}, {"inbound_nodes": [[["time_distributed_129", 0, 0, {}]]], "name": "time_distributed_130", "config": {"name": "time_distributed_130", "layer": {"config": {"kernel_size": [1, 1], "bias_initializer": {"config": {}, "class_name": "Zeros"}, "kernel_initializer": {"config": {"distribution": "uniform", "mode": "fan_avg", "seed": null, "scale": 1.0}, "class_name": "VarianceScaling"}, "activity_regularizer": null, "strides": [1, 1], "kernel_constraint": null, "data_format": "channels_last", "bias_constraint": null, "filters": 160, "use_bias": true, "activation": "linear", "bias_regularizer": null, "name": "conv2d_33", "dilation_rate": [1, 1], "trainable": true, "padding": "same", "kernel_regularizer": null}, "class_name": "Conv2D"}, "trainable": true}, "class_name": "TimeDistributed"}, {"inbound_nodes": [[["time_distributed_130", 0, 0, {}]]], "name": "time_distributed_131", "config": {"name": "time_distributed_131", "layer": {"config": {"moving_mean_initializer": {"config": {}, "class_name": "Zeros"}, "beta_regularizer": null, "axis": -1, "trainable": true, "scale": true, "name": "batch_normalization_49", "momentum": 0.99, "gamma_regularizer": null, "moving_variance_initializer": {"config": {}, "class_name": "Ones"}, "beta_constraint": null, "epsilon": 0.001, "gamma_constraint": null, "beta_initializer": {"config": {}, "class_name": "Zeros"}, "gamma_initializer": {"config": {}, "class_name": "Ones"}, "center": true}, "class_name": "BatchNormalization"}, "trainable": true}, "class_name": "TimeDistributed"}, {"inbound_nodes": [[["time_distributed_131", 0, 0, {}], ["add_9", 0, 0, {}]]], "name": "add_10", "config": {"name": "add_10", "trainable": true}, "class_name": "Add"}, {"inbound_nodes": [[["add_10", 0, 0, {}]]], "name": "time_distributed_132", "config": {"name": "time_distributed_132", "layer": {"config": {"kernel_size": [1, 1], "bias_initializer": {"config": {}, "class_name": "Zeros"}, "kernel_initializer": {"config": {"distribution": "uniform", "mode": "fan_avg", "seed": null, "scale": 1.0}, "class_name": "VarianceScaling"}, "activity_regularizer": null, "strides": [1, 1], "kernel_constraint": null, "data_format": "channels_last", "bias_constraint": null, "filters": 960, "use_bias": true, "activation": "linear", "bias_regularizer": null, "name": "conv2d_34", "dilation_rate": [1, 1], "trainable": true, "padding": "same", "kernel_regularizer": null}, "class_name": "Conv2D"}, "trainable": true}, "class_name": "TimeDistributed"}, {"inbound_nodes": [[["time_distributed_132", 0, 0, {}]]], "name": "time_distributed_133", "config": {"name": "time_distributed_133", "layer": {"config": {"moving_mean_initializer": {"config": {}, "class_name": "Zeros"}, "beta_regularizer": null, "axis": -1, "trainable": true, "scale": true, "name": "batch_normalization_50", "momentum": 0.99, "gamma_regularizer": null, "moving_variance_initializer": {"config": {}, "class_name": "Ones"}, "beta_constraint": null, "epsilon": 0.001, "gamma_constraint": null, "beta_initializer": {"config": {}, "class_name": "Zeros"}, "gamma_initializer": {"config": {}, "class_name": "Ones"}, "center": true}, "class_name": "BatchNormalization"}, "trainable": true}, "class_name": "TimeDistributed"}, {"inbound_nodes": [[["time_distributed_133", 0, 0, {}]]], "name": "time_distributed_134", "config": {"name": "time_distributed_134", "layer": {"config": {"activation": "relu6", "name": "activation_34", "trainable": true}, "class_name": "Activation"}, "trainable": true}, "class_name": "TimeDistributed"}, {"inbound_nodes": [[["time_distributed_134", 0, 0, {}]]], "name": "time_distributed_135", "config": {"name": "time_distributed_135", "layer": {"config": {"kernel_size": [3, 3], "bias_initializer": {"config": {}, "class_name": "Zeros"}, "activity_regularizer": null, "strides": [1, 1], "depthwise_constraint": null, "bias_constraint": null, "use_bias": true, "activation": "linear", "data_format": "channels_last", "bias_regularizer": null, "name": "depthwise_conv2d_17", "dilation_rate": [1, 1], "trainable": true, "padding": "same", "depthwise_initializer": {"config": {"distribution": "uniform", "mode": "fan_avg", "seed": null, "scale": 1.0}, "class_name": "VarianceScaling"}, "depthwise_regularizer": null, "depth_multiplier": 1}, "class_name": "DepthwiseConv2D"}, "trainable": true}, "class_name": "TimeDistributed"}, {"inbound_nodes": [[["time_distributed_135", 0, 0, {}]]], "name": "time_distributed_136", "config": {"name": "time_distributed_136", "layer": {"config": {"moving_mean_initializer": {"config": {}, "class_name": "Zeros"}, "beta_regularizer": null, "axis": -1, "trainable": true, "scale": true, "name": "batch_normalization_51", "momentum": 0.99, "gamma_regularizer": null, "moving_variance_initializer": {"config": {}, "class_name": "Ones"}, "beta_constraint": null, "epsilon": 0.001, "gamma_constraint": null, "beta_initializer": {"config": {}, "class_name": "Zeros"}, "gamma_initializer": {"config": {}, "class_name": "Ones"}, "center": true}, "class_name": "BatchNormalization"}, "trainable": true}, "class_name": "TimeDistributed"}, {"inbound_nodes": [[["time_distributed_136", 0, 0, {}]]], "name": "time_distributed_137", "config": {"name": "time_distributed_137", "layer": {"config": {"activation": "relu6", "name": "activation_35", "trainable": true}, "class_name": "Activation"}, "trainable": true}, "class_name": "TimeDistributed"}, {"inbound_nodes": [[["time_distributed_137", 0, 0, {}]]], "name": "time_distributed_138", "config": {"name": "time_distributed_138", "layer": {"config": {"kernel_size": [1, 1], "bias_initializer": {"config": {}, "class_name": "Zeros"}, "kernel_initializer": {"config": {"distribution": "uniform", "mode": "fan_avg", "seed": null, "scale": 1.0}, "class_name": "VarianceScaling"}, "activity_regularizer": null, "strides": [1, 1], "kernel_constraint": null, "data_format": "channels_last", "bias_constraint": null, "filters": 320, "use_bias": true, "activation": "linear", "bias_regularizer": null, "name": "conv2d_35", "dilation_rate": [1, 1], "trainable": true, "padding": "same", "kernel_regularizer": null}, "class_name": "Conv2D"}, "trainable": true}, "class_name": "TimeDistributed"}, {"inbound_nodes": [[["time_distributed_138", 0, 0, {}]]], "name": "time_distributed_139", "config": {"name": "time_distributed_139", "layer": {"config": {"moving_mean_initializer": {"config": {}, "class_name": "Zeros"}, "beta_regularizer": null, "axis": -1, "trainable": true, "scale": true, "name": "batch_normalization_52", "momentum": 0.99, "gamma_regularizer": null, "moving_variance_initializer": {"config": {}, "class_name": "Ones"}, "beta_constraint": null, "epsilon": 0.001, "gamma_constraint": null, "beta_initializer": {"config": {}, "class_name": "Zeros"}, "gamma_initializer": {"config": {}, "class_name": "Ones"}, "center": true}, "class_name": "BatchNormalization"}, "trainable": true}, "class_name": "TimeDistributed"}, {"inbound_nodes": [[["time_distributed_139", 0, 0, {}]]], "name": "time_distributed_140", "config": {"name": "time_distributed_140", "layer": {"config": {"kernel_size": [1, 1], "bias_initializer": {"config": {}, "class_name": "Zeros"}, "kernel_initializer": {"config": {"distribution": "uniform", "mode": "fan_avg", "seed": null, "scale": 1.0}, "class_name": "VarianceScaling"}, "activity_regularizer": null, "strides": [1, 1], "kernel_constraint": null, "data_format": "channels_last", "bias_constraint": null, "filters": 1280, "use_bias": true, "activation": "linear", "bias_regularizer": null, "name": "conv2d_36", "dilation_rate": [1, 1], "trainable": true, "padding": "same", "kernel_regularizer": null}, "class_name": "Conv2D"}, "trainable": true}, "class_name": "TimeDistributed"}, {"inbound_nodes": [[["time_distributed_140", 0, 0, {}]]], "name": "time_distributed_141", "config": {"name": "time_distributed_141", "layer": {"config": {"moving_mean_initializer": {"config": {}, "class_name": "Zeros"}, "beta_regularizer": null, "axis": -1, "trainable": true, "scale": true, "name": "batch_normalization_53", "momentum": 0.99, "gamma_regularizer": null, "moving_variance_initializer": {"config": {}, "class_name": "Ones"}, "beta_constraint": null, "epsilon": 0.001, "gamma_constraint": null, "beta_initializer": {"config": {}, "class_name": "Zeros"}, "gamma_initializer": {"config": {}, "class_name": "Ones"}, "center": true}, "class_name": "BatchNormalization"}, "trainable": true}, "class_name": "TimeDistributed"}, {"inbound_nodes": [[["time_distributed_141", 0, 0, {}]]], "name": "time_distributed_142", "config": {"name": "time_distributed_142", "layer": {"config": {"activation": "relu6", "name": "activation_36", "trainable": true}, "class_name": "Activation"}, "trainable": true}, "class_name": "TimeDistributed"}, {"inbound_nodes": [[["time_distributed_142", 0, 0, {}]]], "name": "time_distributed_143", "config": {"name": "time_distributed_143", "layer": {"config": {"trainable": true, "name": "global_average_pooling2d_1", "data_format": "channels_last"}, "class_name": "GlobalAveragePooling2D"}, "trainable": true}, "class_name": "TimeDistributed"}, {"inbound_nodes": [[["time_distributed_143", 0, 0, {}]]], "name": "time_distributed_144", "config": {"name": "time_distributed_144", "layer": {"config": {"bias_regularizer": null, "kernel_initializer": {"config": {"distribution": "uniform", "mode": "fan_avg", "seed": null, "scale": 1.0}, "class_name": "VarianceScaling"}, "activity_regularizer": null, "kernel_constraint": null, "trainable": true, "bias_constraint": null, "kernel_regularizer": null, "activation": "softmax", "units": 2, "use_bias": true, "bias_initializer": {"config": {}, "class_name": "Zeros"}, "name": "dense_1"}, "class_name": "Dense"}, "trainable": true}, "class_name": "TimeDistributed"}, {"inbound_nodes": [[["time_distributed_144", 0, 0, {}]]], "name": "reshape_3", "config": {"trainable": true, "target_shape": [9, 16, 2], "name": "reshape_3"}, "class_name": "Reshape"}], "name": "model_1", "input_layers": [["input_1", 0, 0]]}, "class_name": "Model"}