{"config": {"name": "model_1", "input_layers": [["input_1", 0, 0]], "layers": [{"name": "input_1", "config": {"batch_input_shape": [null, 720, 1280, 3], "name": "input_1", "dtype": "float32", "sparse": false}, "class_name": "InputLayer", "inbound_nodes": []}, {"name": "lambda_1", "config": {"name": "lambda_1", "output_shape": null, "function_type": "lambda", "arguments": {}, "trainable": true, "function": ["4wEAAAAAAAAAAQAAAAsAAAATAAAAc0kAAAB0AABqAQB8AABkAQBkAgCIAACIAABkAgBnBABkAwBk\nAgCIAQCIAQBkAgBnBABkBABkAgBkAgBkAgBkAgBnBABkBQBkBgCDAQRTKQdO2gZrc2l6ZXPpAQAA\nANoHc3RyaWRlc9oFcmF0ZXPaB3BhZGRpbmfaBVZBTElEKQLaAnRm2hVleHRyYWN0X2ltYWdlX3Bh\ndGNoZXMpAdoBeCkC2gZrZXJuZWzaBnN0cmlkZakA+iQvaG9tZS95b29uZ2kvV2Fsay1Bc3Npc3Rh\nbnQvbW9kZWwucHnaCDxsYW1iZGE+YwAAAHMCAAAABgE=\n", null, [80, 80]], "output_shape_type": "raw"}, "class_name": "Lambda", "inbound_nodes": [[["input_1", 0, 0, {}]]]}, {"name": "reshape_1", "config": {"name": "reshape_1", "target_shape": [9, 16, 80, 80, 3], "trainable": true}, "class_name": "Reshape", "inbound_nodes": [[["lambda_1", 0, 0, {}]]]}, {"name": "reshape_2", "config": {"name": "reshape_2", "target_shape": [144, 80, 80, 3], "trainable": true}, "class_name": "Reshape", "inbound_nodes": [[["reshape_1", 0, 0, {}]]]}, {"name": "time_distributed_1", "config": {"name": "time_distributed_1", "trainable": true, "layer": {"config": {"name": "conv2d_1", "trainable": true, "bias_regularizer": null, "filters": 32, "activity_regularizer": null, "kernel_size": [3, 3], "padding": "same", "kernel_regularizer": null, "data_format": "channels_last", "kernel_initializer": {"config": {"mode": "fan_avg", "seed": null, "scale": 1.0, "distribution": "uniform"}, "class_name": "VarianceScaling"}, "strides": [2, 2], "bias_initializer": {"config": {}, "class_name": "Zeros"}, "bias_constraint": null, "use_bias": true, "dilation_rate": [1, 1], "kernel_constraint": null, "activation": "linear"}, "class_name": "Conv2D"}}, "class_name": "TimeDistributed", "inbound_nodes": [[["reshape_2", 0, 0, {}]]]}, {"name": "time_distributed_2", "config": {"name": "time_distributed_2", "trainable": true, "layer": {"config": {"name": "batch_normalization_1", "gamma_regularizer": null, "moving_mean_initializer": {"config": {}, "class_name": "Zeros"}, "momentum": 0.99, "beta_initializer": {"config": {}, "class_name": "Zeros"}, "beta_constraint": null, "gamma_constraint": null, "beta_regularizer": null, "moving_variance_initializer": {"config": {}, "class_name": "Ones"}, "center": true, "axis": -1, "scale": true, "gamma_initializer": {"config": {}, "class_name": "Ones"}, "trainable": true, "epsilon": 0.001}, "class_name": "BatchNormalization"}}, "class_name": "TimeDistributed", "inbound_nodes": [[["time_distributed_1", 0, 0, {}]]]}, {"name": "time_distributed_3", "config": {"name": "time_distributed_3", "trainable": true, "layer": {"config": {"name": "activation_1", "trainable": true, "activation": "relu6"}, "class_name": "Activation"}}, "class_name": "TimeDistributed", "inbound_nodes": [[["time_distributed_2", 0, 0, {}]]]}, {"name": "time_distributed_4", "config": {"name": "time_distributed_4", "trainable": true, "layer": {"config": {"name": "conv2d_2", "trainable": true, "bias_regularizer": null, "filters": 32, "activity_regularizer": null, "kernel_size": [1, 1], "padding": "same", "kernel_regularizer": null, "data_format": "channels_last", "kernel_initializer": {"config": {"mode": "fan_avg", "seed": null, "scale": 1.0, "distribution": "uniform"}, "class_name": "VarianceScaling"}, "strides": [1, 1], "bias_initializer": {"config": {}, "class_name": "Zeros"}, "bias_constraint": null, "use_bias": true, "dilation_rate": [1, 1], "kernel_constraint": null, "activation": "linear"}, "class_name": "Conv2D"}}, "class_name": "TimeDistributed", "inbound_nodes": [[["time_distributed_3", 0, 0, {}]]]}, {"name": "time_distributed_5", "config": {"name": "time_distributed_5", "trainable": true, "layer": {"config": {"name": "batch_normalization_2", "gamma_regularizer": null, "moving_mean_initializer": {"config": {}, "class_name": "Zeros"}, "momentum": 0.99, "beta_initializer": {"config": {}, "class_name": "Zeros"}, "beta_constraint": null, "gamma_constraint": null, "beta_regularizer": null, "moving_variance_initializer": {"config": {}, "class_name": "Ones"}, "center": true, "axis": -1, "scale": true, "gamma_initializer": {"config": {}, "class_name": "Ones"}, "trainable": true, "epsilon": 0.001}, "class_name": "BatchNormalization"}}, "class_name": "TimeDistributed", "inbound_nodes": [[["time_distributed_4", 0, 0, {}]]]}, {"name": "time_distributed_6", "config": {"name": "time_distributed_6", "trainable": true, "layer": {"config": {"name": "activation_2", "trainable": true, "activation": "relu6"}, "class_name": "Activation"}}, "class_name": "TimeDistributed", "inbound_nodes": [[["time_distributed_5", 0, 0, {}]]]}, {"name": "time_distributed_7", "config": {"name": "time_distributed_7", "trainable": true, "layer": {"config": {"name": "depthwise_conv2d_1", "data_format": "channels_last", "trainable": true, "bias_regularizer": null, "activity_regularizer": null, "activation": "linear", "kernel_size": [3, 3], "padding": "same", "dilation_rate": [1, 1], "depth_multiplier": 1, "depthwise_regularizer": null, "strides": [1, 1], "bias_initializer": {"config": {}, "class_name": "Zeros"}, "bias_constraint": null, "use_bias": true, "depthwise_initializer": {"config": {"mode": "fan_avg", "seed": null, "scale": 1.0, "distribution": "uniform"}, "class_name": "VarianceScaling"}, "depthwise_constraint": null}, "class_name": "DepthwiseConv2D"}}, "class_name": "TimeDistributed", "inbound_nodes": [[["time_distributed_6", 0, 0, {}]]]}, {"name": "time_distributed_8", "config": {"name": "time_distributed_8", "trainable": true, "layer": {"config": {"name": "batch_normalization_3", "gamma_regularizer": null, "moving_mean_initializer": {"config": {}, "class_name": "Zeros"}, "momentum": 0.99, "beta_initializer": {"config": {}, "class_name": "Zeros"}, "beta_constraint": null, "gamma_constraint": null, "beta_regularizer": null, "moving_variance_initializer": {"config": {}, "class_name": "Ones"}, "center": true, "axis": -1, "scale": true, "gamma_initializer": {"config": {}, "class_name": "Ones"}, "trainable": true, "epsilon": 0.001}, "class_name": "BatchNormalization"}}, "class_name": "TimeDistributed", "inbound_nodes": [[["time_distributed_7", 0, 0, {}]]]}, {"name": "time_distributed_9", "config": {"name": "time_distributed_9", "trainable": true, "layer": {"config": {"name": "activation_3", "trainable": true, "activation": "relu6"}, "class_name": "Activation"}}, "class_name": "TimeDistributed", "inbound_nodes": [[["time_distributed_8", 0, 0, {}]]]}, {"name": "time_distributed_10", "config": {"name": "time_distributed_10", "trainable": true, "layer": {"config": {"name": "conv2d_3", "trainable": true, "bias_regularizer": null, "filters": 16, "activity_regularizer": null, "kernel_size": [1, 1], "padding": "same", "kernel_regularizer": null, "data_format": "channels_last", "kernel_initializer": {"config": {"mode": "fan_avg", "seed": null, "scale": 1.0, "distribution": "uniform"}, "class_name": "VarianceScaling"}, "strides": [1, 1], "bias_initializer": {"config": {}, "class_name": "Zeros"}, "bias_constraint": null, "use_bias": true, "dilation_rate": [1, 1], "kernel_constraint": null, "activation": "linear"}, "class_name": "Conv2D"}}, "class_name": "TimeDistributed", "inbound_nodes": [[["time_distributed_9", 0, 0, {}]]]}, {"name": "time_distributed_11", "config": {"name": "time_distributed_11", "trainable": true, "layer": {"config": {"name": "batch_normalization_4", "gamma_regularizer": null, "moving_mean_initializer": {"config": {}, "class_name": "Zeros"}, "momentum": 0.99, "beta_initializer": {"config": {}, "class_name": "Zeros"}, "beta_constraint": null, "gamma_constraint": null, "beta_regularizer": null, "moving_variance_initializer": {"config": {}, "class_name": "Ones"}, "center": true, "axis": -1, "scale": true, "gamma_initializer": {"config": {}, "class_name": "Ones"}, "trainable": true, "epsilon": 0.001}, "class_name": "BatchNormalization"}}, "class_name": "TimeDistributed", "inbound_nodes": [[["time_distributed_10", 0, 0, {}]]]}, {"name": "time_distributed_12", "config": {"name": "time_distributed_12", "trainable": true, "layer": {"config": {"name": "conv2d_4", "trainable": true, "bias_regularizer": null, "filters": 96, "activity_regularizer": null, "kernel_size": [1, 1], "padding": "same", "kernel_regularizer": null, "data_format": "channels_last", "kernel_initializer": {"config": {"mode": "fan_avg", "seed": null, "scale": 1.0, "distribution": "uniform"}, "class_name": "VarianceScaling"}, "strides": [1, 1], "bias_initializer": {"config": {}, "class_name": "Zeros"}, "bias_constraint": null, "use_bias": true, "dilation_rate": [1, 1], "kernel_constraint": null, "activation": "linear"}, "class_name": "Conv2D"}}, "class_name": "TimeDistributed", "inbound_nodes": [[["time_distributed_11", 0, 0, {}]]]}, {"name": "time_distributed_13", "config": {"name": "time_distributed_13", "trainable": true, "layer": {"config": {"name": "batch_normalization_5", "gamma_regularizer": null, "moving_mean_initializer": {"config": {}, "class_name": "Zeros"}, "momentum": 0.99, "beta_initializer": {"config": {}, "class_name": "Zeros"}, "beta_constraint": null, "gamma_constraint": null, "beta_regularizer": null, "moving_variance_initializer": {"config": {}, "class_name": "Ones"}, "center": true, "axis": -1, "scale": true, "gamma_initializer": {"config": {}, "class_name": "Ones"}, "trainable": true, "epsilon": 0.001}, "class_name": "BatchNormalization"}}, "class_name": "TimeDistributed", "inbound_nodes": [[["time_distributed_12", 0, 0, {}]]]}, {"name": "time_distributed_14", "config": {"name": "time_distributed_14", "trainable": true, "layer": {"config": {"name": "activation_4", "trainable": true, "activation": "relu6"}, "class_name": "Activation"}}, "class_name": "TimeDistributed", "inbound_nodes": [[["time_distributed_13", 0, 0, {}]]]}, {"name": "time_distributed_15", "config": {"name": "time_distributed_15", "trainable": true, "layer": {"config": {"name": "depthwise_conv2d_2", "data_format": "channels_last", "trainable": true, "bias_regularizer": null, "activity_regularizer": null, "activation": "linear", "kernel_size": [3, 3], "padding": "same", "dilation_rate": [1, 1], "depth_multiplier": 1, "depthwise_regularizer": null, "strides": [2, 2], "bias_initializer": {"config": {}, "class_name": "Zeros"}, "bias_constraint": null, "use_bias": true, "depthwise_initializer": {"config": {"mode": "fan_avg", "seed": null, "scale": 1.0, "distribution": "uniform"}, "class_name": "VarianceScaling"}, "depthwise_constraint": null}, "class_name": "DepthwiseConv2D"}}, "class_name": "TimeDistributed", "inbound_nodes": [[["time_distributed_14", 0, 0, {}]]]}, {"name": "time_distributed_16", "config": {"name": "time_distributed_16", "trainable": true, "layer": {"config": {"name": "batch_normalization_6", "gamma_regularizer": null, "moving_mean_initializer": {"config": {}, "class_name": "Zeros"}, "momentum": 0.99, "beta_initializer": {"config": {}, "class_name": "Zeros"}, "beta_constraint": null, "gamma_constraint": null, "beta_regularizer": null, "moving_variance_initializer": {"config": {}, "class_name": "Ones"}, "center": true, "axis": -1, "scale": true, "gamma_initializer": {"config": {}, "class_name": "Ones"}, "trainable": true, "epsilon": 0.001}, "class_name": "BatchNormalization"}}, "class_name": "TimeDistributed", "inbound_nodes": [[["time_distributed_15", 0, 0, {}]]]}, {"name": "time_distributed_17", "config": {"name": "time_distributed_17", "trainable": true, "layer": {"config": {"name": "activation_5", "trainable": true, "activation": "relu6"}, "class_name": "Activation"}}, "class_name": "TimeDistributed", "inbound_nodes": [[["time_distributed_16", 0, 0, {}]]]}, {"name": "time_distributed_18", "config": {"name": "time_distributed_18", "trainable": true, "layer": {"config": {"name": "conv2d_5", "trainable": true, "bias_regularizer": null, "filters": 24, "activity_regularizer": null, "kernel_size": [1, 1], "padding": "same", "kernel_regularizer": null, "data_format": "channels_last", "kernel_initializer": {"config": {"mode": "fan_avg", "seed": null, "scale": 1.0, "distribution": "uniform"}, "class_name": "VarianceScaling"}, "strides": [1, 1], "bias_initializer": {"config": {}, "class_name": "Zeros"}, "bias_constraint": null, "use_bias": true, "dilation_rate": [1, 1], "kernel_constraint": null, "activation": "linear"}, "class_name": "Conv2D"}}, "class_name": "TimeDistributed", "inbound_nodes": [[["time_distributed_17", 0, 0, {}]]]}, {"name": "time_distributed_19", "config": {"name": "time_distributed_19", "trainable": true, "layer": {"config": {"name": "batch_normalization_7", "gamma_regularizer": null, "moving_mean_initializer": {"config": {}, "class_name": "Zeros"}, "momentum": 0.99, "beta_initializer": {"config": {}, "class_name": "Zeros"}, "beta_constraint": null, "gamma_constraint": null, "beta_regularizer": null, "moving_variance_initializer": {"config": {}, "class_name": "Ones"}, "center": true, "axis": -1, "scale": true, "gamma_initializer": {"config": {}, "class_name": "Ones"}, "trainable": true, "epsilon": 0.001}, "class_name": "BatchNormalization"}}, "class_name": "TimeDistributed", "inbound_nodes": [[["time_distributed_18", 0, 0, {}]]]}, {"name": "time_distributed_20", "config": {"name": "time_distributed_20", "trainable": true, "layer": {"config": {"name": "conv2d_6", "trainable": true, "bias_regularizer": null, "filters": 144, "activity_regularizer": null, "kernel_size": [1, 1], "padding": "same", "kernel_regularizer": null, "data_format": "channels_last", "kernel_initializer": {"config": {"mode": "fan_avg", "seed": null, "scale": 1.0, "distribution": "uniform"}, "class_name": "VarianceScaling"}, "strides": [1, 1], "bias_initializer": {"config": {}, "class_name": "Zeros"}, "bias_constraint": null, "use_bias": true, "dilation_rate": [1, 1], "kernel_constraint": null, "activation": "linear"}, "class_name": "Conv2D"}}, "class_name": "TimeDistributed", "inbound_nodes": [[["time_distributed_19", 0, 0, {}]]]}, {"name": "time_distributed_21", "config": {"name": "time_distributed_21", "trainable": true, "layer": {"config": {"name": "batch_normalization_8", "gamma_regularizer": null, "moving_mean_initializer": {"config": {}, "class_name": "Zeros"}, "momentum": 0.99, "beta_initializer": {"config": {}, "class_name": "Zeros"}, "beta_constraint": null, "gamma_constraint": null, "beta_regularizer": null, "moving_variance_initializer": {"config": {}, "class_name": "Ones"}, "center": true, "axis": -1, "scale": true, "gamma_initializer": {"config": {}, "class_name": "Ones"}, "trainable": true, "epsilon": 0.001}, "class_name": "BatchNormalization"}}, "class_name": "TimeDistributed", "inbound_nodes": [[["time_distributed_20", 0, 0, {}]]]}, {"name": "time_distributed_22", "config": {"name": "time_distributed_22", "trainable": true, "layer": {"config": {"name": "activation_6", "trainable": true, "activation": "relu6"}, "class_name": "Activation"}}, "class_name": "TimeDistributed", "inbound_nodes": [[["time_distributed_21", 0, 0, {}]]]}, {"name": "time_distributed_23", "config": {"name": "time_distributed_23", "trainable": true, "layer": {"config": {"name": "depthwise_conv2d_3", "data_format": "channels_last", "trainable": true, "bias_regularizer": null, "activity_regularizer": null, "activation": "linear", "kernel_size": [3, 3], "padding": "same", "dilation_rate": [1, 1], "depth_multiplier": 1, "depthwise_regularizer": null, "strides": [1, 1], "bias_initializer": {"config": {}, "class_name": "Zeros"}, "bias_constraint": null, "use_bias": true, "depthwise_initializer": {"config": {"mode": "fan_avg", "seed": null, "scale": 1.0, "distribution": "uniform"}, "class_name": "VarianceScaling"}, "depthwise_constraint": null}, "class_name": "DepthwiseConv2D"}}, "class_name": "TimeDistributed", "inbound_nodes": [[["time_distributed_22", 0, 0, {}]]]}, {"name": "time_distributed_24", "config": {"name": "time_distributed_24", "trainable": true, "layer": {"config": {"name": "batch_normalization_9", "gamma_regularizer": null, "moving_mean_initializer": {"config": {}, "class_name": "Zeros"}, "momentum": 0.99, "beta_initializer": {"config": {}, "class_name": "Zeros"}, "beta_constraint": null, "gamma_constraint": null, "beta_regularizer": null, "moving_variance_initializer": {"config": {}, "class_name": "Ones"}, "center": true, "axis": -1, "scale": true, "gamma_initializer": {"config": {}, "class_name": "Ones"}, "trainable": true, "epsilon": 0.001}, "class_name": "BatchNormalization"}}, "class_name": "TimeDistributed", "inbound_nodes": [[["time_distributed_23", 0, 0, {}]]]}, {"name": "time_distributed_25", "config": {"name": "time_distributed_25", "trainable": true, "layer": {"config": {"name": "activation_7", "trainable": true, "activation": "relu6"}, "class_name": "Activation"}}, "class_name": "TimeDistributed", "inbound_nodes": [[["time_distributed_24", 0, 0, {}]]]}, {"name": "time_distributed_26", "config": {"name": "time_distributed_26", "trainable": true, "layer": {"config": {"name": "conv2d_7", "trainable": true, "bias_regularizer": null, "filters": 24, "activity_regularizer": null, "kernel_size": [1, 1], "padding": "same", "kernel_regularizer": null, "data_format": "channels_last", "kernel_initializer": {"config": {"mode": "fan_avg", "seed": null, "scale": 1.0, "distribution": "uniform"}, "class_name": "VarianceScaling"}, "strides": [1, 1], "bias_initializer": {"config": {}, "class_name": "Zeros"}, "bias_constraint": null, "use_bias": true, "dilation_rate": [1, 1], "kernel_constraint": null, "activation": "linear"}, "class_name": "Conv2D"}}, "class_name": "TimeDistributed", "inbound_nodes": [[["time_distributed_25", 0, 0, {}]]]}, {"name": "time_distributed_27", "config": {"name": "time_distributed_27", "trainable": true, "layer": {"config": {"name": "batch_normalization_10", "gamma_regularizer": null, "moving_mean_initializer": {"config": {}, "class_name": "Zeros"}, "momentum": 0.99, "beta_initializer": {"config": {}, "class_name": "Zeros"}, "beta_constraint": null, "gamma_constraint": null, "beta_regularizer": null, "moving_variance_initializer": {"config": {}, "class_name": "Ones"}, "center": true, "axis": -1, "scale": true, "gamma_initializer": {"config": {}, "class_name": "Ones"}, "trainable": true, "epsilon": 0.001}, "class_name": "BatchNormalization"}}, "class_name": "TimeDistributed", "inbound_nodes": [[["time_distributed_26", 0, 0, {}]]]}, {"name": "add_1", "config": {"name": "add_1", "trainable": true}, "class_name": "Add", "inbound_nodes": [[["time_distributed_27", 0, 0, {}], ["time_distributed_19", 0, 0, {}]]]}, {"name": "time_distributed_28", "config": {"name": "time_distributed_28", "trainable": true, "layer": {"config": {"name": "conv2d_8", "trainable": true, "bias_regularizer": null, "filters": 144, "activity_regularizer": null, "kernel_size": [1, 1], "padding": "same", "kernel_regularizer": null, "data_format": "channels_last", "kernel_initializer": {"config": {"mode": "fan_avg", "seed": null, "scale": 1.0, "distribution": "uniform"}, "class_name": "VarianceScaling"}, "strides": [1, 1], "bias_initializer": {"config": {}, "class_name": "Zeros"}, "bias_constraint": null, "use_bias": true, "dilation_rate": [1, 1], "kernel_constraint": null, "activation": "linear"}, "class_name": "Conv2D"}}, "class_name": "TimeDistributed", "inbound_nodes": [[["add_1", 0, 0, {}]]]}, {"name": "time_distributed_29", "config": {"name": "time_distributed_29", "trainable": true, "layer": {"config": {"name": "batch_normalization_11", "gamma_regularizer": null, "moving_mean_initializer": {"config": {}, "class_name": "Zeros"}, "momentum": 0.99, "beta_initializer": {"config": {}, "class_name": "Zeros"}, "beta_constraint": null, "gamma_constraint": null, "beta_regularizer": null, "moving_variance_initializer": {"config": {}, "class_name": "Ones"}, "center": true, "axis": -1, "scale": true, "gamma_initializer": {"config": {}, "class_name": "Ones"}, "trainable": true, "epsilon": 0.001}, "class_name": "BatchNormalization"}}, "class_name": "TimeDistributed", "inbound_nodes": [[["time_distributed_28", 0, 0, {}]]]}, {"name": "time_distributed_30", "config": {"name": "time_distributed_30", "trainable": true, "layer": {"config": {"name": "activation_8", "trainable": true, "activation": "relu6"}, "class_name": "Activation"}}, "class_name": "TimeDistributed", "inbound_nodes": [[["time_distributed_29", 0, 0, {}]]]}, {"name": "time_distributed_31", "config": {"name": "time_distributed_31", "trainable": true, "layer": {"config": {"name": "depthwise_conv2d_4", "data_format": "channels_last", "trainable": true, "bias_regularizer": null, "activity_regularizer": null, "activation": "linear", "kernel_size": [3, 3], "padding": "same", "dilation_rate": [1, 1], "depth_multiplier": 1, "depthwise_regularizer": null, "strides": [2, 2], "bias_initializer": {"config": {}, "class_name": "Zeros"}, "bias_constraint": null, "use_bias": true, "depthwise_initializer": {"config": {"mode": "fan_avg", "seed": null, "scale": 1.0, "distribution": "uniform"}, "class_name": "VarianceScaling"}, "depthwise_constraint": null}, "class_name": "DepthwiseConv2D"}}, "class_name": "TimeDistributed", "inbound_nodes": [[["time_distributed_30", 0, 0, {}]]]}, {"name": "time_distributed_32", "config": {"name": "time_distributed_32", "trainable": true, "layer": {"config": {"name": "batch_normalization_12", "gamma_regularizer": null, "moving_mean_initializer": {"config": {}, "class_name": "Zeros"}, "momentum": 0.99, "beta_initializer": {"config": {}, "class_name": "Zeros"}, "beta_constraint": null, "gamma_constraint": null, "beta_regularizer": null, "moving_variance_initializer": {"config": {}, "class_name": "Ones"}, "center": true, "axis": -1, "scale": true, "gamma_initializer": {"config": {}, "class_name": "Ones"}, "trainable": true, "epsilon": 0.001}, "class_name": "BatchNormalization"}}, "class_name": "TimeDistributed", "inbound_nodes": [[["time_distributed_31", 0, 0, {}]]]}, {"name": "time_distributed_33", "config": {"name": "time_distributed_33", "trainable": true, "layer": {"config": {"name": "activation_9", "trainable": true, "activation": "relu6"}, "class_name": "Activation"}}, "class_name": "TimeDistributed", "inbound_nodes": [[["time_distributed_32", 0, 0, {}]]]}, {"name": "time_distributed_34", "config": {"name": "time_distributed_34", "trainable": true, "layer": {"config": {"name": "conv2d_9", "trainable": true, "bias_regularizer": null, "filters": 32, "activity_regularizer": null, "kernel_size": [1, 1], "padding": "same", "kernel_regularizer": null, "data_format": "channels_last", "kernel_initializer": {"config": {"mode": "fan_avg", "seed": null, "scale": 1.0, "distribution": "uniform"}, "class_name": "VarianceScaling"}, "strides": [1, 1], "bias_initializer": {"config": {}, "class_name": "Zeros"}, "bias_constraint": null, "use_bias": true, "dilation_rate": [1, 1], "kernel_constraint": null, "activation": "linear"}, "class_name": "Conv2D"}}, "class_name": "TimeDistributed", "inbound_nodes": [[["time_distributed_33", 0, 0, {}]]]}, {"name": "time_distributed_35", "config": {"name": "time_distributed_35", "trainable": true, "layer": {"config": {"name": "batch_normalization_13", "gamma_regularizer": null, "moving_mean_initializer": {"config": {}, "class_name": "Zeros"}, "momentum": 0.99, "beta_initializer": {"config": {}, "class_name": "Zeros"}, "beta_constraint": null, "gamma_constraint": null, "beta_regularizer": null, "moving_variance_initializer": {"config": {}, "class_name": "Ones"}, "center": true, "axis": -1, "scale": true, "gamma_initializer": {"config": {}, "class_name": "Ones"}, "trainable": true, "epsilon": 0.001}, "class_name": "BatchNormalization"}}, "class_name": "TimeDistributed", "inbound_nodes": [[["time_distributed_34", 0, 0, {}]]]}, {"name": "time_distributed_36", "config": {"name": "time_distributed_36", "trainable": true, "layer": {"config": {"name": "conv2d_10", "trainable": true, "bias_regularizer": null, "filters": 192, "activity_regularizer": null, "kernel_size": [1, 1], "padding": "same", "kernel_regularizer": null, "data_format": "channels_last", "kernel_initializer": {"config": {"mode": "fan_avg", "seed": null, "scale": 1.0, "distribution": "uniform"}, "class_name": "VarianceScaling"}, "strides": [1, 1], "bias_initializer": {"config": {}, "class_name": "Zeros"}, "bias_constraint": null, "use_bias": true, "dilation_rate": [1, 1], "kernel_constraint": null, "activation": "linear"}, "class_name": "Conv2D"}}, "class_name": "TimeDistributed", "inbound_nodes": [[["time_distributed_35", 0, 0, {}]]]}, {"name": "time_distributed_37", "config": {"name": "time_distributed_37", "trainable": true, "layer": {"config": {"name": "batch_normalization_14", "gamma_regularizer": null, "moving_mean_initializer": {"config": {}, "class_name": "Zeros"}, "momentum": 0.99, "beta_initializer": {"config": {}, "class_name": "Zeros"}, "beta_constraint": null, "gamma_constraint": null, "beta_regularizer": null, "moving_variance_initializer": {"config": {}, "class_name": "Ones"}, "center": true, "axis": -1, "scale": true, "gamma_initializer": {"config": {}, "class_name": "Ones"}, "trainable": true, "epsilon": 0.001}, "class_name": "BatchNormalization"}}, "class_name": "TimeDistributed", "inbound_nodes": [[["time_distributed_36", 0, 0, {}]]]}, {"name": "time_distributed_38", "config": {"name": "time_distributed_38", "trainable": true, "layer": {"config": {"name": "activation_10", "trainable": true, "activation": "relu6"}, "class_name": "Activation"}}, "class_name": "TimeDistributed", "inbound_nodes": [[["time_distributed_37", 0, 0, {}]]]}, {"name": "time_distributed_39", "config": {"name": "time_distributed_39", "trainable": true, "layer": {"config": {"name": "depthwise_conv2d_5", "data_format": "channels_last", "trainable": true, "bias_regularizer": null, "activity_regularizer": null, "activation": "linear", "kernel_size": [3, 3], "padding": "same", "dilation_rate": [1, 1], "depth_multiplier": 1, "depthwise_regularizer": null, "strides": [1, 1], "bias_initializer": {"config": {}, "class_name": "Zeros"}, "bias_constraint": null, "use_bias": true, "depthwise_initializer": {"config": {"mode": "fan_avg", "seed": null, "scale": 1.0, "distribution": "uniform"}, "class_name": "VarianceScaling"}, "depthwise_constraint": null}, "class_name": "DepthwiseConv2D"}}, "class_name": "TimeDistributed", "inbound_nodes": [[["time_distributed_38", 0, 0, {}]]]}, {"name": "time_distributed_40", "config": {"name": "time_distributed_40", "trainable": true, "layer": {"config": {"name": "batch_normalization_15", "gamma_regularizer": null, "moving_mean_initializer": {"config": {}, "class_name": "Zeros"}, "momentum": 0.99, "beta_initializer": {"config": {}, "class_name": "Zeros"}, "beta_constraint": null, "gamma_constraint": null, "beta_regularizer": null, "moving_variance_initializer": {"config": {}, "class_name": "Ones"}, "center": true, "axis": -1, "scale": true, "gamma_initializer": {"config": {}, "class_name": "Ones"}, "trainable": true, "epsilon": 0.001}, "class_name": "BatchNormalization"}}, "class_name": "TimeDistributed", "inbound_nodes": [[["time_distributed_39", 0, 0, {}]]]}, {"name": "time_distributed_41", "config": {"name": "time_distributed_41", "trainable": true, "layer": {"config": {"name": "activation_11", "trainable": true, "activation": "relu6"}, "class_name": "Activation"}}, "class_name": "TimeDistributed", "inbound_nodes": [[["time_distributed_40", 0, 0, {}]]]}, {"name": "time_distributed_42", "config": {"name": "time_distributed_42", "trainable": true, "layer": {"config": {"name": "conv2d_11", "trainable": true, "bias_regularizer": null, "filters": 32, "activity_regularizer": null, "kernel_size": [1, 1], "padding": "same", "kernel_regularizer": null, "data_format": "channels_last", "kernel_initializer": {"config": {"mode": "fan_avg", "seed": null, "scale": 1.0, "distribution": "uniform"}, "class_name": "VarianceScaling"}, "strides": [1, 1], "bias_initializer": {"config": {}, "class_name": "Zeros"}, "bias_constraint": null, "use_bias": true, "dilation_rate": [1, 1], "kernel_constraint": null, "activation": "linear"}, "class_name": "Conv2D"}}, "class_name": "TimeDistributed", "inbound_nodes": [[["time_distributed_41", 0, 0, {}]]]}, {"name": "time_distributed_43", "config": {"name": "time_distributed_43", "trainable": true, "layer": {"config": {"name": "batch_normalization_16", "gamma_regularizer": null, "moving_mean_initializer": {"config": {}, "class_name": "Zeros"}, "momentum": 0.99, "beta_initializer": {"config": {}, "class_name": "Zeros"}, "beta_constraint": null, "gamma_constraint": null, "beta_regularizer": null, "moving_variance_initializer": {"config": {}, "class_name": "Ones"}, "center": true, "axis": -1, "scale": true, "gamma_initializer": {"config": {}, "class_name": "Ones"}, "trainable": true, "epsilon": 0.001}, "class_name": "BatchNormalization"}}, "class_name": "TimeDistributed", "inbound_nodes": [[["time_distributed_42", 0, 0, {}]]]}, {"name": "add_2", "config": {"name": "add_2", "trainable": true}, "class_name": "Add", "inbound_nodes": [[["time_distributed_43", 0, 0, {}], ["time_distributed_35", 0, 0, {}]]]}, {"name": "time_distributed_44", "config": {"name": "time_distributed_44", "trainable": true, "layer": {"config": {"name": "conv2d_12", "trainable": true, "bias_regularizer": null, "filters": 192, "activity_regularizer": null, "kernel_size": [1, 1], "padding": "same", "kernel_regularizer": null, "data_format": "channels_last", "kernel_initializer": {"config": {"mode": "fan_avg", "seed": null, "scale": 1.0, "distribution": "uniform"}, "class_name": "VarianceScaling"}, "strides": [1, 1], "bias_initializer": {"config": {}, "class_name": "Zeros"}, "bias_constraint": null, "use_bias": true, "dilation_rate": [1, 1], "kernel_constraint": null, "activation": "linear"}, "class_name": "Conv2D"}}, "class_name": "TimeDistributed", "inbound_nodes": [[["add_2", 0, 0, {}]]]}, {"name": "time_distributed_45", "config": {"name": "time_distributed_45", "trainable": true, "layer": {"config": {"name": "batch_normalization_17", "gamma_regularizer": null, "moving_mean_initializer": {"config": {}, "class_name": "Zeros"}, "momentum": 0.99, "beta_initializer": {"config": {}, "class_name": "Zeros"}, "beta_constraint": null, "gamma_constraint": null, "beta_regularizer": null, "moving_variance_initializer": {"config": {}, "class_name": "Ones"}, "center": true, "axis": -1, "scale": true, "gamma_initializer": {"config": {}, "class_name": "Ones"}, "trainable": true, "epsilon": 0.001}, "class_name": "BatchNormalization"}}, "class_name": "TimeDistributed", "inbound_nodes": [[["time_distributed_44", 0, 0, {}]]]}, {"name": "time_distributed_46", "config": {"name": "time_distributed_46", "trainable": true, "layer": {"config": {"name": "activation_12", "trainable": true, "activation": "relu6"}, "class_name": "Activation"}}, "class_name": "TimeDistributed", "inbound_nodes": [[["time_distributed_45", 0, 0, {}]]]}, {"name": "time_distributed_47", "config": {"name": "time_distributed_47", "trainable": true, "layer": {"config": {"name": "depthwise_conv2d_6", "data_format": "channels_last", "trainable": true, "bias_regularizer": null, "activity_regularizer": null, "activation": "linear", "kernel_size": [3, 3], "padding": "same", "dilation_rate": [1, 1], "depth_multiplier": 1, "depthwise_regularizer": null, "strides": [1, 1], "bias_initializer": {"config": {}, "class_name": "Zeros"}, "bias_constraint": null, "use_bias": true, "depthwise_initializer": {"config": {"mode": "fan_avg", "seed": null, "scale": 1.0, "distribution": "uniform"}, "class_name": "VarianceScaling"}, "depthwise_constraint": null}, "class_name": "DepthwiseConv2D"}}, "class_name": "TimeDistributed", "inbound_nodes": [[["time_distributed_46", 0, 0, {}]]]}, {"name": "time_distributed_48", "config": {"name": "time_distributed_48", "trainable": true, "layer": {"config": {"name": "batch_normalization_18", "gamma_regularizer": null, "moving_mean_initializer": {"config": {}, "class_name": "Zeros"}, "momentum": 0.99, "beta_initializer": {"config": {}, "class_name": "Zeros"}, "beta_constraint": null, "gamma_constraint": null, "beta_regularizer": null, "moving_variance_initializer": {"config": {}, "class_name": "Ones"}, "center": true, "axis": -1, "scale": true, "gamma_initializer": {"config": {}, "class_name": "Ones"}, "trainable": true, "epsilon": 0.001}, "class_name": "BatchNormalization"}}, "class_name": "TimeDistributed", "inbound_nodes": [[["time_distributed_47", 0, 0, {}]]]}, {"name": "time_distributed_49", "config": {"name": "time_distributed_49", "trainable": true, "layer": {"config": {"name": "activation_13", "trainable": true, "activation": "relu6"}, "class_name": "Activation"}}, "class_name": "TimeDistributed", "inbound_nodes": [[["time_distributed_48", 0, 0, {}]]]}, {"name": "time_distributed_50", "config": {"name": "time_distributed_50", "trainable": true, "layer": {"config": {"name": "conv2d_13", "trainable": true, "bias_regularizer": null, "filters": 32, "activity_regularizer": null, "kernel_size": [1, 1], "padding": "same", "kernel_regularizer": null, "data_format": "channels_last", "kernel_initializer": {"config": {"mode": "fan_avg", "seed": null, "scale": 1.0, "distribution": "uniform"}, "class_name": "VarianceScaling"}, "strides": [1, 1], "bias_initializer": {"config": {}, "class_name": "Zeros"}, "bias_constraint": null, "use_bias": true, "dilation_rate": [1, 1], "kernel_constraint": null, "activation": "linear"}, "class_name": "Conv2D"}}, "class_name": "TimeDistributed", "inbound_nodes": [[["time_distributed_49", 0, 0, {}]]]}, {"name": "time_distributed_51", "config": {"name": "time_distributed_51", "trainable": true, "layer": {"config": {"name": "batch_normalization_19", "gamma_regularizer": null, "moving_mean_initializer": {"config": {}, "class_name": "Zeros"}, "momentum": 0.99, "beta_initializer": {"config": {}, "class_name": "Zeros"}, "beta_constraint": null, "gamma_constraint": null, "beta_regularizer": null, "moving_variance_initializer": {"config": {}, "class_name": "Ones"}, "center": true, "axis": -1, "scale": true, "gamma_initializer": {"config": {}, "class_name": "Ones"}, "trainable": true, "epsilon": 0.001}, "class_name": "BatchNormalization"}}, "class_name": "TimeDistributed", "inbound_nodes": [[["time_distributed_50", 0, 0, {}]]]}, {"name": "add_3", "config": {"name": "add_3", "trainable": true}, "class_name": "Add", "inbound_nodes": [[["time_distributed_51", 0, 0, {}], ["add_2", 0, 0, {}]]]}, {"name": "time_distributed_52", "config": {"name": "time_distributed_52", "trainable": true, "layer": {"config": {"name": "conv2d_14", "trainable": true, "bias_regularizer": null, "filters": 192, "activity_regularizer": null, "kernel_size": [1, 1], "padding": "same", "kernel_regularizer": null, "data_format": "channels_last", "kernel_initializer": {"config": {"mode": "fan_avg", "seed": null, "scale": 1.0, "distribution": "uniform"}, "class_name": "VarianceScaling"}, "strides": [1, 1], "bias_initializer": {"config": {}, "class_name": "Zeros"}, "bias_constraint": null, "use_bias": true, "dilation_rate": [1, 1], "kernel_constraint": null, "activation": "linear"}, "class_name": "Conv2D"}}, "class_name": "TimeDistributed", "inbound_nodes": [[["add_3", 0, 0, {}]]]}, {"name": "time_distributed_53", "config": {"name": "time_distributed_53", "trainable": true, "layer": {"config": {"name": "batch_normalization_20", "gamma_regularizer": null, "moving_mean_initializer": {"config": {}, "class_name": "Zeros"}, "momentum": 0.99, "beta_initializer": {"config": {}, "class_name": "Zeros"}, "beta_constraint": null, "gamma_constraint": null, "beta_regularizer": null, "moving_variance_initializer": {"config": {}, "class_name": "Ones"}, "center": true, "axis": -1, "scale": true, "gamma_initializer": {"config": {}, "class_name": "Ones"}, "trainable": true, "epsilon": 0.001}, "class_name": "BatchNormalization"}}, "class_name": "TimeDistributed", "inbound_nodes": [[["time_distributed_52", 0, 0, {}]]]}, {"name": "time_distributed_54", "config": {"name": "time_distributed_54", "trainable": true, "layer": {"config": {"name": "activation_14", "trainable": true, "activation": "relu6"}, "class_name": "Activation"}}, "class_name": "TimeDistributed", "inbound_nodes": [[["time_distributed_53", 0, 0, {}]]]}, {"name": "time_distributed_55", "config": {"name": "time_distributed_55", "trainable": true, "layer": {"config": {"name": "depthwise_conv2d_7", "data_format": "channels_last", "trainable": true, "bias_regularizer": null, "activity_regularizer": null, "activation": "linear", "kernel_size": [3, 3], "padding": "same", "dilation_rate": [1, 1], "depth_multiplier": 1, "depthwise_regularizer": null, "strides": [2, 2], "bias_initializer": {"config": {}, "class_name": "Zeros"}, "bias_constraint": null, "use_bias": true, "depthwise_initializer": {"config": {"mode": "fan_avg", "seed": null, "scale": 1.0, "distribution": "uniform"}, "class_name": "VarianceScaling"}, "depthwise_constraint": null}, "class_name": "DepthwiseConv2D"}}, "class_name": "TimeDistributed", "inbound_nodes": [[["time_distributed_54", 0, 0, {}]]]}, {"name": "time_distributed_56", "config": {"name": "time_distributed_56", "trainable": true, "layer": {"config": {"name": "batch_normalization_21", "gamma_regularizer": null, "moving_mean_initializer": {"config": {}, "class_name": "Zeros"}, "momentum": 0.99, "beta_initializer": {"config": {}, "class_name": "Zeros"}, "beta_constraint": null, "gamma_constraint": null, "beta_regularizer": null, "moving_variance_initializer": {"config": {}, "class_name": "Ones"}, "center": true, "axis": -1, "scale": true, "gamma_initializer": {"config": {}, "class_name": "Ones"}, "trainable": true, "epsilon": 0.001}, "class_name": "BatchNormalization"}}, "class_name": "TimeDistributed", "inbound_nodes": [[["time_distributed_55", 0, 0, {}]]]}, {"name": "time_distributed_57", "config": {"name": "time_distributed_57", "trainable": true, "layer": {"config": {"name": "activation_15", "trainable": true, "activation": "relu6"}, "class_name": "Activation"}}, "class_name": "TimeDistributed", "inbound_nodes": [[["time_distributed_56", 0, 0, {}]]]}, {"name": "time_distributed_58", "config": {"name": "time_distributed_58", "trainable": true, "layer": {"config": {"name": "conv2d_15", "trainable": true, "bias_regularizer": null, "filters": 64, "activity_regularizer": null, "kernel_size": [1, 1], "padding": "same", "kernel_regularizer": null, "data_format": "channels_last", "kernel_initializer": {"config": {"mode": "fan_avg", "seed": null, "scale": 1.0, "distribution": "uniform"}, "class_name": "VarianceScaling"}, "strides": [1, 1], "bias_initializer": {"config": {}, "class_name": "Zeros"}, "bias_constraint": null, "use_bias": true, "dilation_rate": [1, 1], "kernel_constraint": null, "activation": "linear"}, "class_name": "Conv2D"}}, "class_name": "TimeDistributed", "inbound_nodes": [[["time_distributed_57", 0, 0, {}]]]}, {"name": "time_distributed_59", "config": {"name": "time_distributed_59", "trainable": true, "layer": {"config": {"name": "batch_normalization_22", "gamma_regularizer": null, "moving_mean_initializer": {"config": {}, "class_name": "Zeros"}, "momentum": 0.99, "beta_initializer": {"config": {}, "class_name": "Zeros"}, "beta_constraint": null, "gamma_constraint": null, "beta_regularizer": null, "moving_variance_initializer": {"config": {}, "class_name": "Ones"}, "center": true, "axis": -1, "scale": true, "gamma_initializer": {"config": {}, "class_name": "Ones"}, "trainable": true, "epsilon": 0.001}, "class_name": "BatchNormalization"}}, "class_name": "TimeDistributed", "inbound_nodes": [[["time_distributed_58", 0, 0, {}]]]}, {"name": "time_distributed_60", "config": {"name": "time_distributed_60", "trainable": true, "layer": {"config": {"name": "conv2d_16", "trainable": true, "bias_regularizer": null, "filters": 384, "activity_regularizer": null, "kernel_size": [1, 1], "padding": "same", "kernel_regularizer": null, "data_format": "channels_last", "kernel_initializer": {"config": {"mode": "fan_avg", "seed": null, "scale": 1.0, "distribution": "uniform"}, "class_name": "VarianceScaling"}, "strides": [1, 1], "bias_initializer": {"config": {}, "class_name": "Zeros"}, "bias_constraint": null, "use_bias": true, "dilation_rate": [1, 1], "kernel_constraint": null, "activation": "linear"}, "class_name": "Conv2D"}}, "class_name": "TimeDistributed", "inbound_nodes": [[["time_distributed_59", 0, 0, {}]]]}, {"name": "time_distributed_61", "config": {"name": "time_distributed_61", "trainable": true, "layer": {"config": {"name": "batch_normalization_23", "gamma_regularizer": null, "moving_mean_initializer": {"config": {}, "class_name": "Zeros"}, "momentum": 0.99, "beta_initializer": {"config": {}, "class_name": "Zeros"}, "beta_constraint": null, "gamma_constraint": null, "beta_regularizer": null, "moving_variance_initializer": {"config": {}, "class_name": "Ones"}, "center": true, "axis": -1, "scale": true, "gamma_initializer": {"config": {}, "class_name": "Ones"}, "trainable": true, "epsilon": 0.001}, "class_name": "BatchNormalization"}}, "class_name": "TimeDistributed", "inbound_nodes": [[["time_distributed_60", 0, 0, {}]]]}, {"name": "time_distributed_62", "config": {"name": "time_distributed_62", "trainable": true, "layer": {"config": {"name": "activation_16", "trainable": true, "activation": "relu6"}, "class_name": "Activation"}}, "class_name": "TimeDistributed", "inbound_nodes": [[["time_distributed_61", 0, 0, {}]]]}, {"name": "time_distributed_63", "config": {"name": "time_distributed_63", "trainable": true, "layer": {"config": {"name": "depthwise_conv2d_8", "data_format": "channels_last", "trainable": true, "bias_regularizer": null, "activity_regularizer": null, "activation": "linear", "kernel_size": [3, 3], "padding": "same", "dilation_rate": [1, 1], "depth_multiplier": 1, "depthwise_regularizer": null, "strides": [1, 1], "bias_initializer": {"config": {}, "class_name": "Zeros"}, "bias_constraint": null, "use_bias": true, "depthwise_initializer": {"config": {"mode": "fan_avg", "seed": null, "scale": 1.0, "distribution": "uniform"}, "class_name": "VarianceScaling"}, "depthwise_constraint": null}, "class_name": "DepthwiseConv2D"}}, "class_name": "TimeDistributed", "inbound_nodes": [[["time_distributed_62", 0, 0, {}]]]}, {"name": "time_distributed_64", "config": {"name": "time_distributed_64", "trainable": true, "layer": {"config": {"name": "batch_normalization_24", "gamma_regularizer": null, "moving_mean_initializer": {"config": {}, "class_name": "Zeros"}, "momentum": 0.99, "beta_initializer": {"config": {}, "class_name": "Zeros"}, "beta_constraint": null, "gamma_constraint": null, "beta_regularizer": null, "moving_variance_initializer": {"config": {}, "class_name": "Ones"}, "center": true, "axis": -1, "scale": true, "gamma_initializer": {"config": {}, "class_name": "Ones"}, "trainable": true, "epsilon": 0.001}, "class_name": "BatchNormalization"}}, "class_name": "TimeDistributed", "inbound_nodes": [[["time_distributed_63", 0, 0, {}]]]}, {"name": "time_distributed_65", "config": {"name": "time_distributed_65", "trainable": true, "layer": {"config": {"name": "activation_17", "trainable": true, "activation": "relu6"}, "class_name": "Activation"}}, "class_name": "TimeDistributed", "inbound_nodes": [[["time_distributed_64", 0, 0, {}]]]}, {"name": "time_distributed_66", "config": {"name": "time_distributed_66", "trainable": true, "layer": {"config": {"name": "conv2d_17", "trainable": true, "bias_regularizer": null, "filters": 64, "activity_regularizer": null, "kernel_size": [1, 1], "padding": "same", "kernel_regularizer": null, "data_format": "channels_last", "kernel_initializer": {"config": {"mode": "fan_avg", "seed": null, "scale": 1.0, "distribution": "uniform"}, "class_name": "VarianceScaling"}, "strides": [1, 1], "bias_initializer": {"config": {}, "class_name": "Zeros"}, "bias_constraint": null, "use_bias": true, "dilation_rate": [1, 1], "kernel_constraint": null, "activation": "linear"}, "class_name": "Conv2D"}}, "class_name": "TimeDistributed", "inbound_nodes": [[["time_distributed_65", 0, 0, {}]]]}, {"name": "time_distributed_67", "config": {"name": "time_distributed_67", "trainable": true, "layer": {"config": {"name": "batch_normalization_25", "gamma_regularizer": null, "moving_mean_initializer": {"config": {}, "class_name": "Zeros"}, "momentum": 0.99, "beta_initializer": {"config": {}, "class_name": "Zeros"}, "beta_constraint": null, "gamma_constraint": null, "beta_regularizer": null, "moving_variance_initializer": {"config": {}, "class_name": "Ones"}, "center": true, "axis": -1, "scale": true, "gamma_initializer": {"config": {}, "class_name": "Ones"}, "trainable": true, "epsilon": 0.001}, "class_name": "BatchNormalization"}}, "class_name": "TimeDistributed", "inbound_nodes": [[["time_distributed_66", 0, 0, {}]]]}, {"name": "add_4", "config": {"name": "add_4", "trainable": true}, "class_name": "Add", "inbound_nodes": [[["time_distributed_67", 0, 0, {}], ["time_distributed_59", 0, 0, {}]]]}, {"name": "time_distributed_68", "config": {"name": "time_distributed_68", "trainable": true, "layer": {"config": {"name": "conv2d_18", "trainable": true, "bias_regularizer": null, "filters": 384, "activity_regularizer": null, "kernel_size": [1, 1], "padding": "same", "kernel_regularizer": null, "data_format": "channels_last", "kernel_initializer": {"config": {"mode": "fan_avg", "seed": null, "scale": 1.0, "distribution": "uniform"}, "class_name": "VarianceScaling"}, "strides": [1, 1], "bias_initializer": {"config": {}, "class_name": "Zeros"}, "bias_constraint": null, "use_bias": true, "dilation_rate": [1, 1], "kernel_constraint": null, "activation": "linear"}, "class_name": "Conv2D"}}, "class_name": "TimeDistributed", "inbound_nodes": [[["add_4", 0, 0, {}]]]}, {"name": "time_distributed_69", "config": {"name": "time_distributed_69", "trainable": true, "layer": {"config": {"name": "batch_normalization_26", "gamma_regularizer": null, "moving_mean_initializer": {"config": {}, "class_name": "Zeros"}, "momentum": 0.99, "beta_initializer": {"config": {}, "class_name": "Zeros"}, "beta_constraint": null, "gamma_constraint": null, "beta_regularizer": null, "moving_variance_initializer": {"config": {}, "class_name": "Ones"}, "center": true, "axis": -1, "scale": true, "gamma_initializer": {"config": {}, "class_name": "Ones"}, "trainable": true, "epsilon": 0.001}, "class_name": "BatchNormalization"}}, "class_name": "TimeDistributed", "inbound_nodes": [[["time_distributed_68", 0, 0, {}]]]}, {"name": "time_distributed_70", "config": {"name": "time_distributed_70", "trainable": true, "layer": {"config": {"name": "activation_18", "trainable": true, "activation": "relu6"}, "class_name": "Activation"}}, "class_name": "TimeDistributed", "inbound_nodes": [[["time_distributed_69", 0, 0, {}]]]}, {"name": "time_distributed_71", "config": {"name": "time_distributed_71", "trainable": true, "layer": {"config": {"name": "depthwise_conv2d_9", "data_format": "channels_last", "trainable": true, "bias_regularizer": null, "activity_regularizer": null, "activation": "linear", "kernel_size": [3, 3], "padding": "same", "dilation_rate": [1, 1], "depth_multiplier": 1, "depthwise_regularizer": null, "strides": [1, 1], "bias_initializer": {"config": {}, "class_name": "Zeros"}, "bias_constraint": null, "use_bias": true, "depthwise_initializer": {"config": {"mode": "fan_avg", "seed": null, "scale": 1.0, "distribution": "uniform"}, "class_name": "VarianceScaling"}, "depthwise_constraint": null}, "class_name": "DepthwiseConv2D"}}, "class_name": "TimeDistributed", "inbound_nodes": [[["time_distributed_70", 0, 0, {}]]]}, {"name": "time_distributed_72", "config": {"name": "time_distributed_72", "trainable": true, "layer": {"config": {"name": "batch_normalization_27", "gamma_regularizer": null, "moving_mean_initializer": {"config": {}, "class_name": "Zeros"}, "momentum": 0.99, "beta_initializer": {"config": {}, "class_name": "Zeros"}, "beta_constraint": null, "gamma_constraint": null, "beta_regularizer": null, "moving_variance_initializer": {"config": {}, "class_name": "Ones"}, "center": true, "axis": -1, "scale": true, "gamma_initializer": {"config": {}, "class_name": "Ones"}, "trainable": true, "epsilon": 0.001}, "class_name": "BatchNormalization"}}, "class_name": "TimeDistributed", "inbound_nodes": [[["time_distributed_71", 0, 0, {}]]]}, {"name": "time_distributed_73", "config": {"name": "time_distributed_73", "trainable": true, "layer": {"config": {"name": "activation_19", "trainable": true, "activation": "relu6"}, "class_name": "Activation"}}, "class_name": "TimeDistributed", "inbound_nodes": [[["time_distributed_72", 0, 0, {}]]]}, {"name": "time_distributed_74", "config": {"name": "time_distributed_74", "trainable": true, "layer": {"config": {"name": "conv2d_19", "trainable": true, "bias_regularizer": null, "filters": 64, "activity_regularizer": null, "kernel_size": [1, 1], "padding": "same", "kernel_regularizer": null, "data_format": "channels_last", "kernel_initializer": {"config": {"mode": "fan_avg", "seed": null, "scale": 1.0, "distribution": "uniform"}, "class_name": "VarianceScaling"}, "strides": [1, 1], "bias_initializer": {"config": {}, "class_name": "Zeros"}, "bias_constraint": null, "use_bias": true, "dilation_rate": [1, 1], "kernel_constraint": null, "activation": "linear"}, "class_name": "Conv2D"}}, "class_name": "TimeDistributed", "inbound_nodes": [[["time_distributed_73", 0, 0, {}]]]}, {"name": "time_distributed_75", "config": {"name": "time_distributed_75", "trainable": true, "layer": {"config": {"name": "batch_normalization_28", "gamma_regularizer": null, "moving_mean_initializer": {"config": {}, "class_name": "Zeros"}, "momentum": 0.99, "beta_initializer": {"config": {}, "class_name": "Zeros"}, "beta_constraint": null, "gamma_constraint": null, "beta_regularizer": null, "moving_variance_initializer": {"config": {}, "class_name": "Ones"}, "center": true, "axis": -1, "scale": true, "gamma_initializer": {"config": {}, "class_name": "Ones"}, "trainable": true, "epsilon": 0.001}, "class_name": "BatchNormalization"}}, "class_name": "TimeDistributed", "inbound_nodes": [[["time_distributed_74", 0, 0, {}]]]}, {"name": "add_5", "config": {"name": "add_5", "trainable": true}, "class_name": "Add", "inbound_nodes": [[["time_distributed_75", 0, 0, {}], ["add_4", 0, 0, {}]]]}, {"name": "time_distributed_76", "config": {"name": "time_distributed_76", "trainable": true, "layer": {"config": {"name": "conv2d_20", "trainable": true, "bias_regularizer": null, "filters": 384, "activity_regularizer": null, "kernel_size": [1, 1], "padding": "same", "kernel_regularizer": null, "data_format": "channels_last", "kernel_initializer": {"config": {"mode": "fan_avg", "seed": null, "scale": 1.0, "distribution": "uniform"}, "class_name": "VarianceScaling"}, "strides": [1, 1], "bias_initializer": {"config": {}, "class_name": "Zeros"}, "bias_constraint": null, "use_bias": true, "dilation_rate": [1, 1], "kernel_constraint": null, "activation": "linear"}, "class_name": "Conv2D"}}, "class_name": "TimeDistributed", "inbound_nodes": [[["add_5", 0, 0, {}]]]}, {"name": "time_distributed_77", "config": {"name": "time_distributed_77", "trainable": true, "layer": {"config": {"name": "batch_normalization_29", "gamma_regularizer": null, "moving_mean_initializer": {"config": {}, "class_name": "Zeros"}, "momentum": 0.99, "beta_initializer": {"config": {}, "class_name": "Zeros"}, "beta_constraint": null, "gamma_constraint": null, "beta_regularizer": null, "moving_variance_initializer": {"config": {}, "class_name": "Ones"}, "center": true, "axis": -1, "scale": true, "gamma_initializer": {"config": {}, "class_name": "Ones"}, "trainable": true, "epsilon": 0.001}, "class_name": "BatchNormalization"}}, "class_name": "TimeDistributed", "inbound_nodes": [[["time_distributed_76", 0, 0, {}]]]}, {"name": "time_distributed_78", "config": {"name": "time_distributed_78", "trainable": true, "layer": {"config": {"name": "activation_20", "trainable": true, "activation": "relu6"}, "class_name": "Activation"}}, "class_name": "TimeDistributed", "inbound_nodes": [[["time_distributed_77", 0, 0, {}]]]}, {"name": "time_distributed_79", "config": {"name": "time_distributed_79", "trainable": true, "layer": {"config": {"name": "depthwise_conv2d_10", "data_format": "channels_last", "trainable": true, "bias_regularizer": null, "activity_regularizer": null, "activation": "linear", "kernel_size": [3, 3], "padding": "same", "dilation_rate": [1, 1], "depth_multiplier": 1, "depthwise_regularizer": null, "strides": [1, 1], "bias_initializer": {"config": {}, "class_name": "Zeros"}, "bias_constraint": null, "use_bias": true, "depthwise_initializer": {"config": {"mode": "fan_avg", "seed": null, "scale": 1.0, "distribution": "uniform"}, "class_name": "VarianceScaling"}, "depthwise_constraint": null}, "class_name": "DepthwiseConv2D"}}, "class_name": "TimeDistributed", "inbound_nodes": [[["time_distributed_78", 0, 0, {}]]]}, {"name": "time_distributed_80", "config": {"name": "time_distributed_80", "trainable": true, "layer": {"config": {"name": "batch_normalization_30", "gamma_regularizer": null, "moving_mean_initializer": {"config": {}, "class_name": "Zeros"}, "momentum": 0.99, "beta_initializer": {"config": {}, "class_name": "Zeros"}, "beta_constraint": null, "gamma_constraint": null, "beta_regularizer": null, "moving_variance_initializer": {"config": {}, "class_name": "Ones"}, "center": true, "axis": -1, "scale": true, "gamma_initializer": {"config": {}, "class_name": "Ones"}, "trainable": true, "epsilon": 0.001}, "class_name": "BatchNormalization"}}, "class_name": "TimeDistributed", "inbound_nodes": [[["time_distributed_79", 0, 0, {}]]]}, {"name": "time_distributed_81", "config": {"name": "time_distributed_81", "trainable": true, "layer": {"config": {"name": "activation_21", "trainable": true, "activation": "relu6"}, "class_name": "Activation"}}, "class_name": "TimeDistributed", "inbound_nodes": [[["time_distributed_80", 0, 0, {}]]]}, {"name": "time_distributed_82", "config": {"name": "time_distributed_82", "trainable": true, "layer": {"config": {"name": "conv2d_21", "trainable": true, "bias_regularizer": null, "filters": 64, "activity_regularizer": null, "kernel_size": [1, 1], "padding": "same", "kernel_regularizer": null, "data_format": "channels_last", "kernel_initializer": {"config": {"mode": "fan_avg", "seed": null, "scale": 1.0, "distribution": "uniform"}, "class_name": "VarianceScaling"}, "strides": [1, 1], "bias_initializer": {"config": {}, "class_name": "Zeros"}, "bias_constraint": null, "use_bias": true, "dilation_rate": [1, 1], "kernel_constraint": null, "activation": "linear"}, "class_name": "Conv2D"}}, "class_name": "TimeDistributed", "inbound_nodes": [[["time_distributed_81", 0, 0, {}]]]}, {"name": "time_distributed_83", "config": {"name": "time_distributed_83", "trainable": true, "layer": {"config": {"name": "batch_normalization_31", "gamma_regularizer": null, "moving_mean_initializer": {"config": {}, "class_name": "Zeros"}, "momentum": 0.99, "beta_initializer": {"config": {}, "class_name": "Zeros"}, "beta_constraint": null, "gamma_constraint": null, "beta_regularizer": null, "moving_variance_initializer": {"config": {}, "class_name": "Ones"}, "center": true, "axis": -1, "scale": true, "gamma_initializer": {"config": {}, "class_name": "Ones"}, "trainable": true, "epsilon": 0.001}, "class_name": "BatchNormalization"}}, "class_name": "TimeDistributed", "inbound_nodes": [[["time_distributed_82", 0, 0, {}]]]}, {"name": "add_6", "config": {"name": "add_6", "trainable": true}, "class_name": "Add", "inbound_nodes": [[["time_distributed_83", 0, 0, {}], ["add_5", 0, 0, {}]]]}, {"name": "time_distributed_84", "config": {"name": "time_distributed_84", "trainable": true, "layer": {"config": {"name": "conv2d_22", "trainable": true, "bias_regularizer": null, "filters": 384, "activity_regularizer": null, "kernel_size": [1, 1], "padding": "same", "kernel_regularizer": null, "data_format": "channels_last", "kernel_initializer": {"config": {"mode": "fan_avg", "seed": null, "scale": 1.0, "distribution": "uniform"}, "class_name": "VarianceScaling"}, "strides": [1, 1], "bias_initializer": {"config": {}, "class_name": "Zeros"}, "bias_constraint": null, "use_bias": true, "dilation_rate": [1, 1], "kernel_constraint": null, "activation": "linear"}, "class_name": "Conv2D"}}, "class_name": "TimeDistributed", "inbound_nodes": [[["add_6", 0, 0, {}]]]}, {"name": "time_distributed_85", "config": {"name": "time_distributed_85", "trainable": true, "layer": {"config": {"name": "batch_normalization_32", "gamma_regularizer": null, "moving_mean_initializer": {"config": {}, "class_name": "Zeros"}, "momentum": 0.99, "beta_initializer": {"config": {}, "class_name": "Zeros"}, "beta_constraint": null, "gamma_constraint": null, "beta_regularizer": null, "moving_variance_initializer": {"config": {}, "class_name": "Ones"}, "center": true, "axis": -1, "scale": true, "gamma_initializer": {"config": {}, "class_name": "Ones"}, "trainable": true, "epsilon": 0.001}, "class_name": "BatchNormalization"}}, "class_name": "TimeDistributed", "inbound_nodes": [[["time_distributed_84", 0, 0, {}]]]}, {"name": "time_distributed_86", "config": {"name": "time_distributed_86", "trainable": true, "layer": {"config": {"name": "activation_22", "trainable": true, "activation": "relu6"}, "class_name": "Activation"}}, "class_name": "TimeDistributed", "inbound_nodes": [[["time_distributed_85", 0, 0, {}]]]}, {"name": "time_distributed_87", "config": {"name": "time_distributed_87", "trainable": true, "layer": {"config": {"name": "depthwise_conv2d_11", "data_format": "channels_last", "trainable": true, "bias_regularizer": null, "activity_regularizer": null, "activation": "linear", "kernel_size": [3, 3], "padding": "same", "dilation_rate": [1, 1], "depth_multiplier": 1, "depthwise_regularizer": null, "strides": [1, 1], "bias_initializer": {"config": {}, "class_name": "Zeros"}, "bias_constraint": null, "use_bias": true, "depthwise_initializer": {"config": {"mode": "fan_avg", "seed": null, "scale": 1.0, "distribution": "uniform"}, "class_name": "VarianceScaling"}, "depthwise_constraint": null}, "class_name": "DepthwiseConv2D"}}, "class_name": "TimeDistributed", "inbound_nodes": [[["time_distributed_86", 0, 0, {}]]]}, {"name": "time_distributed_88", "config": {"name": "time_distributed_88", "trainable": true, "layer": {"config": {"name": "batch_normalization_33", "gamma_regularizer": null, "moving_mean_initializer": {"config": {}, "class_name": "Zeros"}, "momentum": 0.99, "beta_initializer": {"config": {}, "class_name": "Zeros"}, "beta_constraint": null, "gamma_constraint": null, "beta_regularizer": null, "moving_variance_initializer": {"config": {}, "class_name": "Ones"}, "center": true, "axis": -1, "scale": true, "gamma_initializer": {"config": {}, "class_name": "Ones"}, "trainable": true, "epsilon": 0.001}, "class_name": "BatchNormalization"}}, "class_name": "TimeDistributed", "inbound_nodes": [[["time_distributed_87", 0, 0, {}]]]}, {"name": "time_distributed_89", "config": {"name": "time_distributed_89", "trainable": true, "layer": {"config": {"name": "activation_23", "trainable": true, "activation": "relu6"}, "class_name": "Activation"}}, "class_name": "TimeDistributed", "inbound_nodes": [[["time_distributed_88", 0, 0, {}]]]}, {"name": "time_distributed_90", "config": {"name": "time_distributed_90", "trainable": true, "layer": {"config": {"name": "conv2d_23", "trainable": true, "bias_regularizer": null, "filters": 96, "activity_regularizer": null, "kernel_size": [1, 1], "padding": "same", "kernel_regularizer": null, "data_format": "channels_last", "kernel_initializer": {"config": {"mode": "fan_avg", "seed": null, "scale": 1.0, "distribution": "uniform"}, "class_name": "VarianceScaling"}, "strides": [1, 1], "bias_initializer": {"config": {}, "class_name": "Zeros"}, "bias_constraint": null, "use_bias": true, "dilation_rate": [1, 1], "kernel_constraint": null, "activation": "linear"}, "class_name": "Conv2D"}}, "class_name": "TimeDistributed", "inbound_nodes": [[["time_distributed_89", 0, 0, {}]]]}, {"name": "time_distributed_91", "config": {"name": "time_distributed_91", "trainable": true, "layer": {"config": {"name": "batch_normalization_34", "gamma_regularizer": null, "moving_mean_initializer": {"config": {}, "class_name": "Zeros"}, "momentum": 0.99, "beta_initializer": {"config": {}, "class_name": "Zeros"}, "beta_constraint": null, "gamma_constraint": null, "beta_regularizer": null, "moving_variance_initializer": {"config": {}, "class_name": "Ones"}, "center": true, "axis": -1, "scale": true, "gamma_initializer": {"config": {}, "class_name": "Ones"}, "trainable": true, "epsilon": 0.001}, "class_name": "BatchNormalization"}}, "class_name": "TimeDistributed", "inbound_nodes": [[["time_distributed_90", 0, 0, {}]]]}, {"name": "time_distributed_92", "config": {"name": "time_distributed_92", "trainable": true, "layer": {"config": {"name": "conv2d_24", "trainable": true, "bias_regularizer": null, "filters": 576, "activity_regularizer": null, "kernel_size": [1, 1], "padding": "same", "kernel_regularizer": null, "data_format": "channels_last", "kernel_initializer": {"config": {"mode": "fan_avg", "seed": null, "scale": 1.0, "distribution": "uniform"}, "class_name": "VarianceScaling"}, "strides": [1, 1], "bias_initializer": {"config": {}, "class_name": "Zeros"}, "bias_constraint": null, "use_bias": true, "dilation_rate": [1, 1], "kernel_constraint": null, "activation": "linear"}, "class_name": "Conv2D"}}, "class_name": "TimeDistributed", "inbound_nodes": [[["time_distributed_91", 0, 0, {}]]]}, {"name": "time_distributed_93", "config": {"name": "time_distributed_93", "trainable": true, "layer": {"config": {"name": "batch_normalization_35", "gamma_regularizer": null, "moving_mean_initializer": {"config": {}, "class_name": "Zeros"}, "momentum": 0.99, "beta_initializer": {"config": {}, "class_name": "Zeros"}, "beta_constraint": null, "gamma_constraint": null, "beta_regularizer": null, "moving_variance_initializer": {"config": {}, "class_name": "Ones"}, "center": true, "axis": -1, "scale": true, "gamma_initializer": {"config": {}, "class_name": "Ones"}, "trainable": true, "epsilon": 0.001}, "class_name": "BatchNormalization"}}, "class_name": "TimeDistributed", "inbound_nodes": [[["time_distributed_92", 0, 0, {}]]]}, {"name": "time_distributed_94", "config": {"name": "time_distributed_94", "trainable": true, "layer": {"config": {"name": "activation_24", "trainable": true, "activation": "relu6"}, "class_name": "Activation"}}, "class_name": "TimeDistributed", "inbound_nodes": [[["time_distributed_93", 0, 0, {}]]]}, {"name": "time_distributed_95", "config": {"name": "time_distributed_95", "trainable": true, "layer": {"config": {"name": "depthwise_conv2d_12", "data_format": "channels_last", "trainable": true, "bias_regularizer": null, "activity_regularizer": null, "activation": "linear", "kernel_size": [3, 3], "padding": "same", "dilation_rate": [1, 1], "depth_multiplier": 1, "depthwise_regularizer": null, "strides": [1, 1], "bias_initializer": {"config": {}, "class_name": "Zeros"}, "bias_constraint": null, "use_bias": true, "depthwise_initializer": {"config": {"mode": "fan_avg", "seed": null, "scale": 1.0, "distribution": "uniform"}, "class_name": "VarianceScaling"}, "depthwise_constraint": null}, "class_name": "DepthwiseConv2D"}}, "class_name": "TimeDistributed", "inbound_nodes": [[["time_distributed_94", 0, 0, {}]]]}, {"name": "time_distributed_96", "config": {"name": "time_distributed_96", "trainable": true, "layer": {"config": {"name": "batch_normalization_36", "gamma_regularizer": null, "moving_mean_initializer": {"config": {}, "class_name": "Zeros"}, "momentum": 0.99, "beta_initializer": {"config": {}, "class_name": "Zeros"}, "beta_constraint": null, "gamma_constraint": null, "beta_regularizer": null, "moving_variance_initializer": {"config": {}, "class_name": "Ones"}, "center": true, "axis": -1, "scale": true, "gamma_initializer": {"config": {}, "class_name": "Ones"}, "trainable": true, "epsilon": 0.001}, "class_name": "BatchNormalization"}}, "class_name": "TimeDistributed", "inbound_nodes": [[["time_distributed_95", 0, 0, {}]]]}, {"name": "time_distributed_97", "config": {"name": "time_distributed_97", "trainable": true, "layer": {"config": {"name": "activation_25", "trainable": true, "activation": "relu6"}, "class_name": "Activation"}}, "class_name": "TimeDistributed", "inbound_nodes": [[["time_distributed_96", 0, 0, {}]]]}, {"name": "time_distributed_98", "config": {"name": "time_distributed_98", "trainable": true, "layer": {"config": {"name": "conv2d_25", "trainable": true, "bias_regularizer": null, "filters": 96, "activity_regularizer": null, "kernel_size": [1, 1], "padding": "same", "kernel_regularizer": null, "data_format": "channels_last", "kernel_initializer": {"config": {"mode": "fan_avg", "seed": null, "scale": 1.0, "distribution": "uniform"}, "class_name": "VarianceScaling"}, "strides": [1, 1], "bias_initializer": {"config": {}, "class_name": "Zeros"}, "bias_constraint": null, "use_bias": true, "dilation_rate": [1, 1], "kernel_constraint": null, "activation": "linear"}, "class_name": "Conv2D"}}, "class_name": "TimeDistributed", "inbound_nodes": [[["time_distributed_97", 0, 0, {}]]]}, {"name": "time_distributed_99", "config": {"name": "time_distributed_99", "trainable": true, "layer": {"config": {"name": "batch_normalization_37", "gamma_regularizer": null, "moving_mean_initializer": {"config": {}, "class_name": "Zeros"}, "momentum": 0.99, "beta_initializer": {"config": {}, "class_name": "Zeros"}, "beta_constraint": null, "gamma_constraint": null, "beta_regularizer": null, "moving_variance_initializer": {"config": {}, "class_name": "Ones"}, "center": true, "axis": -1, "scale": true, "gamma_initializer": {"config": {}, "class_name": "Ones"}, "trainable": true, "epsilon": 0.001}, "class_name": "BatchNormalization"}}, "class_name": "TimeDistributed", "inbound_nodes": [[["time_distributed_98", 0, 0, {}]]]}, {"name": "add_7", "config": {"name": "add_7", "trainable": true}, "class_name": "Add", "inbound_nodes": [[["time_distributed_99", 0, 0, {}], ["time_distributed_91", 0, 0, {}]]]}, {"name": "time_distributed_100", "config": {"name": "time_distributed_100", "trainable": true, "layer": {"config": {"name": "conv2d_26", "trainable": true, "bias_regularizer": null, "filters": 576, "activity_regularizer": null, "kernel_size": [1, 1], "padding": "same", "kernel_regularizer": null, "data_format": "channels_last", "kernel_initializer": {"config": {"mode": "fan_avg", "seed": null, "scale": 1.0, "distribution": "uniform"}, "class_name": "VarianceScaling"}, "strides": [1, 1], "bias_initializer": {"config": {}, "class_name": "Zeros"}, "bias_constraint": null, "use_bias": true, "dilation_rate": [1, 1], "kernel_constraint": null, "activation": "linear"}, "class_name": "Conv2D"}}, "class_name": "TimeDistributed", "inbound_nodes": [[["add_7", 0, 0, {}]]]}, {"name": "time_distributed_101", "config": {"name": "time_distributed_101", "trainable": true, "layer": {"config": {"name": "batch_normalization_38", "gamma_regularizer": null, "moving_mean_initializer": {"config": {}, "class_name": "Zeros"}, "momentum": 0.99, "beta_initializer": {"config": {}, "class_name": "Zeros"}, "beta_constraint": null, "gamma_constraint": null, "beta_regularizer": null, "moving_variance_initializer": {"config": {}, "class_name": "Ones"}, "center": true, "axis": -1, "scale": true, "gamma_initializer": {"config": {}, "class_name": "Ones"}, "trainable": true, "epsilon": 0.001}, "class_name": "BatchNormalization"}}, "class_name": "TimeDistributed", "inbound_nodes": [[["time_distributed_100", 0, 0, {}]]]}, {"name": "time_distributed_102", "config": {"name": "time_distributed_102", "trainable": true, "layer": {"config": {"name": "activation_26", "trainable": true, "activation": "relu6"}, "class_name": "Activation"}}, "class_name": "TimeDistributed", "inbound_nodes": [[["time_distributed_101", 0, 0, {}]]]}, {"name": "time_distributed_103", "config": {"name": "time_distributed_103", "trainable": true, "layer": {"config": {"name": "depthwise_conv2d_13", "data_format": "channels_last", "trainable": true, "bias_regularizer": null, "activity_regularizer": null, "activation": "linear", "kernel_size": [3, 3], "padding": "same", "dilation_rate": [1, 1], "depth_multiplier": 1, "depthwise_regularizer": null, "strides": [1, 1], "bias_initializer": {"config": {}, "class_name": "Zeros"}, "bias_constraint": null, "use_bias": true, "depthwise_initializer": {"config": {"mode": "fan_avg", "seed": null, "scale": 1.0, "distribution": "uniform"}, "class_name": "VarianceScaling"}, "depthwise_constraint": null}, "class_name": "DepthwiseConv2D"}}, "class_name": "TimeDistributed", "inbound_nodes": [[["time_distributed_102", 0, 0, {}]]]}, {"name": "time_distributed_104", "config": {"name": "time_distributed_104", "trainable": true, "layer": {"config": {"name": "batch_normalization_39", "gamma_regularizer": null, "moving_mean_initializer": {"config": {}, "class_name": "Zeros"}, "momentum": 0.99, "beta_initializer": {"config": {}, "class_name": "Zeros"}, "beta_constraint": null, "gamma_constraint": null, "beta_regularizer": null, "moving_variance_initializer": {"config": {}, "class_name": "Ones"}, "center": true, "axis": -1, "scale": true, "gamma_initializer": {"config": {}, "class_name": "Ones"}, "trainable": true, "epsilon": 0.001}, "class_name": "BatchNormalization"}}, "class_name": "TimeDistributed", "inbound_nodes": [[["time_distributed_103", 0, 0, {}]]]}, {"name": "time_distributed_105", "config": {"name": "time_distributed_105", "trainable": true, "layer": {"config": {"name": "activation_27", "trainable": true, "activation": "relu6"}, "class_name": "Activation"}}, "class_name": "TimeDistributed", "inbound_nodes": [[["time_distributed_104", 0, 0, {}]]]}, {"name": "time_distributed_106", "config": {"name": "time_distributed_106", "trainable": true, "layer": {"config": {"name": "conv2d_27", "trainable": true, "bias_regularizer": null, "filters": 96, "activity_regularizer": null, "kernel_size": [1, 1], "padding": "same", "kernel_regularizer": null, "data_format": "channels_last", "kernel_initializer": {"config": {"mode": "fan_avg", "seed": null, "scale": 1.0, "distribution": "uniform"}, "class_name": "VarianceScaling"}, "strides": [1, 1], "bias_initializer": {"config": {}, "class_name": "Zeros"}, "bias_constraint": null, "use_bias": true, "dilation_rate": [1, 1], "kernel_constraint": null, "activation": "linear"}, "class_name": "Conv2D"}}, "class_name": "TimeDistributed", "inbound_nodes": [[["time_distributed_105", 0, 0, {}]]]}, {"name": "time_distributed_107", "config": {"name": "time_distributed_107", "trainable": true, "layer": {"config": {"name": "batch_normalization_40", "gamma_regularizer": null, "moving_mean_initializer": {"config": {}, "class_name": "Zeros"}, "momentum": 0.99, "beta_initializer": {"config": {}, "class_name": "Zeros"}, "beta_constraint": null, "gamma_constraint": null, "beta_regularizer": null, "moving_variance_initializer": {"config": {}, "class_name": "Ones"}, "center": true, "axis": -1, "scale": true, "gamma_initializer": {"config": {}, "class_name": "Ones"}, "trainable": true, "epsilon": 0.001}, "class_name": "BatchNormalization"}}, "class_name": "TimeDistributed", "inbound_nodes": [[["time_distributed_106", 0, 0, {}]]]}, {"name": "add_8", "config": {"name": "add_8", "trainable": true}, "class_name": "Add", "inbound_nodes": [[["time_distributed_107", 0, 0, {}], ["add_7", 0, 0, {}]]]}, {"name": "time_distributed_108", "config": {"name": "time_distributed_108", "trainable": true, "layer": {"config": {"name": "conv2d_28", "trainable": true, "bias_regularizer": null, "filters": 576, "activity_regularizer": null, "kernel_size": [1, 1], "padding": "same", "kernel_regularizer": null, "data_format": "channels_last", "kernel_initializer": {"config": {"mode": "fan_avg", "seed": null, "scale": 1.0, "distribution": "uniform"}, "class_name": "VarianceScaling"}, "strides": [1, 1], "bias_initializer": {"config": {}, "class_name": "Zeros"}, "bias_constraint": null, "use_bias": true, "dilation_rate": [1, 1], "kernel_constraint": null, "activation": "linear"}, "class_name": "Conv2D"}}, "class_name": "TimeDistributed", "inbound_nodes": [[["add_8", 0, 0, {}]]]}, {"name": "time_distributed_109", "config": {"name": "time_distributed_109", "trainable": true, "layer": {"config": {"name": "batch_normalization_41", "gamma_regularizer": null, "moving_mean_initializer": {"config": {}, "class_name": "Zeros"}, "momentum": 0.99, "beta_initializer": {"config": {}, "class_name": "Zeros"}, "beta_constraint": null, "gamma_constraint": null, "beta_regularizer": null, "moving_variance_initializer": {"config": {}, "class_name": "Ones"}, "center": true, "axis": -1, "scale": true, "gamma_initializer": {"config": {}, "class_name": "Ones"}, "trainable": true, "epsilon": 0.001}, "class_name": "BatchNormalization"}}, "class_name": "TimeDistributed", "inbound_nodes": [[["time_distributed_108", 0, 0, {}]]]}, {"name": "time_distributed_110", "config": {"name": "time_distributed_110", "trainable": true, "layer": {"config": {"name": "activation_28", "trainable": true, "activation": "relu6"}, "class_name": "Activation"}}, "class_name": "TimeDistributed", "inbound_nodes": [[["time_distributed_109", 0, 0, {}]]]}, {"name": "time_distributed_111", "config": {"name": "time_distributed_111", "trainable": true, "layer": {"config": {"name": "depthwise_conv2d_14", "data_format": "channels_last", "trainable": true, "bias_regularizer": null, "activity_regularizer": null, "activation": "linear", "kernel_size": [3, 3], "padding": "same", "dilation_rate": [1, 1], "depth_multiplier": 1, "depthwise_regularizer": null, "strides": [2, 2], "bias_initializer": {"config": {}, "class_name": "Zeros"}, "bias_constraint": null, "use_bias": true, "depthwise_initializer": {"config": {"mode": "fan_avg", "seed": null, "scale": 1.0, "distribution": "uniform"}, "class_name": "VarianceScaling"}, "depthwise_constraint": null}, "class_name": "DepthwiseConv2D"}}, "class_name": "TimeDistributed", "inbound_nodes": [[["time_distributed_110", 0, 0, {}]]]}, {"name": "time_distributed_112", "config": {"name": "time_distributed_112", "trainable": true, "layer": {"config": {"name": "batch_normalization_42", "gamma_regularizer": null, "moving_mean_initializer": {"config": {}, "class_name": "Zeros"}, "momentum": 0.99, "beta_initializer": {"config": {}, "class_name": "Zeros"}, "beta_constraint": null, "gamma_constraint": null, "beta_regularizer": null, "moving_variance_initializer": {"config": {}, "class_name": "Ones"}, "center": true, "axis": -1, "scale": true, "gamma_initializer": {"config": {}, "class_name": "Ones"}, "trainable": true, "epsilon": 0.001}, "class_name": "BatchNormalization"}}, "class_name": "TimeDistributed", "inbound_nodes": [[["time_distributed_111", 0, 0, {}]]]}, {"name": "time_distributed_113", "config": {"name": "time_distributed_113", "trainable": true, "layer": {"config": {"name": "activation_29", "trainable": true, "activation": "relu6"}, "class_name": "Activation"}}, "class_name": "TimeDistributed", "inbound_nodes": [[["time_distributed_112", 0, 0, {}]]]}, {"name": "time_distributed_114", "config": {"name": "time_distributed_114", "trainable": true, "layer": {"config": {"name": "conv2d_29", "trainable": true, "bias_regularizer": null, "filters": 160, "activity_regularizer": null, "kernel_size": [1, 1], "padding": "same", "kernel_regularizer": null, "data_format": "channels_last", "kernel_initializer": {"config": {"mode": "fan_avg", "seed": null, "scale": 1.0, "distribution": "uniform"}, "class_name": "VarianceScaling"}, "strides": [1, 1], "bias_initializer": {"config": {}, "class_name": "Zeros"}, "bias_constraint": null, "use_bias": true, "dilation_rate": [1, 1], "kernel_constraint": null, "activation": "linear"}, "class_name": "Conv2D"}}, "class_name": "TimeDistributed", "inbound_nodes": [[["time_distributed_113", 0, 0, {}]]]}, {"name": "time_distributed_115", "config": {"name": "time_distributed_115", "trainable": true, "layer": {"config": {"name": "batch_normalization_43", "gamma_regularizer": null, "moving_mean_initializer": {"config": {}, "class_name": "Zeros"}, "momentum": 0.99, "beta_initializer": {"config": {}, "class_name": "Zeros"}, "beta_constraint": null, "gamma_constraint": null, "beta_regularizer": null, "moving_variance_initializer": {"config": {}, "class_name": "Ones"}, "center": true, "axis": -1, "scale": true, "gamma_initializer": {"config": {}, "class_name": "Ones"}, "trainable": true, "epsilon": 0.001}, "class_name": "BatchNormalization"}}, "class_name": "TimeDistributed", "inbound_nodes": [[["time_distributed_114", 0, 0, {}]]]}, {"name": "time_distributed_116", "config": {"name": "time_distributed_116", "trainable": true, "layer": {"config": {"name": "conv2d_30", "trainable": true, "bias_regularizer": null, "filters": 960, "activity_regularizer": null, "kernel_size": [1, 1], "padding": "same", "kernel_regularizer": null, "data_format": "channels_last", "kernel_initializer": {"config": {"mode": "fan_avg", "seed": null, "scale": 1.0, "distribution": "uniform"}, "class_name": "VarianceScaling"}, "strides": [1, 1], "bias_initializer": {"config": {}, "class_name": "Zeros"}, "bias_constraint": null, "use_bias": true, "dilation_rate": [1, 1], "kernel_constraint": null, "activation": "linear"}, "class_name": "Conv2D"}}, "class_name": "TimeDistributed", "inbound_nodes": [[["time_distributed_115", 0, 0, {}]]]}, {"name": "time_distributed_117", "config": {"name": "time_distributed_117", "trainable": true, "layer": {"config": {"name": "batch_normalization_44", "gamma_regularizer": null, "moving_mean_initializer": {"config": {}, "class_name": "Zeros"}, "momentum": 0.99, "beta_initializer": {"config": {}, "class_name": "Zeros"}, "beta_constraint": null, "gamma_constraint": null, "beta_regularizer": null, "moving_variance_initializer": {"config": {}, "class_name": "Ones"}, "center": true, "axis": -1, "scale": true, "gamma_initializer": {"config": {}, "class_name": "Ones"}, "trainable": true, "epsilon": 0.001}, "class_name": "BatchNormalization"}}, "class_name": "TimeDistributed", "inbound_nodes": [[["time_distributed_116", 0, 0, {}]]]}, {"name": "time_distributed_118", "config": {"name": "time_distributed_118", "trainable": true, "layer": {"config": {"name": "activation_30", "trainable": true, "activation": "relu6"}, "class_name": "Activation"}}, "class_name": "TimeDistributed", "inbound_nodes": [[["time_distributed_117", 0, 0, {}]]]}, {"name": "time_distributed_119", "config": {"name": "time_distributed_119", "trainable": true, "layer": {"config": {"name": "depthwise_conv2d_15", "data_format": "channels_last", "trainable": true, "bias_regularizer": null, "activity_regularizer": null, "activation": "linear", "kernel_size": [3, 3], "padding": "same", "dilation_rate": [1, 1], "depth_multiplier": 1, "depthwise_regularizer": null, "strides": [1, 1], "bias_initializer": {"config": {}, "class_name": "Zeros"}, "bias_constraint": null, "use_bias": true, "depthwise_initializer": {"config": {"mode": "fan_avg", "seed": null, "scale": 1.0, "distribution": "uniform"}, "class_name": "VarianceScaling"}, "depthwise_constraint": null}, "class_name": "DepthwiseConv2D"}}, "class_name": "TimeDistributed", "inbound_nodes": [[["time_distributed_118", 0, 0, {}]]]}, {"name": "time_distributed_120", "config": {"name": "time_distributed_120", "trainable": true, "layer": {"config": {"name": "batch_normalization_45", "gamma_regularizer": null, "moving_mean_initializer": {"config": {}, "class_name": "Zeros"}, "momentum": 0.99, "beta_initializer": {"config": {}, "class_name": "Zeros"}, "beta_constraint": null, "gamma_constraint": null, "beta_regularizer": null, "moving_variance_initializer": {"config": {}, "class_name": "Ones"}, "center": true, "axis": -1, "scale": true, "gamma_initializer": {"config": {}, "class_name": "Ones"}, "trainable": true, "epsilon": 0.001}, "class_name": "BatchNormalization"}}, "class_name": "TimeDistributed", "inbound_nodes": [[["time_distributed_119", 0, 0, {}]]]}, {"name": "time_distributed_121", "config": {"name": "time_distributed_121", "trainable": true, "layer": {"config": {"name": "activation_31", "trainable": true, "activation": "relu6"}, "class_name": "Activation"}}, "class_name": "TimeDistributed", "inbound_nodes": [[["time_distributed_120", 0, 0, {}]]]}, {"name": "time_distributed_122", "config": {"name": "time_distributed_122", "trainable": true, "layer": {"config": {"name": "conv2d_31", "trainable": true, "bias_regularizer": null, "filters": 160, "activity_regularizer": null, "kernel_size": [1, 1], "padding": "same", "kernel_regularizer": null, "data_format": "channels_last", "kernel_initializer": {"config": {"mode": "fan_avg", "seed": null, "scale": 1.0, "distribution": "uniform"}, "class_name": "VarianceScaling"}, "strides": [1, 1], "bias_initializer": {"config": {}, "class_name": "Zeros"}, "bias_constraint": null, "use_bias": true, "dilation_rate": [1, 1], "kernel_constraint": null, "activation": "linear"}, "class_name": "Conv2D"}}, "class_name": "TimeDistributed", "inbound_nodes": [[["time_distributed_121", 0, 0, {}]]]}, {"name": "time_distributed_123", "config": {"name": "time_distributed_123", "trainable": true, "layer": {"config": {"name": "batch_normalization_46", "gamma_regularizer": null, "moving_mean_initializer": {"config": {}, "class_name": "Zeros"}, "momentum": 0.99, "beta_initializer": {"config": {}, "class_name": "Zeros"}, "beta_constraint": null, "gamma_constraint": null, "beta_regularizer": null, "moving_variance_initializer": {"config": {}, "class_name": "Ones"}, "center": true, "axis": -1, "scale": true, "gamma_initializer": {"config": {}, "class_name": "Ones"}, "trainable": true, "epsilon": 0.001}, "class_name": "BatchNormalization"}}, "class_name": "TimeDistributed", "inbound_nodes": [[["time_distributed_122", 0, 0, {}]]]}, {"name": "add_9", "config": {"name": "add_9", "trainable": true}, "class_name": "Add", "inbound_nodes": [[["time_distributed_123", 0, 0, {}], ["time_distributed_115", 0, 0, {}]]]}, {"name": "time_distributed_124", "config": {"name": "time_distributed_124", "trainable": true, "layer": {"config": {"name": "conv2d_32", "trainable": true, "bias_regularizer": null, "filters": 960, "activity_regularizer": null, "kernel_size": [1, 1], "padding": "same", "kernel_regularizer": null, "data_format": "channels_last", "kernel_initializer": {"config": {"mode": "fan_avg", "seed": null, "scale": 1.0, "distribution": "uniform"}, "class_name": "VarianceScaling"}, "strides": [1, 1], "bias_initializer": {"config": {}, "class_name": "Zeros"}, "bias_constraint": null, "use_bias": true, "dilation_rate": [1, 1], "kernel_constraint": null, "activation": "linear"}, "class_name": "Conv2D"}}, "class_name": "TimeDistributed", "inbound_nodes": [[["add_9", 0, 0, {}]]]}, {"name": "time_distributed_125", "config": {"name": "time_distributed_125", "trainable": true, "layer": {"config": {"name": "batch_normalization_47", "gamma_regularizer": null, "moving_mean_initializer": {"config": {}, "class_name": "Zeros"}, "momentum": 0.99, "beta_initializer": {"config": {}, "class_name": "Zeros"}, "beta_constraint": null, "gamma_constraint": null, "beta_regularizer": null, "moving_variance_initializer": {"config": {}, "class_name": "Ones"}, "center": true, "axis": -1, "scale": true, "gamma_initializer": {"config": {}, "class_name": "Ones"}, "trainable": true, "epsilon": 0.001}, "class_name": "BatchNormalization"}}, "class_name": "TimeDistributed", "inbound_nodes": [[["time_distributed_124", 0, 0, {}]]]}, {"name": "time_distributed_126", "config": {"name": "time_distributed_126", "trainable": true, "layer": {"config": {"name": "activation_32", "trainable": true, "activation": "relu6"}, "class_name": "Activation"}}, "class_name": "TimeDistributed", "inbound_nodes": [[["time_distributed_125", 0, 0, {}]]]}, {"name": "time_distributed_127", "config": {"name": "time_distributed_127", "trainable": true, "layer": {"config": {"name": "depthwise_conv2d_16", "data_format": "channels_last", "trainable": true, "bias_regularizer": null, "activity_regularizer": null, "activation": "linear", "kernel_size": [3, 3], "padding": "same", "dilation_rate": [1, 1], "depth_multiplier": 1, "depthwise_regularizer": null, "strides": [1, 1], "bias_initializer": {"config": {}, "class_name": "Zeros"}, "bias_constraint": null, "use_bias": true, "depthwise_initializer": {"config": {"mode": "fan_avg", "seed": null, "scale": 1.0, "distribution": "uniform"}, "class_name": "VarianceScaling"}, "depthwise_constraint": null}, "class_name": "DepthwiseConv2D"}}, "class_name": "TimeDistributed", "inbound_nodes": [[["time_distributed_126", 0, 0, {}]]]}, {"name": "time_distributed_128", "config": {"name": "time_distributed_128", "trainable": true, "layer": {"config": {"name": "batch_normalization_48", "gamma_regularizer": null, "moving_mean_initializer": {"config": {}, "class_name": "Zeros"}, "momentum": 0.99, "beta_initializer": {"config": {}, "class_name": "Zeros"}, "beta_constraint": null, "gamma_constraint": null, "beta_regularizer": null, "moving_variance_initializer": {"config": {}, "class_name": "Ones"}, "center": true, "axis": -1, "scale": true, "gamma_initializer": {"config": {}, "class_name": "Ones"}, "trainable": true, "epsilon": 0.001}, "class_name": "BatchNormalization"}}, "class_name": "TimeDistributed", "inbound_nodes": [[["time_distributed_127", 0, 0, {}]]]}, {"name": "time_distributed_129", "config": {"name": "time_distributed_129", "trainable": true, "layer": {"config": {"name": "activation_33", "trainable": true, "activation": "relu6"}, "class_name": "Activation"}}, "class_name": "TimeDistributed", "inbound_nodes": [[["time_distributed_128", 0, 0, {}]]]}, {"name": "time_distributed_130", "config": {"name": "time_distributed_130", "trainable": true, "layer": {"config": {"name": "conv2d_33", "trainable": true, "bias_regularizer": null, "filters": 160, "activity_regularizer": null, "kernel_size": [1, 1], "padding": "same", "kernel_regularizer": null, "data_format": "channels_last", "kernel_initializer": {"config": {"mode": "fan_avg", "seed": null, "scale": 1.0, "distribution": "uniform"}, "class_name": "VarianceScaling"}, "strides": [1, 1], "bias_initializer": {"config": {}, "class_name": "Zeros"}, "bias_constraint": null, "use_bias": true, "dilation_rate": [1, 1], "kernel_constraint": null, "activation": "linear"}, "class_name": "Conv2D"}}, "class_name": "TimeDistributed", "inbound_nodes": [[["time_distributed_129", 0, 0, {}]]]}, {"name": "time_distributed_131", "config": {"name": "time_distributed_131", "trainable": true, "layer": {"config": {"name": "batch_normalization_49", "gamma_regularizer": null, "moving_mean_initializer": {"config": {}, "class_name": "Zeros"}, "momentum": 0.99, "beta_initializer": {"config": {}, "class_name": "Zeros"}, "beta_constraint": null, "gamma_constraint": null, "beta_regularizer": null, "moving_variance_initializer": {"config": {}, "class_name": "Ones"}, "center": true, "axis": -1, "scale": true, "gamma_initializer": {"config": {}, "class_name": "Ones"}, "trainable": true, "epsilon": 0.001}, "class_name": "BatchNormalization"}}, "class_name": "TimeDistributed", "inbound_nodes": [[["time_distributed_130", 0, 0, {}]]]}, {"name": "add_10", "config": {"name": "add_10", "trainable": true}, "class_name": "Add", "inbound_nodes": [[["time_distributed_131", 0, 0, {}], ["add_9", 0, 0, {}]]]}, {"name": "time_distributed_132", "config": {"name": "time_distributed_132", "trainable": true, "layer": {"config": {"name": "conv2d_34", "trainable": true, "bias_regularizer": null, "filters": 960, "activity_regularizer": null, "kernel_size": [1, 1], "padding": "same", "kernel_regularizer": null, "data_format": "channels_last", "kernel_initializer": {"config": {"mode": "fan_avg", "seed": null, "scale": 1.0, "distribution": "uniform"}, "class_name": "VarianceScaling"}, "strides": [1, 1], "bias_initializer": {"config": {}, "class_name": "Zeros"}, "bias_constraint": null, "use_bias": true, "dilation_rate": [1, 1], "kernel_constraint": null, "activation": "linear"}, "class_name": "Conv2D"}}, "class_name": "TimeDistributed", "inbound_nodes": [[["add_10", 0, 0, {}]]]}, {"name": "time_distributed_133", "config": {"name": "time_distributed_133", "trainable": true, "layer": {"config": {"name": "batch_normalization_50", "gamma_regularizer": null, "moving_mean_initializer": {"config": {}, "class_name": "Zeros"}, "momentum": 0.99, "beta_initializer": {"config": {}, "class_name": "Zeros"}, "beta_constraint": null, "gamma_constraint": null, "beta_regularizer": null, "moving_variance_initializer": {"config": {}, "class_name": "Ones"}, "center": true, "axis": -1, "scale": true, "gamma_initializer": {"config": {}, "class_name": "Ones"}, "trainable": true, "epsilon": 0.001}, "class_name": "BatchNormalization"}}, "class_name": "TimeDistributed", "inbound_nodes": [[["time_distributed_132", 0, 0, {}]]]}, {"name": "time_distributed_134", "config": {"name": "time_distributed_134", "trainable": true, "layer": {"config": {"name": "activation_34", "trainable": true, "activation": "relu6"}, "class_name": "Activation"}}, "class_name": "TimeDistributed", "inbound_nodes": [[["time_distributed_133", 0, 0, {}]]]}, {"name": "time_distributed_135", "config": {"name": "time_distributed_135", "trainable": true, "layer": {"config": {"name": "depthwise_conv2d_17", "data_format": "channels_last", "trainable": true, "bias_regularizer": null, "activity_regularizer": null, "activation": "linear", "kernel_size": [3, 3], "padding": "same", "dilation_rate": [1, 1], "depth_multiplier": 1, "depthwise_regularizer": null, "strides": [1, 1], "bias_initializer": {"config": {}, "class_name": "Zeros"}, "bias_constraint": null, "use_bias": true, "depthwise_initializer": {"config": {"mode": "fan_avg", "seed": null, "scale": 1.0, "distribution": "uniform"}, "class_name": "VarianceScaling"}, "depthwise_constraint": null}, "class_name": "DepthwiseConv2D"}}, "class_name": "TimeDistributed", "inbound_nodes": [[["time_distributed_134", 0, 0, {}]]]}, {"name": "time_distributed_136", "config": {"name": "time_distributed_136", "trainable": true, "layer": {"config": {"name": "batch_normalization_51", "gamma_regularizer": null, "moving_mean_initializer": {"config": {}, "class_name": "Zeros"}, "momentum": 0.99, "beta_initializer": {"config": {}, "class_name": "Zeros"}, "beta_constraint": null, "gamma_constraint": null, "beta_regularizer": null, "moving_variance_initializer": {"config": {}, "class_name": "Ones"}, "center": true, "axis": -1, "scale": true, "gamma_initializer": {"config": {}, "class_name": "Ones"}, "trainable": true, "epsilon": 0.001}, "class_name": "BatchNormalization"}}, "class_name": "TimeDistributed", "inbound_nodes": [[["time_distributed_135", 0, 0, {}]]]}, {"name": "time_distributed_137", "config": {"name": "time_distributed_137", "trainable": true, "layer": {"config": {"name": "activation_35", "trainable": true, "activation": "relu6"}, "class_name": "Activation"}}, "class_name": "TimeDistributed", "inbound_nodes": [[["time_distributed_136", 0, 0, {}]]]}, {"name": "time_distributed_138", "config": {"name": "time_distributed_138", "trainable": true, "layer": {"config": {"name": "conv2d_35", "trainable": true, "bias_regularizer": null, "filters": 320, "activity_regularizer": null, "kernel_size": [1, 1], "padding": "same", "kernel_regularizer": null, "data_format": "channels_last", "kernel_initializer": {"config": {"mode": "fan_avg", "seed": null, "scale": 1.0, "distribution": "uniform"}, "class_name": "VarianceScaling"}, "strides": [1, 1], "bias_initializer": {"config": {}, "class_name": "Zeros"}, "bias_constraint": null, "use_bias": true, "dilation_rate": [1, 1], "kernel_constraint": null, "activation": "linear"}, "class_name": "Conv2D"}}, "class_name": "TimeDistributed", "inbound_nodes": [[["time_distributed_137", 0, 0, {}]]]}, {"name": "time_distributed_139", "config": {"name": "time_distributed_139", "trainable": true, "layer": {"config": {"name": "batch_normalization_52", "gamma_regularizer": null, "moving_mean_initializer": {"config": {}, "class_name": "Zeros"}, "momentum": 0.99, "beta_initializer": {"config": {}, "class_name": "Zeros"}, "beta_constraint": null, "gamma_constraint": null, "beta_regularizer": null, "moving_variance_initializer": {"config": {}, "class_name": "Ones"}, "center": true, "axis": -1, "scale": true, "gamma_initializer": {"config": {}, "class_name": "Ones"}, "trainable": true, "epsilon": 0.001}, "class_name": "BatchNormalization"}}, "class_name": "TimeDistributed", "inbound_nodes": [[["time_distributed_138", 0, 0, {}]]]}, {"name": "time_distributed_140", "config": {"name": "time_distributed_140", "trainable": true, "layer": {"config": {"name": "conv2d_36", "trainable": true, "bias_regularizer": null, "filters": 1280, "activity_regularizer": null, "kernel_size": [1, 1], "padding": "same", "kernel_regularizer": null, "data_format": "channels_last", "kernel_initializer": {"config": {"mode": "fan_avg", "seed": null, "scale": 1.0, "distribution": "uniform"}, "class_name": "VarianceScaling"}, "strides": [1, 1], "bias_initializer": {"config": {}, "class_name": "Zeros"}, "bias_constraint": null, "use_bias": true, "dilation_rate": [1, 1], "kernel_constraint": null, "activation": "linear"}, "class_name": "Conv2D"}}, "class_name": "TimeDistributed", "inbound_nodes": [[["time_distributed_139", 0, 0, {}]]]}, {"name": "time_distributed_141", "config": {"name": "time_distributed_141", "trainable": true, "layer": {"config": {"name": "batch_normalization_53", "gamma_regularizer": null, "moving_mean_initializer": {"config": {}, "class_name": "Zeros"}, "momentum": 0.99, "beta_initializer": {"config": {}, "class_name": "Zeros"}, "beta_constraint": null, "gamma_constraint": null, "beta_regularizer": null, "moving_variance_initializer": {"config": {}, "class_name": "Ones"}, "center": true, "axis": -1, "scale": true, "gamma_initializer": {"config": {}, "class_name": "Ones"}, "trainable": true, "epsilon": 0.001}, "class_name": "BatchNormalization"}}, "class_name": "TimeDistributed", "inbound_nodes": [[["time_distributed_140", 0, 0, {}]]]}, {"name": "time_distributed_142", "config": {"name": "time_distributed_142", "trainable": true, "layer": {"config": {"name": "activation_36", "trainable": true, "activation": "relu6"}, "class_name": "Activation"}}, "class_name": "TimeDistributed", "inbound_nodes": [[["time_distributed_141", 0, 0, {}]]]}, {"name": "time_distributed_143", "config": {"name": "time_distributed_143", "trainable": true, "layer": {"config": {"name": "global_average_pooling2d_1", "data_format": "channels_last", "trainable": true}, "class_name": "GlobalAveragePooling2D"}}, "class_name": "TimeDistributed", "inbound_nodes": [[["time_distributed_142", 0, 0, {}]]]}, {"name": "time_distributed_144", "config": {"name": "time_distributed_144", "trainable": true, "layer": {"config": {"name": "dense_1", "bias_regularizer": null, "trainable": true, "activation": "softmax", "activity_regularizer": null, "kernel_regularizer": null, "kernel_initializer": {"config": {"mode": "fan_avg", "seed": null, "scale": 1.0, "distribution": "uniform"}, "class_name": "VarianceScaling"}, "bias_initializer": {"config": {}, "class_name": "Zeros"}, "bias_constraint": null, "use_bias": true, "kernel_constraint": null, "units": 2}, "class_name": "Dense"}}, "class_name": "TimeDistributed", "inbound_nodes": [[["time_distributed_143", 0, 0, {}]]]}, {"name": "reshape_3", "config": {"name": "reshape_3", "target_shape": [9, 16, 2], "trainable": true}, "class_name": "Reshape", "inbound_nodes": [[["time_distributed_144", 0, 0, {}]]]}], "output_layers": [["reshape_3", 0, 0]]}, "class_name": "Model", "keras_version": "2.2.2", "backend": "tensorflow"}