{"config": [{"config": {"use_bias": true, "strides": [1, 1], "data_format": "channels_last", "kernel_regularizer": null, "bias_regularizer": null, "padding": "same", "kernel_initializer": {"config": {"seed": null, "scale": 1.0, "distribution": "uniform", "mode": "fan_avg"}, "class_name": "VarianceScaling"}, "name": "conv2d_1", "activity_regularizer": null, "dilation_rate": [1, 1], "activation": "linear", "filters": 64, "bias_constraint": null, "kernel_size": [3, 3], "dtype": "float32", "bias_initializer": {"config": {}, "class_name": "Zeros"}, "batch_input_shape": [null, 288, 512, 3], "trainable": true, "kernel_constraint": null}, "class_name": "Conv2D"}, {"config": {"epsilon": 0.001, "beta_constraint": null, "beta_initializer": {"config": {}, "class_name": "Zeros"}, "center": true, "gamma_regularizer": null, "gamma_constraint": null, "axis": -1, "scale": true, "moving_mean_initializer": {"config": {}, "class_name": "Zeros"}, "moving_variance_initializer": {"config": {}, "class_name": "Ones"}, "gamma_initializer": {"config": {}, "class_name": "Ones"}, "momentum": 0.99, "beta_regularizer": null, "trainable": true, "name": "batch_normalization_1"}, "class_name": "BatchNormalization"}, {"config": {"activation": "relu", "trainable": true, "name": "activation_1"}, "class_name": "Activation"}, {"config": {"use_bias": true, "strides": [1, 1], "data_format": "channels_last", "kernel_regularizer": null, "bias_regularizer": null, "padding": "same", "kernel_initializer": {"config": {"seed": null, "scale": 1.0, "distribution": "uniform", "mode": "fan_avg"}, "class_name": "VarianceScaling"}, "name": "conv2d_2", "activity_regularizer": null, "dilation_rate": [1, 1], "activation": "linear", "filters": 64, "bias_constraint": null, "kernel_size": [3, 3], "bias_initializer": {"config": {}, "class_name": "Zeros"}, "trainable": true, "kernel_constraint": null}, "class_name": "Conv2D"}, {"config": {"epsilon": 0.001, "beta_constraint": null, "beta_initializer": {"config": {}, "class_name": "Zeros"}, "center": true, "gamma_regularizer": null, "gamma_constraint": null, "axis": -1, "scale": true, "moving_mean_initializer": {"config": {}, "class_name": "Zeros"}, "moving_variance_initializer": {"config": {}, "class_name": "Ones"}, "gamma_initializer": {"config": {}, "class_name": "Ones"}, "momentum": 0.99, "beta_regularizer": null, "trainable": true, "name": "batch_normalization_2"}, "class_name": "BatchNormalization"}, {"config": {"activation": "relu", "trainable": true, "name": "activation_2"}, "class_name": "Activation"}, {"config": {"strides": [2, 2], "data_format": "channels_last", "pool_size": [2, 2], "padding": "valid", "trainable": true, "name": "max_pooling2d_1"}, "class_name": "MaxPooling2D"}, {"config": {"use_bias": true, "strides": [1, 1], "data_format": "channels_last", "kernel_regularizer": null, "bias_regularizer": null, "padding": "same", "kernel_initializer": {"config": {"seed": null, "scale": 1.0, "distribution": "uniform", "mode": "fan_avg"}, "class_name": "VarianceScaling"}, "name": "conv2d_3", "activity_regularizer": null, "dilation_rate": [1, 1], "activation": "linear", "filters": 128, "bias_constraint": null, "kernel_size": [3, 3], "bias_initializer": {"config": {}, "class_name": "Zeros"}, "trainable": true, "kernel_constraint": null}, "class_name": "Conv2D"}, {"config": {"epsilon": 0.001, "beta_constraint": null, "beta_initializer": {"config": {}, "class_name": "Zeros"}, "center": true, "gamma_regularizer": null, "gamma_constraint": null, "axis": -1, "scale": true, "moving_mean_initializer": {"config": {}, "class_name": "Zeros"}, "moving_variance_initializer": {"config": {}, "class_name": "Ones"}, "gamma_initializer": {"config": {}, "class_name": "Ones"}, "momentum": 0.99, "beta_regularizer": null, "trainable": true, "name": "batch_normalization_3"}, "class_name": "BatchNormalization"}, {"config": {"activation": "relu", "trainable": true, "name": "activation_3"}, "class_name": "Activation"}, {"config": {"use_bias": true, "strides": [1, 1], "data_format": "channels_last", "kernel_regularizer": null, "bias_regularizer": null, "padding": "same", "kernel_initializer": {"config": {"seed": null, "scale": 1.0, "distribution": "uniform", "mode": "fan_avg"}, "class_name": "VarianceScaling"}, "name": "conv2d_4", "activity_regularizer": null, "dilation_rate": [1, 1], "activation": "linear", "filters": 128, "bias_constraint": null, "kernel_size": [3, 3], "bias_initializer": {"config": {}, "class_name": "Zeros"}, "trainable": true, "kernel_constraint": null}, "class_name": "Conv2D"}, {"config": {"epsilon": 0.001, "beta_constraint": null, "beta_initializer": {"config": {}, "class_name": "Zeros"}, "center": true, "gamma_regularizer": null, "gamma_constraint": null, "axis": -1, "scale": true, "moving_mean_initializer": {"config": {}, "class_name": "Zeros"}, "moving_variance_initializer": {"config": {}, "class_name": "Ones"}, "gamma_initializer": {"config": {}, "class_name": "Ones"}, "momentum": 0.99, "beta_regularizer": null, "trainable": true, "name": "batch_normalization_4"}, "class_name": "BatchNormalization"}, {"config": {"activation": "relu", "trainable": true, "name": "activation_4"}, "class_name": "Activation"}, {"config": {"strides": [2, 2], "data_format": "channels_last", "pool_size": [2, 2], "padding": "valid", "trainable": true, "name": "max_pooling2d_2"}, "class_name": "MaxPooling2D"}, {"config": {"use_bias": true, "strides": [1, 1], "data_format": "channels_last", "kernel_regularizer": null, "bias_regularizer": null, "padding": "same", "kernel_initializer": {"config": {"seed": null, "scale": 1.0, "distribution": "uniform", "mode": "fan_avg"}, "class_name": "VarianceScaling"}, "name": "conv2d_5", "activity_regularizer": null, "dilation_rate": [1, 1], "activation": "linear", "filters": 256, "bias_constraint": null, "kernel_size": [3, 3], "bias_initializer": {"config": {}, "class_name": "Zeros"}, "trainable": true, "kernel_constraint": null}, "class_name": "Conv2D"}, {"config": {"epsilon": 0.001, "beta_constraint": null, "beta_initializer": {"config": {}, "class_name": "Zeros"}, "center": true, "gamma_regularizer": null, "gamma_constraint": null, "axis": -1, "scale": true, "moving_mean_initializer": {"config": {}, "class_name": "Zeros"}, "moving_variance_initializer": {"config": {}, "class_name": "Ones"}, "gamma_initializer": {"config": {}, "class_name": "Ones"}, "momentum": 0.99, "beta_regularizer": null, "trainable": true, "name": "batch_normalization_5"}, "class_name": "BatchNormalization"}, {"config": {"activation": "relu", "trainable": true, "name": "activation_5"}, "class_name": "Activation"}, {"config": {"use_bias": true, "strides": [1, 1], "data_format": "channels_last", "kernel_regularizer": null, "bias_regularizer": null, "padding": "same", "kernel_initializer": {"config": {"seed": null, "scale": 1.0, "distribution": "uniform", "mode": "fan_avg"}, "class_name": "VarianceScaling"}, "name": "conv2d_6", "activity_regularizer": null, "dilation_rate": [1, 1], "activation": "linear", "filters": 256, "bias_constraint": null, "kernel_size": [3, 3], "bias_initializer": {"config": {}, "class_name": "Zeros"}, "trainable": true, "kernel_constraint": null}, "class_name": "Conv2D"}, {"config": {"epsilon": 0.001, "beta_constraint": null, "beta_initializer": {"config": {}, "class_name": "Zeros"}, "center": true, "gamma_regularizer": null, "gamma_constraint": null, "axis": -1, "scale": true, "moving_mean_initializer": {"config": {}, "class_name": "Zeros"}, "moving_variance_initializer": {"config": {}, "class_name": "Ones"}, "gamma_initializer": {"config": {}, "class_name": "Ones"}, "momentum": 0.99, "beta_regularizer": null, "trainable": true, "name": "batch_normalization_6"}, "class_name": "BatchNormalization"}, {"config": {"activation": "relu", "trainable": true, "name": "activation_6"}, "class_name": "Activation"}, {"config": {"use_bias": true, "strides": [1, 1], "data_format": "channels_last", "kernel_regularizer": null, "bias_regularizer": null, "padding": "same", "kernel_initializer": {"config": {"seed": null, "scale": 1.0, "distribution": "uniform", "mode": "fan_avg"}, "class_name": "VarianceScaling"}, "name": "conv2d_7", "activity_regularizer": null, "dilation_rate": [1, 1], "activation": "linear", "filters": 256, "bias_constraint": null, "kernel_size": [3, 3], "bias_initializer": {"config": {}, "class_name": "Zeros"}, "trainable": true, "kernel_constraint": null}, "class_name": "Conv2D"}, {"config": {"epsilon": 0.001, "beta_constraint": null, "beta_initializer": {"config": {}, "class_name": "Zeros"}, "center": true, "gamma_regularizer": null, "gamma_constraint": null, "axis": -1, "scale": true, "moving_mean_initializer": {"config": {}, "class_name": "Zeros"}, "moving_variance_initializer": {"config": {}, "class_name": "Ones"}, "gamma_initializer": {"config": {}, "class_name": "Ones"}, "momentum": 0.99, "beta_regularizer": null, "trainable": true, "name": "batch_normalization_7"}, "class_name": "BatchNormalization"}, {"config": {"activation": "relu", "trainable": true, "name": "activation_7"}, "class_name": "Activation"}, {"config": {"strides": [2, 2], "data_format": "channels_last", "pool_size": [2, 2], "padding": "valid", "trainable": true, "name": "max_pooling2d_3"}, "class_name": "MaxPooling2D"}, {"config": {"use_bias": true, "strides": [1, 1], "data_format": "channels_last", "kernel_regularizer": null, "bias_regularizer": null, "padding": "same", "kernel_initializer": {"config": {"seed": null, "scale": 1.0, "distribution": "uniform", "mode": "fan_avg"}, "class_name": "VarianceScaling"}, "name": "conv2d_8", "activity_regularizer": null, "dilation_rate": [1, 1], "activation": "linear", "filters": 512, "bias_constraint": null, "kernel_size": [3, 3], "bias_initializer": {"config": {}, "class_name": "Zeros"}, "trainable": true, "kernel_constraint": null}, "class_name": "Conv2D"}, {"config": {"epsilon": 0.001, "beta_constraint": null, "beta_initializer": {"config": {}, "class_name": "Zeros"}, "center": true, "gamma_regularizer": null, "gamma_constraint": null, "axis": -1, "scale": true, "moving_mean_initializer": {"config": {}, "class_name": "Zeros"}, "moving_variance_initializer": {"config": {}, "class_name": "Ones"}, "gamma_initializer": {"config": {}, "class_name": "Ones"}, "momentum": 0.99, "beta_regularizer": null, "trainable": true, "name": "batch_normalization_8"}, "class_name": "BatchNormalization"}, {"config": {"activation": "relu", "trainable": true, "name": "activation_8"}, "class_name": "Activation"}, {"config": {"use_bias": true, "strides": [1, 1], "data_format": "channels_last", "kernel_regularizer": null, "bias_regularizer": null, "padding": "same", "kernel_initializer": {"config": {"seed": null, "scale": 1.0, "distribution": "uniform", "mode": "fan_avg"}, "class_name": "VarianceScaling"}, "name": "conv2d_9", "activity_regularizer": null, "dilation_rate": [1, 1], "activation": "linear", "filters": 512, "bias_constraint": null, "kernel_size": [3, 3], "bias_initializer": {"config": {}, "class_name": "Zeros"}, "trainable": true, "kernel_constraint": null}, "class_name": "Conv2D"}, {"config": {"epsilon": 0.001, "beta_constraint": null, "beta_initializer": {"config": {}, "class_name": "Zeros"}, "center": true, "gamma_regularizer": null, "gamma_constraint": null, "axis": -1, "scale": true, "moving_mean_initializer": {"config": {}, "class_name": "Zeros"}, "moving_variance_initializer": {"config": {}, "class_name": "Ones"}, "gamma_initializer": {"config": {}, "class_name": "Ones"}, "momentum": 0.99, "beta_regularizer": null, "trainable": true, "name": "batch_normalization_9"}, "class_name": "BatchNormalization"}, {"config": {"activation": "relu", "trainable": true, "name": "activation_9"}, "class_name": "Activation"}, {"config": {"use_bias": true, "strides": [1, 1], "data_format": "channels_last", "kernel_regularizer": null, "bias_regularizer": null, "padding": "same", "kernel_initializer": {"config": {"seed": null, "scale": 1.0, "distribution": "uniform", "mode": "fan_avg"}, "class_name": "VarianceScaling"}, "name": "conv2d_10", "activity_regularizer": null, "dilation_rate": [1, 1], "activation": "linear", "filters": 512, "bias_constraint": null, "kernel_size": [3, 3], "bias_initializer": {"config": {}, "class_name": "Zeros"}, "trainable": true, "kernel_constraint": null}, "class_name": "Conv2D"}, {"config": {"epsilon": 0.001, "beta_constraint": null, "beta_initializer": {"config": {}, "class_name": "Zeros"}, "center": true, "gamma_regularizer": null, "gamma_constraint": null, "axis": -1, "scale": true, "moving_mean_initializer": {"config": {}, "class_name": "Zeros"}, "moving_variance_initializer": {"config": {}, "class_name": "Ones"}, "gamma_initializer": {"config": {}, "class_name": "Ones"}, "momentum": 0.99, "beta_regularizer": null, "trainable": true, "name": "batch_normalization_10"}, "class_name": "BatchNormalization"}, {"config": {"activation": "relu", "trainable": true, "name": "activation_10"}, "class_name": "Activation"}, {"config": {"strides": [2, 2], "data_format": "channels_last", "pool_size": [2, 2], "padding": "valid", "trainable": true, "name": "max_pooling2d_4"}, "class_name": "MaxPooling2D"}, {"config": {"use_bias": true, "strides": [1, 1], "data_format": "channels_last", "kernel_regularizer": null, "bias_regularizer": null, "padding": "same", "kernel_initializer": {"config": {"seed": null, "scale": 1.0, "distribution": "uniform", "mode": "fan_avg"}, "class_name": "VarianceScaling"}, "name": "conv2d_11", "activity_regularizer": null, "dilation_rate": [1, 1], "activation": "linear", "filters": 512, "bias_constraint": null, "kernel_size": [3, 3], "bias_initializer": {"config": {}, "class_name": "Zeros"}, "trainable": true, "kernel_constraint": null}, "class_name": "Conv2D"}, {"config": {"epsilon": 0.001, "beta_constraint": null, "beta_initializer": {"config": {}, "class_name": "Zeros"}, "center": true, "gamma_regularizer": null, "gamma_constraint": null, "axis": -1, "scale": true, "moving_mean_initializer": {"config": {}, "class_name": "Zeros"}, "moving_variance_initializer": {"config": {}, "class_name": "Ones"}, "gamma_initializer": {"config": {}, "class_name": "Ones"}, "momentum": 0.99, "beta_regularizer": null, "trainable": true, "name": "batch_normalization_11"}, "class_name": "BatchNormalization"}, {"config": {"activation": "relu", "trainable": true, "name": "activation_11"}, "class_name": "Activation"}, {"config": {"use_bias": true, "strides": [1, 1], "data_format": "channels_last", "kernel_regularizer": null, "bias_regularizer": null, "padding": "same", "kernel_initializer": {"config": {"seed": null, "scale": 1.0, "distribution": "uniform", "mode": "fan_avg"}, "class_name": "VarianceScaling"}, "name": "conv2d_12", "activity_regularizer": null, "dilation_rate": [1, 1], "activation": "linear", "filters": 512, "bias_constraint": null, "kernel_size": [3, 3], "bias_initializer": {"config": {}, "class_name": "Zeros"}, "trainable": true, "kernel_constraint": null}, "class_name": "Conv2D"}, {"config": {"epsilon": 0.001, "beta_constraint": null, "beta_initializer": {"config": {}, "class_name": "Zeros"}, "center": true, "gamma_regularizer": null, "gamma_constraint": null, "axis": -1, "scale": true, "moving_mean_initializer": {"config": {}, "class_name": "Zeros"}, "moving_variance_initializer": {"config": {}, "class_name": "Ones"}, "gamma_initializer": {"config": {}, "class_name": "Ones"}, "momentum": 0.99, "beta_regularizer": null, "trainable": true, "name": "batch_normalization_12"}, "class_name": "BatchNormalization"}, {"config": {"activation": "relu", "trainable": true, "name": "activation_12"}, "class_name": "Activation"}, {"config": {"use_bias": true, "strides": [1, 1], "data_format": "channels_last", "kernel_regularizer": null, "bias_regularizer": null, "padding": "same", "kernel_initializer": {"config": {"seed": null, "scale": 1.0, "distribution": "uniform", "mode": "fan_avg"}, "class_name": "VarianceScaling"}, "name": "conv2d_13", "activity_regularizer": null, "dilation_rate": [1, 1], "activation": "linear", "filters": 512, "bias_constraint": null, "kernel_size": [3, 3], "bias_initializer": {"config": {}, "class_name": "Zeros"}, "trainable": true, "kernel_constraint": null}, "class_name": "Conv2D"}, {"config": {"epsilon": 0.001, "beta_constraint": null, "beta_initializer": {"config": {}, "class_name": "Zeros"}, "center": true, "gamma_regularizer": null, "gamma_constraint": null, "axis": -1, "scale": true, "moving_mean_initializer": {"config": {}, "class_name": "Zeros"}, "moving_variance_initializer": {"config": {}, "class_name": "Ones"}, "gamma_initializer": {"config": {}, "class_name": "Ones"}, "momentum": 0.99, "beta_regularizer": null, "trainable": true, "name": "batch_normalization_13"}, "class_name": "BatchNormalization"}, {"config": {"activation": "relu", "trainable": true, "name": "activation_13"}, "class_name": "Activation"}, {"config": {"strides": [2, 2], "data_format": "channels_last", "pool_size": [2, 2], "padding": "valid", "trainable": true, "name": "max_pooling2d_5"}, "class_name": "MaxPooling2D"}, {"config": {"data_format": "channels_last", "size": [2, 2], "trainable": true, "name": "up_sampling2d_1"}, "class_name": "UpSampling2D"}, {"config": {"use_bias": true, "strides": [1, 1], "data_format": "channels_last", "kernel_regularizer": null, "bias_regularizer": null, "padding": "same", "kernel_initializer": {"config": {"seed": null, "scale": 1.0, "distribution": "uniform", "mode": "fan_avg"}, "class_name": "VarianceScaling"}, "name": "conv2d_14", "activity_regularizer": null, "dilation_rate": [1, 1], "activation": "linear", "filters": 512, "bias_constraint": null, "kernel_size": [3, 3], "bias_initializer": {"config": {}, "class_name": "Zeros"}, "trainable": true, "kernel_constraint": null}, "class_name": "Conv2D"}, {"config": {"epsilon": 0.001, "beta_constraint": null, "beta_initializer": {"config": {}, "class_name": "Zeros"}, "center": true, "gamma_regularizer": null, "gamma_constraint": null, "axis": -1, "scale": true, "moving_mean_initializer": {"config": {}, "class_name": "Zeros"}, "moving_variance_initializer": {"config": {}, "class_name": "Ones"}, "gamma_initializer": {"config": {}, "class_name": "Ones"}, "momentum": 0.99, "beta_regularizer": null, "trainable": true, "name": "batch_normalization_14"}, "class_name": "BatchNormalization"}, {"config": {"activation": "relu", "trainable": true, "name": "activation_14"}, "class_name": "Activation"}, {"config": {"use_bias": true, "strides": [1, 1], "data_format": "channels_last", "kernel_regularizer": null, "bias_regularizer": null, "padding": "same", "kernel_initializer": {"config": {"seed": null, "scale": 1.0, "distribution": "uniform", "mode": "fan_avg"}, "class_name": "VarianceScaling"}, "name": "conv2d_15", "activity_regularizer": null, "dilation_rate": [1, 1], "activation": "linear", "filters": 512, "bias_constraint": null, "kernel_size": [3, 3], "bias_initializer": {"config": {}, "class_name": "Zeros"}, "trainable": true, "kernel_constraint": null}, "class_name": "Conv2D"}, {"config": {"epsilon": 0.001, "beta_constraint": null, "beta_initializer": {"config": {}, "class_name": "Zeros"}, "center": true, "gamma_regularizer": null, "gamma_constraint": null, "axis": -1, "scale": true, "moving_mean_initializer": {"config": {}, "class_name": "Zeros"}, "moving_variance_initializer": {"config": {}, "class_name": "Ones"}, "gamma_initializer": {"config": {}, "class_name": "Ones"}, "momentum": 0.99, "beta_regularizer": null, "trainable": true, "name": "batch_normalization_15"}, "class_name": "BatchNormalization"}, {"config": {"activation": "relu", "trainable": true, "name": "activation_15"}, "class_name": "Activation"}, {"config": {"use_bias": true, "strides": [1, 1], "data_format": "channels_last", "kernel_regularizer": null, "bias_regularizer": null, "padding": "same", "kernel_initializer": {"config": {"seed": null, "scale": 1.0, "distribution": "uniform", "mode": "fan_avg"}, "class_name": "VarianceScaling"}, "name": "conv2d_16", "activity_regularizer": null, "dilation_rate": [1, 1], "activation": "linear", "filters": 512, "bias_constraint": null, "kernel_size": [3, 3], "bias_initializer": {"config": {}, "class_name": "Zeros"}, "trainable": true, "kernel_constraint": null}, "class_name": "Conv2D"}, {"config": {"epsilon": 0.001, "beta_constraint": null, "beta_initializer": {"config": {}, "class_name": "Zeros"}, "center": true, "gamma_regularizer": null, "gamma_constraint": null, "axis": -1, "scale": true, "moving_mean_initializer": {"config": {}, "class_name": "Zeros"}, "moving_variance_initializer": {"config": {}, "class_name": "Ones"}, "gamma_initializer": {"config": {}, "class_name": "Ones"}, "momentum": 0.99, "beta_regularizer": null, "trainable": true, "name": "batch_normalization_16"}, "class_name": "BatchNormalization"}, {"config": {"activation": "relu", "trainable": true, "name": "activation_16"}, "class_name": "Activation"}, {"config": {"data_format": "channels_last", "size": [2, 2], "trainable": true, "name": "up_sampling2d_2"}, "class_name": "UpSampling2D"}, {"config": {"use_bias": true, "strides": [1, 1], "data_format": "channels_last", "kernel_regularizer": null, "bias_regularizer": null, "padding": "same", "kernel_initializer": {"config": {"seed": null, "scale": 1.0, "distribution": "uniform", "mode": "fan_avg"}, "class_name": "VarianceScaling"}, "name": "conv2d_17", "activity_regularizer": null, "dilation_rate": [1, 1], "activation": "linear", "filters": 512, "bias_constraint": null, "kernel_size": [3, 3], "bias_initializer": {"config": {}, "class_name": "Zeros"}, "trainable": true, "kernel_constraint": null}, "class_name": "Conv2D"}, {"config": {"epsilon": 0.001, "beta_constraint": null, "beta_initializer": {"config": {}, "class_name": "Zeros"}, "center": true, "gamma_regularizer": null, "gamma_constraint": null, "axis": -1, "scale": true, "moving_mean_initializer": {"config": {}, "class_name": "Zeros"}, "moving_variance_initializer": {"config": {}, "class_name": "Ones"}, "gamma_initializer": {"config": {}, "class_name": "Ones"}, "momentum": 0.99, "beta_regularizer": null, "trainable": true, "name": "batch_normalization_17"}, "class_name": "BatchNormalization"}, {"config": {"activation": "relu", "trainable": true, "name": "activation_17"}, "class_name": "Activation"}, {"config": {"use_bias": true, "strides": [1, 1], "data_format": "channels_last", "kernel_regularizer": null, "bias_regularizer": null, "padding": "same", "kernel_initializer": {"config": {"seed": null, "scale": 1.0, "distribution": "uniform", "mode": "fan_avg"}, "class_name": "VarianceScaling"}, "name": "conv2d_18", "activity_regularizer": null, "dilation_rate": [1, 1], "activation": "linear", "filters": 512, "bias_constraint": null, "kernel_size": [3, 3], "bias_initializer": {"config": {}, "class_name": "Zeros"}, "trainable": true, "kernel_constraint": null}, "class_name": "Conv2D"}, {"config": {"epsilon": 0.001, "beta_constraint": null, "beta_initializer": {"config": {}, "class_name": "Zeros"}, "center": true, "gamma_regularizer": null, "gamma_constraint": null, "axis": -1, "scale": true, "moving_mean_initializer": {"config": {}, "class_name": "Zeros"}, "moving_variance_initializer": {"config": {}, "class_name": "Ones"}, "gamma_initializer": {"config": {}, "class_name": "Ones"}, "momentum": 0.99, "beta_regularizer": null, "trainable": true, "name": "batch_normalization_18"}, "class_name": "BatchNormalization"}, {"config": {"activation": "relu", "trainable": true, "name": "activation_18"}, "class_name": "Activation"}, {"config": {"use_bias": true, "strides": [1, 1], "data_format": "channels_last", "kernel_regularizer": null, "bias_regularizer": null, "padding": "same", "kernel_initializer": {"config": {"seed": null, "scale": 1.0, "distribution": "uniform", "mode": "fan_avg"}, "class_name": "VarianceScaling"}, "name": "conv2d_19", "activity_regularizer": null, "dilation_rate": [1, 1], "activation": "linear", "filters": 256, "bias_constraint": null, "kernel_size": [3, 3], "bias_initializer": {"config": {}, "class_name": "Zeros"}, "trainable": true, "kernel_constraint": null}, "class_name": "Conv2D"}, {"config": {"epsilon": 0.001, "beta_constraint": null, "beta_initializer": {"config": {}, "class_name": "Zeros"}, "center": true, "gamma_regularizer": null, "gamma_constraint": null, "axis": -1, "scale": true, "moving_mean_initializer": {"config": {}, "class_name": "Zeros"}, "moving_variance_initializer": {"config": {}, "class_name": "Ones"}, "gamma_initializer": {"config": {}, "class_name": "Ones"}, "momentum": 0.99, "beta_regularizer": null, "trainable": true, "name": "batch_normalization_19"}, "class_name": "BatchNormalization"}, {"config": {"activation": "relu", "trainable": true, "name": "activation_19"}, "class_name": "Activation"}, {"config": {"data_format": "channels_last", "size": [2, 2], "trainable": true, "name": "up_sampling2d_3"}, "class_name": "UpSampling2D"}, {"config": {"use_bias": true, "strides": [1, 1], "data_format": "channels_last", "kernel_regularizer": null, "bias_regularizer": null, "padding": "same", "kernel_initializer": {"config": {"seed": null, "scale": 1.0, "distribution": "uniform", "mode": "fan_avg"}, "class_name": "VarianceScaling"}, "name": "conv2d_20", "activity_regularizer": null, "dilation_rate": [1, 1], "activation": "linear", "filters": 256, "bias_constraint": null, "kernel_size": [3, 3], "bias_initializer": {"config": {}, "class_name": "Zeros"}, "trainable": true, "kernel_constraint": null}, "class_name": "Conv2D"}, {"config": {"epsilon": 0.001, "beta_constraint": null, "beta_initializer": {"config": {}, "class_name": "Zeros"}, "center": true, "gamma_regularizer": null, "gamma_constraint": null, "axis": -1, "scale": true, "moving_mean_initializer": {"config": {}, "class_name": "Zeros"}, "moving_variance_initializer": {"config": {}, "class_name": "Ones"}, "gamma_initializer": {"config": {}, "class_name": "Ones"}, "momentum": 0.99, "beta_regularizer": null, "trainable": true, "name": "batch_normalization_20"}, "class_name": "BatchNormalization"}, {"config": {"activation": "relu", "trainable": true, "name": "activation_20"}, "class_name": "Activation"}, {"config": {"use_bias": true, "strides": [1, 1], "data_format": "channels_last", "kernel_regularizer": null, "bias_regularizer": null, "padding": "same", "kernel_initializer": {"config": {"seed": null, "scale": 1.0, "distribution": "uniform", "mode": "fan_avg"}, "class_name": "VarianceScaling"}, "name": "conv2d_21", "activity_regularizer": null, "dilation_rate": [1, 1], "activation": "linear", "filters": 256, "bias_constraint": null, "kernel_size": [3, 3], "bias_initializer": {"config": {}, "class_name": "Zeros"}, "trainable": true, "kernel_constraint": null}, "class_name": "Conv2D"}, {"config": {"epsilon": 0.001, "beta_constraint": null, "beta_initializer": {"config": {}, "class_name": "Zeros"}, "center": true, "gamma_regularizer": null, "gamma_constraint": null, "axis": -1, "scale": true, "moving_mean_initializer": {"config": {}, "class_name": "Zeros"}, "moving_variance_initializer": {"config": {}, "class_name": "Ones"}, "gamma_initializer": {"config": {}, "class_name": "Ones"}, "momentum": 0.99, "beta_regularizer": null, "trainable": true, "name": "batch_normalization_21"}, "class_name": "BatchNormalization"}, {"config": {"activation": "relu", "trainable": true, "name": "activation_21"}, "class_name": "Activation"}, {"config": {"use_bias": true, "strides": [1, 1], "data_format": "channels_last", "kernel_regularizer": null, "bias_regularizer": null, "padding": "same", "kernel_initializer": {"config": {"seed": null, "scale": 1.0, "distribution": "uniform", "mode": "fan_avg"}, "class_name": "VarianceScaling"}, "name": "conv2d_22", "activity_regularizer": null, "dilation_rate": [1, 1], "activation": "linear", "filters": 128, "bias_constraint": null, "kernel_size": [3, 3], "bias_initializer": {"config": {}, "class_name": "Zeros"}, "trainable": true, "kernel_constraint": null}, "class_name": "Conv2D"}, {"config": {"epsilon": 0.001, "beta_constraint": null, "beta_initializer": {"config": {}, "class_name": "Zeros"}, "center": true, "gamma_regularizer": null, "gamma_constraint": null, "axis": -1, "scale": true, "moving_mean_initializer": {"config": {}, "class_name": "Zeros"}, "moving_variance_initializer": {"config": {}, "class_name": "Ones"}, "gamma_initializer": {"config": {}, "class_name": "Ones"}, "momentum": 0.99, "beta_regularizer": null, "trainable": true, "name": "batch_normalization_22"}, "class_name": "BatchNormalization"}, {"config": {"activation": "relu", "trainable": true, "name": "activation_22"}, "class_name": "Activation"}, {"config": {"data_format": "channels_last", "size": [2, 2], "trainable": true, "name": "up_sampling2d_4"}, "class_name": "UpSampling2D"}, {"config": {"use_bias": true, "strides": [1, 1], "data_format": "channels_last", "kernel_regularizer": null, "bias_regularizer": null, "padding": "same", "kernel_initializer": {"config": {"seed": null, "scale": 1.0, "distribution": "uniform", "mode": "fan_avg"}, "class_name": "VarianceScaling"}, "name": "conv2d_23", "activity_regularizer": null, "dilation_rate": [1, 1], "activation": "linear", "filters": 128, "bias_constraint": null, "kernel_size": [3, 3], "bias_initializer": {"config": {}, "class_name": "Zeros"}, "trainable": true, "kernel_constraint": null}, "class_name": "Conv2D"}, {"config": {"epsilon": 0.001, "beta_constraint": null, "beta_initializer": {"config": {}, "class_name": "Zeros"}, "center": true, "gamma_regularizer": null, "gamma_constraint": null, "axis": -1, "scale": true, "moving_mean_initializer": {"config": {}, "class_name": "Zeros"}, "moving_variance_initializer": {"config": {}, "class_name": "Ones"}, "gamma_initializer": {"config": {}, "class_name": "Ones"}, "momentum": 0.99, "beta_regularizer": null, "trainable": true, "name": "batch_normalization_23"}, "class_name": "BatchNormalization"}, {"config": {"activation": "relu", "trainable": true, "name": "activation_23"}, "class_name": "Activation"}, {"config": {"use_bias": true, "strides": [1, 1], "data_format": "channels_last", "kernel_regularizer": null, "bias_regularizer": null, "padding": "same", "kernel_initializer": {"config": {"seed": null, "scale": 1.0, "distribution": "uniform", "mode": "fan_avg"}, "class_name": "VarianceScaling"}, "name": "conv2d_24", "activity_regularizer": null, "dilation_rate": [1, 1], "activation": "linear", "filters": 64, "bias_constraint": null, "kernel_size": [3, 3], "bias_initializer": {"config": {}, "class_name": "Zeros"}, "trainable": true, "kernel_constraint": null}, "class_name": "Conv2D"}, {"config": {"epsilon": 0.001, "beta_constraint": null, "beta_initializer": {"config": {}, "class_name": "Zeros"}, "center": true, "gamma_regularizer": null, "gamma_constraint": null, "axis": -1, "scale": true, "moving_mean_initializer": {"config": {}, "class_name": "Zeros"}, "moving_variance_initializer": {"config": {}, "class_name": "Ones"}, "gamma_initializer": {"config": {}, "class_name": "Ones"}, "momentum": 0.99, "beta_regularizer": null, "trainable": true, "name": "batch_normalization_24"}, "class_name": "BatchNormalization"}, {"config": {"activation": "relu", "trainable": true, "name": "activation_24"}, "class_name": "Activation"}, {"config": {"data_format": "channels_last", "size": [2, 2], "trainable": true, "name": "up_sampling2d_5"}, "class_name": "UpSampling2D"}, {"config": {"use_bias": true, "strides": [1, 1], "data_format": "channels_last", "kernel_regularizer": null, "bias_regularizer": null, "padding": "same", "kernel_initializer": {"config": {"seed": null, "scale": 1.0, "distribution": "uniform", "mode": "fan_avg"}, "class_name": "VarianceScaling"}, "name": "conv2d_25", "activity_regularizer": null, "dilation_rate": [1, 1], "activation": "linear", "filters": 64, "bias_constraint": null, "kernel_size": [3, 3], "bias_initializer": {"config": {}, "class_name": "Zeros"}, "trainable": true, "kernel_constraint": null}, "class_name": "Conv2D"}, {"config": {"epsilon": 0.001, "beta_constraint": null, "beta_initializer": {"config": {}, "class_name": "Zeros"}, "center": true, "gamma_regularizer": null, "gamma_constraint": null, "axis": -1, "scale": true, "moving_mean_initializer": {"config": {}, "class_name": "Zeros"}, "moving_variance_initializer": {"config": {}, "class_name": "Ones"}, "gamma_initializer": {"config": {}, "class_name": "Ones"}, "momentum": 0.99, "beta_regularizer": null, "trainable": true, "name": "batch_normalization_25"}, "class_name": "BatchNormalization"}, {"config": {"activation": "relu", "trainable": true, "name": "activation_25"}, "class_name": "Activation"}, {"config": {"use_bias": true, "strides": [1, 1], "data_format": "channels_last", "kernel_regularizer": null, "bias_regularizer": null, "padding": "valid", "kernel_initializer": {"config": {"seed": null, "scale": 1.0, "distribution": "uniform", "mode": "fan_avg"}, "class_name": "VarianceScaling"}, "name": "conv2d_26", "activity_regularizer": null, "dilation_rate": [1, 1], "activation": "linear", "filters": 2, "bias_constraint": null, "kernel_size": [1, 1], "bias_initializer": {"config": {}, "class_name": "Zeros"}, "trainable": true, "kernel_constraint": null}, "class_name": "Conv2D"}, {"config": {"epsilon": 0.001, "beta_constraint": null, "beta_initializer": {"config": {}, "class_name": "Zeros"}, "center": true, "gamma_regularizer": null, "gamma_constraint": null, "axis": -1, "scale": true, "moving_mean_initializer": {"config": {}, "class_name": "Zeros"}, "moving_variance_initializer": {"config": {}, "class_name": "Ones"}, "gamma_initializer": {"config": {}, "class_name": "Ones"}, "momentum": 0.99, "beta_regularizer": null, "trainable": true, "name": "batch_normalization_26"}, "class_name": "BatchNormalization"}, {"config": {"target_shape": [2, 147456], "trainable": true, "name": "reshape_1"}, "class_name": "Reshape"}, {"config": {"dims": [2, 1], "trainable": true, "name": "permute_1"}, "class_name": "Permute"}, {"config": {"target_shape": [288, 512, 2], "trainable": true, "name": "reshape_2"}, "class_name": "Reshape"}, {"config": {"activation": "softmax", "trainable": true, "name": "activation_26"}, "class_name": "Activation"}], "class_name": "Sequential", "backend": "tensorflow", "keras_version": "2.2.2"}